model_checkpoint.pth (torch, 701858 bytes, 35 tensors)

newsencoder.doc_encoder.layer.0.weight f4 [128, 300]
0.030897385 0.03297432 -0.007916769 0.040778514 -0.0057895416 0.006523331 -0.026392255 0.028149849
0.041007068 -0.028824463 0.034429196 0.00586264 0.03449604 0.008911596 0.019274255 -0.004843288
0.035697833 0.0028559417 -0.020943418 0.011219071 -0.014690925 -0.0019901998 -0.01721632 0.026315214
-0.02877779 -0.01898392 -0.017342838 -0.026955618 0.0044246837 -0.042337228 0.031608716 -0.031199204
0.03100807 0.0069262222 -0.0120069245 0.027412381 0.007595694 0.038204987 0.0025622698 -0.010959561
0.009293011 -0.012247912 0.011793941 0.03819094 0.02053134 -0.0247687 0.01828978 0.0061693154
0.025128312 -0.025004249 -0.042106215 -0.016508272 -0.0287855 0.028048003 0.012571798 0.021617284
0.014681004 0.0036606363 0.03283253 -0.02839808 0.0025382705 -0.030162895 0.010503822 -0.01375175
0.014500812 -0.008771662 0.037439167 -0.027051782 -0.027997985 -0.028167274 0.041958496 0.010678743
0.040258095 -0.035784993 -0.042378057 -0.034344144 -0.02814043 0.019450726 0.009659905 0.03423144
-0.019177824 -0.029168846 0.022189742 -0.018839 0.021772334 -0.010041325 0.020924574 -0.029424872
-0.017712627 0.011833713 0.0067792484 -0.012153919 0.02725481 0.029665858 -0.02995013 -0.023393253
0.03952104 -0.01948643 -0.017148327 -0.045097563 -0.025334908 0.011707049 -0.0023765154 -0.02980415
-0.00055841124 -0.025911286 -0.03408398 -0.021062572 -0.036406618 -0.027498003 0.041915767 0.010056268
0.0147513 -0.03977224 -0.02768326 -0.011113088 0.002693543 -0.03677983 -0.014394724 -0.02548728
0.00024585976 -0.017975628 -0.0038420837 -0.026993426 -0.027861273 -0.022726957 -0.01073896 -0.036678337
0.03478748 -0.008517839 0.035781465 0.012130401 -0.03438763 0.031849377 -0.014160129 -0.013528557
-0.042179175 -0.046038207 0.012246075 -0.0078372145 0.010990209 -0.03138139 0.030860249 -0.03273368
-0.007246597 0.0070105502 0.0210356 0.032798953 0.03690381 -0.030255035 0.009046239 -0.019850383
-0.0073894 -0.033936758 0.04154229 -0.030084783 0.023561057 0.016107822 0.010320905 -0.021222984
0.033413105 0.009070005 0.0061641196 -0.03295886 0.015213693 -0.011065445 -0.02246377 0.032991152
0.008534094 -0.022719344 -0.020816844 -0.008054057 0.022471765 -0.015068382 -0.026373979 -0.01742957
-0.03777338 0.016860487 0.030207261 -0.03759433 0.0089487685 0.023887396 0.008082129 -0.014082678
0.027205989 0.01816184 0.017803894 -0.007399411 -0.00391897 0.006131096 -0.005446346 -0.014257248
0.030933196 0.03507916 -0.0012927396 -0.01182872 0.0009896647 -0.008632806 0.013250621 0.0051012672
-0.04268879 -0.009879501 0.03617495 0.01707052 -0.0009609919 -0.02481264 -0.0220438 -0.033874407
-0.015292544 0.019724334 0.027888566 0.019243853 -0.03631714 -0.023610175 -0.0056577018 0.041380994
0.0078391805 -0.0121010775 0.014929041 -0.01691024 -0.023451414 0.027963743 -0.023835564 -0.008889664
-0.03807925 0.024057135 0.032532703 0.012107252 -0.03365498 -0.04153033 -0.033541884 0.0319695
0.01893894 0.03608255 0.019194046 0.00518014 0.00048561805 -0.031849 -0.037015576 -0.04206436
0.016409555 -0.021234084 -0.009534394 -0.019747553 -0.005300079 -0.027318172 -0.029193424 0.019581718
-0.018089922 0.0283817 -0.011377499 -0.0291078 -0.009197118 -0.013923173 -0.01332539 -0.04127097
00000000: 831c fd3c 1510 073d 56b5 01bc 5f07 273d
00000010: 32b6 bdbb abc1 d53b 9234 d8bc 839a e63c
00000020: 07f7 273d 4821 ecbc a105 0d3d 641b c03b
00000030: b84b 0d3d f101 123c 0be5 9d3c 72b4 9ebb
00000040: e437 123d c02a 3b3b 8891 abbc 32d0 373c
00000050: 35b2 70bc 036e 02bb 3d09 8dbc 0193 d73c
00000060: 66bf ebbc 2a84 9bbc 9112 8ebc 07d2 dcbc
00000070: f0fc 903b cd69 2dbd 2478 013d 7995 ffbc
00000080: a304 fe3c 5df5 e23b b1b8 44bc ee8f e03c
00000090: 4de5 f83b d57c 1c3d c1eb 273b bb8f 33bc
000000a0: b741 183c 77ab 48bc 603b 413c 1a6e 1c3d
000000b0: 5731 a83c bbe7 cabc 73d4 953c f827 ca3b
000000c0: e4d9 cd3c b6d5 ccbc 9177 2cbd 5b3c 87bc
000000d0: 92cf ebbc edc4 e53c f1f9 4d3c bb16 b13c
000000e0: 9888 703c 49e7 6f3b 677b 063d 17a3 e8bc
000000f0: 1d59 263b 2d18 f7bc 3918 2c3c 054f 61bc
00000100: d094 6d3c 04b7 0fbc d059 193d b39b ddbc
00000110: 085c e5bc 0ebf e6bc acdc 2b3d e5f5 2e3c
00000120: ace5 243d 4993 12bd 9d94 2dbd 72ac 0cbd
00000130: c286 e6bc 2157 9f3c 9444 1e3c 4436 0c3d
00000140: d01a 9dbc 81f3 eebc 43c7 b53c 3f54 9abc
00000150: e55b b23c 5f84 24bc 036a ab3c 6e0c f1bc
00000160: 121a 91bc 31e2 413c 7524 de3b 3b21 47bc
00000170: 7b45 df3c d005 f33c fa59 f5bc 35a3 bfbc
00000180: d0e0 213d 01a2 9fbc a67a 8cbc 39b8 38bd
00000190: 278b cfbc ecce 3f3c 50bf 1bbb d527 f4bc
000001a0: 5862 12ba e843 d4bc a59b 0bbd 6a8b acbc
000001b0: 1b1f 15bd 7e43 e1bc deaf 2b3d 0cc3 243c
000001c0: 70af 713c 37e8 22bd 01c8 e2bc ab13 36bc
000001d0: 2786 303b 72a6 16bd d9d7 6bbc b3ca d0bc
000001e0: bde6 8039 a041 93bc 78cb 7bbb 5121 ddbc
000001f0: 533d e4bc e22d babc 76f2 2fbc 063c 16bd
00000200: 517d 0e3d 688e 0bbc 968f 123d 97be 463c
00000210: 0bda 0cbd 7e74 023d e3ff 67bc e1a6 5dbc
00000220: 12c4 2cbd 8f92 3cbd c3a3 483c a967 00bc
00000230: 4710 343c c689 00bd a2ce fc3c c013 06bd
00000240: dd74 edbb c2b8 e53b da52 ac3c 3258 063d
00000250: 7328 173d 68d9 f7bc ad36 143c 459d a2bc
00000260: c822 f2bb 4501 0bbd 4028 2a3d 5d74 f6bc
00000270: 1e03 c13c 8df4 833c 0319 293c d3db adbc
00000280: 2edc 083d 5c9a 143c 62fc c93b dfff 06bd
00000290: da42 793c d74b 35bc f105 b8bc bb21 073d
000002a0: 96d2 0b3c eb1d babc 1688 aabc 2af5 03bc
000002b0: b516 b83c 60e1 76bc 3e0e d8bc 75c8 8ebc
000002c0: 42b8 1abd 011f 8a3c 3875 f73c 83fc 19bd
000002d0: db9d 123c 80af c33c e86a 043c 08bb 66bc
000002e0: 18df de3c 24c8 943c 79d9 913c c276 f2bb
000002f0: b46a 80bb 5ce7 c83b 4377 b2bb 3b97 69bc
00000300: 9d67 fd3c 2aaf 0f3d 2571 a9ba 3fcd 41bc
00000310: a3b7 813a 9d70 0dbc 2219 593c 8828 a73b
00000320: 71da 2ebd a1dd 21bc 2f2c 143d 7ad7 8b3c
00000330: 13eb 7bba e143 cbbc 3395 b4bc e4bf 0abd
00000340: 948d 7abc ed94 a13c 9076 e43c 49a5 9d3c
00000350: 48c1 14bd 206a c1bc 3e64 b9bb 1e7f 293d
00000360: e86f 003c 9943 46bc f098 743c 5887 8abc
00000370: 2e1d c0bc 3814 e53c cd42 c3bc f4a5 11bc
00000380: fdf8 1bbd 7813 c53c 0341 053d 7f5d 463c
00000390: ced9 09bd b51b 2abd 3763 09bd 73f2 023d
000003a0: d625 9b3c 4ccb 133d d53c 9d3c 2abe a93b
000003b0: 8d9a fe39 1974 02bd a59d 17bd ae4b 2cbd
000003c0: 556d 863c 1af3 adbc 2636 1cbc 9fc5 a1bc
000003d0: 49ac adbb 5cca dfbc 0c27 efbc d769 a03c
000003e0: 5131 94bc bd80 e83c b168 3abc 7b73 eebc
000003f0: 82af 16bc 051e 64bc bd52 5abc c00b 29bd

newsencoder.doc_encoder.layer.0.bias f4 [128]
0.0048654117 -0.021892691 -0.027159713 -0.0008268012 0.0032874634 0.02755653 -0.043237448 -0.0014575049
0.017938107 -0.0015835447 -0.04401737 0.01441286 -0.05692593 0.027653499 -0.001059841 0.029013282
-0.041271847 -0.054735493 -0.0052797156 0.04607759 -0.049585856 -0.0060629817 0.013139189 0.04109992
0.0036694289 -0.048774093 0.041668795 0.0023552899 0.039572217 0.010723846 -0.0009241352 -0.0012255784
-0.0011251508 0.038424883 0.014238255 0.027469898 -0.0070500625 0.049810622 0.017285166 0.0072546112
0.031094227 -0.00016444249 0.049143128 -0.027268074 0.008848121 0.0011896008 -0.026901308 0.021207402
0.02797558 0.0043295063 -0.042763647 0.024964433 0.033334695 -0.017103106 0.016079318 -0.02100864
0.031451352 -0.045002256 0.02469502 -0.04165791 0.015805975 0.02340726 0.017770384 0.017393067
0.006795954 -0.054899935 -0.023418998 -0.022856887 0.0350399 0.018982936 -0.015369956 0.038409743
0.006450094 -0.001576767 0.007987272 -0.023420973 -0.039544895 0.0072591314 0.02952533 -0.001495418
0.043305293 -0.0011461872 -0.000904543 -0.0026080336 0.00036972444 0.017103016 -0.00055784895 -0.013849876
0.016474651 -0.005633238 0.0493964 0.0034918059 0.0064239744 -0.02831166 -0.015913146 0.019169921
-0.0017649954 0.0064623426 0.036640678 -0.016058946 -0.022107823 -0.0009862946 -0.030536516 0.0048383405
1.8825145e-05 0.03907601 0.010361047 -0.018810738 0.0078021977 0.002893637 -0.010426267 0.01425382
0.0042122323 0.03963537 0.026614891 0.039194603 0.014479245 -0.0018610485 -0.0017255538 -0.038382646
-0.035383303 0.0023782684 -0.02914875 0.03995505 -0.002402907 -0.0476388 -0.03026333 -0.014370006
00000000: 086e 9f3b 4d58 b3bc 0c7e debc b0bd 58ba
00000010: 7c72 573b 3bbe e13c c019 31bd c009 bfba
00000020: f0f2 923c f18e cfba 8f4b 34bd eb23 6c3c
00000030: 2a2b 69bd 9789 e23c 5dea 8aba 43ad ed3c
00000040: ab0c 29bd 5332 60bd 7701 adbb dbbb 3c3d
00000050: 8a1a 4bbd faab c6bb c145 573c 6458 283d
00000060: cd7a 703b 58c7 47bd e6ac 2a3d 355b 1a3b
00000070: 7a16 223d 12b3 2f3c aa41 72ba 96a3 a0ba
00000080: cc79 93ba 6963 1d3d 9247 693c 8d08 e13c
00000090: 3604 e7bb 3906 4c3d 9f99 8d3c 17b8 ed3b
000000a0: 52b9 fe3c 326e 2cb9 4e4a 493d 4c61 dfbc
000000b0: b6f7 103c 61ec 9b3a 2260 dcbc 25bb ad3c
000000c0: 0b2d e53c 88de 8d3b ef28 2fbd 3682 cc3c
000000d0: f689 083d d01b 8cbc c6b8 833c 501a acbc
000000e0: 22d3 003d 4954 38bd 364d ca3c 7ca1 2abd
000000f0: 887b 813c 95c0 bf3c 3293 913c e87b 8e3c
00000100: 98b0 de3b c1de 60bd 33d9 bfbc 5e3e bbbc
00000110: 0086 0f3d 1a82 9b3c 45d2 7bbc 8953 1d3d
00000120: 4f5b d33b 85ab ceba 0cdd 023c 57dd bfbc
00000130: d4f9 21bd 02de ed3b 1bdf f13c e701 c4ba
00000140: e460 313d a93b 96ba da1e 6dba 8beb 2abb
00000150: 93d7 c139 a01b 8c3c 9c3c 12ba 97ea 62bc
00000160: d9f5 863c 0697 b8bb e153 4a3d c8d6 643b
00000170: 3480 d23b dbed e7bc 495c 82bc 3d0a 9d3c
00000180: 6b57 e7ba 0fc2 d33b 8914 163d 0d8e 83bc
00000190: 771b b5bc 8e46 81ba b727 fabc f18a 9e3b
000001a0: b1ea 9d37 2b0e 203d 62c1 293c fa18 9abc
000001b0: 94a9 ff3b 2ca3 3d3b efd2 2abc db88 693c
000001c0: c406 8a3b b358 223d 7907 da3c 858a 203d
000001d0: 5b3a 6d3c 6dee f3ba fa2b e2ba 1f37 1dbd
000001e0: 15ee 10bd b9dc 1b3b 5cc9 eebc e8a7 233d
000001f0: 177a 1dbb e720 43bd ceea f7bc 2c70 6bbc

newsencoder.doc_encoder.layer.2.weight f4 [128]
0.9248543 0.92463565 0.9240315 0.9262435 0.92517644 0.92527276 0.9242601 0.9239746
0.92484456 0.9239746 0.9242405 0.9256965 0.92430705 0.92681336 0.9239746 0.9246613
0.92396617 0.9243087 0.9239748 0.9243608 0.92407376 0.92397463 0.92495716 0.9247607
0.92504525 0.9242787 0.9253478 0.9251846 0.92514986 0.9246035 0.9239746 0.9239746
0.9239746 0.9255042 0.9249417 0.924789 0.9239752 0.92570674 0.9243628 0.924815
0.92443377 0.9239563 0.9248814 0.9240942 0.92508173 0.92474556 0.92421174 0.9254301
0.9250489 0.9247585 0.92567587 0.92517966 0.9246077 0.92489123 0.9256672 0.9250432
0.92473537 0.9241734 0.92553777 0.92500865 0.92531407 0.9249997 0.925236 0.92409855
0.9253496 0.9241835 0.92481774 0.9243619 0.9252695 0.9252972 0.92496693 0.9249011
0.925029 0.9239746 0.92458606 0.9240251 0.92417663 0.9250762 0.9256318 0.9239746
0.9250068 0.92407113 0.9261112 0.9239746 0.9244083 0.9249437 0.9239746 0.92397463
0.92490077 0.924868 0.9246613 0.9262527 0.9257429 0.92502517 0.9254596 0.9255427
0.9239746 0.9258232 0.925179 0.9248662 0.9239744 0.9239746 0.9241473 0.9248389
0.9259371 0.9252463 0.9258895 0.92480505 0.92547137 0.92495304 0.9248923 0.924883
0.9242975 0.92502284 0.92480445 0.9248347 0.92505234 0.92397517 0.9239746 0.9250432
0.92421895 0.92461723 0.9259723 0.9255951 0.9239747 0.9241252 0.9241065 0.9239767
00000000: 40c3 6c3f ecb4 6c3f 548d 6c3f 4b1e 6d3f
00000010: 5dd8 6c3f adde 6c3f 4f9c 6c3f 9989 6c3f
00000020: 9dc2 6c3f 9989 6c3f 079b 6c3f 72fa 6c3f
00000030: 639f 6c3f a443 6d3f 9989 6c3f 9ab6 6c3f
00000040: 0c89 6c3f 7f9f 6c3f 9d89 6c3f e9a2 6c3f
00000050: 1990 6c3f 9a89 6c3f fec9 6c3f 1ebd 6c3f
00000060: c4cf 6c3f 879d 6c3f 98e3 6c3f e6d8 6c3f
00000070: 9fd6 6c3f d1b2 6c3f 9989 6c3f 9989 6c3f
00000080: 9989 6c3f d8ed 6c3f fbc8 6c3f f9be 6c3f
00000090: a489 6c3f 1efb 6c3f 0aa3 6c3f adc0 6c3f
000000a0: b1a7 6c3f 6688 6c3f 07c5 6c3f 7091 6c3f
000000b0: 28d2 6c3f 20bc 6c3f 2499 6c3f fde8 6c3f
000000c0: 01d0 6c3f f9bc 6c3f 18f9 6c3f 93d8 6c3f
000000d0: 17b3 6c3f acc5 6c3f 87f8 6c3f a2cf 6c3f
000000e0: 75bb 6c3f a196 6c3f 0bf0 6c3f 5ecd 6c3f
000000f0: 62e1 6c3f c8cc 6c3f 44dc 6c3f b991 6c3f
00000100: b6e3 6c3f 4a97 6c3f dbc0 6c3f fba2 6c3f
00000110: 76de 6c3f 47e0 6c3f a2ca 6c3f 52c6 6c3f
00000120: b3ce 6c3f 9989 6c3f acb1 6c3f e98c 6c3f
00000130: d796 6c3f cbd1 6c3f 35f6 6c3f 9989 6c3f
00000140: 3fcd 6c3f ed8f 6c3f a015 6d3f 9989 6c3f
00000150: 06a6 6c3f 1cc9 6c3f 9989 6c3f 9a89 6c3f
00000160: 4cc6 6c3f 26c4 6c3f 9ab6 6c3f e61e 6d3f
00000170: 7dfd 6c3f 73ce 6c3f ecea 6c3f 5ef0 6c3f
00000180: 9989 6c3f c002 6d3f 88d8 6c3f 08c4 6c3f
00000190: 9689 6c3f 9989 6c3f eb94 6c3f 3ec2 6c3f
000001a0: 370a 6d3f f1dc 6c3f 1807 6d3f 06c0 6c3f
000001b0: b1eb 6c3f b9c9 6c3f bec5 6c3f 22c5 6c3f
000001c0: c39e 6c3f 4cce 6c3f fcbf 6c3f f8c1 6c3f
000001d0: 3bd0 6c3f a389 6c3f 9989 6c3f a2cf 6c3f
000001e0: 9d99 6c3f b7b3 6c3f 850c 6d3f cdf3 6c3f
000001f0: 9b89 6c3f 7893 6c3f 3e92 6c3f bd89 6c3f

newsencoder.doc_encoder.layer.2.bias f4 [128]
-0.0009224096 0.012320435 0.0014428581 0.0040789307 0.0024336288 0.014111082 0.0017416981 -0.011411344
0.0052500814 -0.0016167508 -0.008809574 -0.0036608235 -0.0061600953 -0.00017781273 -0.01675609 0.0007188767
-0.007524186 0.013170245 -0.0046434235 -0.009418806 -0.01136756 -0.009850563 0.014279382 -0.0060424316
0.021209072 0.016638547 -0.010483782 0.00589132 -0.00566964 -0.02154916 0.0050799414 -7.638476e-06
0.0022978368 -0.01031963 0.008253672 0.004480128 0.01496245 -0.019700151 0.0032873836 0.022140045
0.0004577219 -0.007073453 0.0003405673 -0.0068397275 -0.00068970874 -0.00016538503 -0.0075933025 -0.000511757
0.011030968 -0.022978341 0.0021675925 -0.0035271682 -0.01317251 0.010834828 0.0035131928 0.0038283225
-0.015531807 -0.011022802 0.0021171535 -0.0030559697 0.00934439 -0.004342379 -0.006348795 -0.005820999
-0.015746336 -0.01036323 -0.016174695 -0.006452093 -0.0042073755 0.006835542 0.0032613259 0.0015325554
-0.01646378 0.016230138 0.007344311 -0.0026717593 0.0012435883 -0.008279919 0.013435939 0.013954075
0.011918752 0.006613758 0.0009943777 0.009290815 -0.013734925 -0.0003284556 0.0061419853 0.012668423
0.008598761 0.0042116805 0.0033920442 0.0034576901 0.0073954565 0.0036297538 0.007399547 -0.0007928932
0.0050715706 -0.013087412 0.0066756057 -0.011027933 -0.00090200396 -0.0022883385 0.0019770763 -0.007024122
0.015319944 -0.000959332 -0.018391604 -0.0033791938 -0.023073174 -0.009345314 0.008588416 -0.007639275
-0.008318751 0.010998102 0.010327367 -0.0006518894 -0.007287276 0.00128032 0.0018711219 -0.005235446
0.016020317 0.013287186 -0.008164659 -0.011811436 -0.006181719 -0.0099127665 -0.00682944 0.004812711
00000000: dccd 71ba a6db 493c 491e bd3a 8da8 853b
00000010: 847d 1f3b 2b32 673c b149 e43a a5f6 3abc
00000020: e008 ac3b 28e9 d3ba 0856 10bc 6dea 6fbb
00000030: a0da c9bb 3e73 3ab9 1144 89bc 0073 3c3a
00000040: 728d f6bb 03c8 573c dc27 98bb 5651 1abc
00000050: 013f 3abc 4164 21bc 12f4 693c 97ff c5bb
00000060: a6be ad3c 904d 883c 2bc4 2bbc f90b c13b
00000070: 63c8 b9bb dd87 b0bc a375 a63b 0127 00b7
00000080: 4e97 163b aa13 29bc 693a 073c 0ace 923b
00000090: 1025 753c 3662 a1bc 2571 573b 0a5f b53c
000000a0: 65fa ef39 6dc8 e7bb 2b8e b239 cb1f e0bb
000000b0: 92cd 34ba 356b 2db9 3dd1 f8bb 6e27 06ba
000000c0: 3cbb 343c 133d bcbc 2b0e 0e3b 1028 67bb
000000d0: 83d1 57bc 9084 313c 983d 663b 98e4 7a3b
000000e0: 1f79 7ebc fc98 34bc f1bf 0a3b aa46 48bb
000000f0: 3619 193c 844a 8ebb 8d09 d0bb 14be bebb
00000100: 76fe 80bc 89ca 29bc cb80 84bc 146c d3bb
00000110: 06de 89bb affc df3b f8bb 553b 07e0 c83a
00000120: 0ddf 86bc 11f5 843c 8ca8 f03b af18 2fbb
00000130: e6ff a23a 7fa8 07bc 6a22 5c3c a29f 643c
00000140: df46 433c 39b8 d83b c755 823a 8138 183c
00000150: 7308 61bc 9034 acb9 b542 c93b 388f 4f3c
00000160: d1e1 0c3c 2302 8a3b 0f4d 5e3b 6a9a 623b
00000170: 9655 f23b 2ae1 6d3b e677 f23b 29da 4fba
00000180: 6b2f a63b 966c 56bc 0abf da3b 81ae 34bc
00000190: 7674 6cba f3f7 15bb d691 013b 9b2a e6bb
000001a0: 8100 7b3c ae7b 7bba fda9 96bc 7775 5dbb
000001b0: f403 bdbc 171d 19bc 6db6 0c3c e252 fabb
000001c0: 5f4b 08bc 6231 343c 1e34 293c 8fe3 2aba
000001d0: 1aca eebb 69d0 a73a 6f40 f53a 1b8e abbb
000001e0: 0a3d 833c 7fb2 593c 10c5 05bc c184 41bc
000001f0: 0490 cabb 2869 22bc 7fc9 dfbb f2b3 9d3b

newsencoder.doc_encoder.layer.2.running_mean f4 [128]
0.042685922 0.026467694 7.477018e-07 0.031221308 0.013878459 0.032052323 0.0001377431 0.0
0.038064707 6e-45 4.6434838e-05 0.023676114 2.3908808e-05 0.034740597 6e-45 0.035981372
6e-45 0.0002784166 6e-45 0.00045533825 1.3872791e-05 6e-45 0.032766134 0.04058334
0.049466997 1.5052675e-05 0.018150317 0.039958667 0.045414943 0.0012172648 6e-45 0.0
6e-45 0.037312992 0.021056768 0.00015097002 6e-45 0.02526869 0.0005307995 0.040039938
0.031471066 0.004759584 0.014392292 2.377977e-05 0.038698766 0.009445122 3.546131e-05 0.028853541
0.029611297 0.0004224408 0.0041330815 0.025711825 0.019803157 0.020091549 0.009144483 0.027729943
0.001083263 6.658898e-25 0.028576856 0.011960374 0.02844157 0.032130677 0.053730894 0.00010955677
0.039241582 4.078662e-08 0.002077389 0.000122000805 0.043485098 0.0002006828 0.005348539 0.016191874
0.013657443 0.0 0.015017359 6.3758494e-06 1.0713614e-05 0.012113454 0.0074784057 0.0
0.042938493 3.3944382e-06 0.027254403 6e-45 0.010669364 0.014394347 0.0 6e-45
0.011967187 1.02437925e-05 0.038863495 0.04236246 0.013435476 0.0044450904 0.013046669 0.04137301
4.1870804e-13 0.033938322 0.006725326 0.01704933 6e-45 0.0 2.0925806e-06 0.037049867
0.053751405 0.037749544 0.0035643028 0.00445548 0.00018284697 8.0543294e-05 0.008830691 0.019528847
8.351189e-05 0.028609244 0.032854136 0.00066411437 0.0021434189 6e-45 0.0 0.008639023
9.446034e-05 0.042635746 0.059226364 0.047682654 6e-45 1.27050125e-05 6e-45 6e-45
00000000: 6fd7 2e3d c7d2 d83c adb5 4835 d4c3 ff3c
00000010: 7a62 633c 4c49 033d 226f 1039 0000 0000
00000020: bde9 1b3d 0400 0000 07c3 4238 69f4 c13c
00000030: c68f c837 284c 0e3d 0400 0000 3461 133d
00000040: 0400 0000 72f8 9139 0400 0000 77ba ee39
00000050: 2fbf 6837 0400 0000 c835 063d b73a 263d
00000060: e89d 4a3d bf8a 7c37 f9af 943c b3ab 233d
00000070: 0505 3a3d a18c 9f3a 0400 0000 0000 0000
00000080: 0400 0000 82d5 183d 3e7f ac3c b54d 1e39
00000090: 0400 0000 4900 cf3c 5a25 0b3a eb00 243d
000000a0: cee7 003d 49f6 9b3b a6cd 6b3c ab7a c737
000000b0: 9982 1e3d b7bf 1a3c 4bbc 1438 435e ec3c
000000c0: 6493 f23c 0b7b dd39 cd6e 873b 9ba1 d23c
000000d0: 3b3a a23c 0897 a43c bed2 153c e829 e33c
000000e0: 46fc 8d3a 3a15 4e17 031a ea3c 72f5 433c
000000f0: 4cfe e83c 759b 033d ed14 5c3d d8c1 e538
00000100: c8bb 203d 5d2d 2f33 ce24 083b afda ff38
00000110: 6e1d 323d 616e 5239 cc42 af3b d2a4 843c
00000120: 78c3 5f3c 0000 0000 5e0b 763c 21f0 d536
00000130: 9fbe 3337 8277 463c 6a0d f53b 0000 0000
00000140: 46e0 2f3d 01cc 6336 a044 df3c 0400 0000
00000150: 8ece 2e3c 44d6 6b3c 0000 0000 0400 0000
00000160: 0512 443c c1dc 2b37 542f 1f3d 4284 2d3d
00000170: 7920 5c3c 1fa8 913b b2c1 553c bf76 293d
00000180: 30b6 eb2a e902 0b3d 2060 dc3b 09ab 8b3c
00000190: 0400 0000 0000 0000 436e 0c36 9ac1 173d
000001a0: 6f2a 5c3d 449f 1a3d 1497 693b 46ff 913b
000001b0: 9cba 3f39 5ae9 a838 9aae 103c f6fa 9f3c
000001c0: 1b23 af38 ef5d ea3c 0f92 063d f617 2e3a
000001d0: 9a78 0c3b 0400 0000 0000 0000 b08a 0d3c
000001e0: 0219 c638 d2a2 2e3d 5897 723d e34e 433d
000001f0: 0400 0000 9d27 5537 0400 0000 0400 0000

newsencoder.doc_encoder.layer.2.running_var f4 [128]
0.00018321378 0.00019534619 2.2586715e-09 0.00024634151 0.00011537334 0.00017313767 8.4019473e-07 6e-45
0.0001552295 6e-45 3.0754515e-07 0.00017824398 2.4084392e-07 0.00016905737 6e-45 0.00019823274
6e-45 3.1461316e-06 6e-45 1.3336574e-05 5.4871965e-08 6e-45 0.000106848674 0.000163787
0.00018533735 1.4429288e-07 0.0001247939 0.00013465589 0.00019914807 1.468207e-05 6e-45 6e-45
6e-45 0.00019793383 0.00022628083 3.9844317e-06 6e-45 0.00022389684 4.5806605e-06 0.00018913638
0.00021964264 5.592802e-07 7.053182e-05 1.0860014e-07 0.00016739486 0.00014649043 1.4043741e-07 0.00019734197
0.00025846192 4.5027195e-06 8.066262e-05 0.00017533034 0.00016584112 0.0001686775 8.797144e-05 0.00019976548
1.7960874e-05 3.557111e-28 0.00013318061 0.00012281931 0.00021017011 0.00013718638 0.00026410463 1.6363114e-06
0.00014829928 1.4828297e-10 2.1947397e-05 4.806067e-07 0.00026763996 2.6042724e-06 6.5072534e-05 9.492493e-05
0.00014395559 6e-45 9.6671785e-05 4.3168992e-08 7.1258015e-08 0.00012533314 0.0001249744 6e-45
0.00021251834 3.0045296e-08 0.00013516846 6e-45 0.00013672399 0.00016646818 6e-45 6e-45
0.00012295347 6.531729e-08 0.00019077986 0.00018019511 0.00015800261 6.4356675e-05 0.00012373325 0.00019205247
2.4564067e-18 0.00021067596 0.00016448685 0.00012436124 6e-45 6e-45 4.0096357e-09 9.3954826e-05
0.0001539591 0.00015640674 6.993935e-05 4.001878e-05 1.2196684e-06 6.158564e-07 0.00010350398 0.00016785807
4.847803e-07 0.00010575012 0.00018651978 1.2637033e-05 2.6693571e-05 6e-45 6e-45 0.00012116878
7.895868e-07 0.0001617408 0.00026597903 0.00017809495 6e-45 4.415308e-08 6e-45 6e-45
00000000: 131d 4039 d8d5 4c39 f836 1b31 6627 8139
00000010: 97f4 f138 4a8c 3539 be89 6135 0400 0000
00000020: 1ac5 2239 0400 0000 af1c a534 01e7 3a39
00000030: 564d 8134 fe44 3139 0400 0000 b2dc 4f39
00000040: 0400 0000 2122 5336 0400 0000 26c0 5f37
00000050: 5dac 6b33 0400 0000 f213 e038 3dbe 2b39
00000060: 1e57 4239 edee 1a34 1cdb 0239 6a32 0d39
00000070: 67d2 5039 0353 7637 0400 0000 0400 0000
00000080: 0400 0000 758c 4f39 cc45 6d39 02b2 8536
00000090: 0400 0000 dac5 6a39 93b3 9936 e952 4639
000000a0: df4f 6639 7121 1635 7cea 9338 8f37 e933
000000b0: b786 2f39 3a9b 1939 24cb 1634 95ed 4e39
000000c0: 2c82 8739 1116 9736 6a29 a938 e1d8 3739
000000d0: a3e5 2d39 06df 3039 4f7d b838 2378 5139
000000e0: afaa 9637 6d75 e111 66a6 0b39 0fc9 0039
000000f0: 1c61 5c39 b0d9 0f39 8677 8a39 3b9f db35
00000100: c980 1b39 f209 232f ad1b b837 0a03 0135
00000110: 0752 8c39 0fc5 2e36 8d77 8838 6f12 c738
00000120: c9f2 1639 0400 0000 45bc ca38 cf68 3933
00000130: 8206 9933 dc6b 0339 8f0b 0339 0400 0000
00000140: 75d7 5e39 270b 0133 02bc 0d39 0400 0000
00000150: 915d 0f39 f68d 2e39 0400 0000 0400 0000
00000160: 12ed 0039 8f44 8c33 140c 4839 c2f2 3c39
00000170: 81ad 2539 3af7 8638 64be 0139 b161 4939
00000180: 3640 3522 e6e8 5c39 1a7a 2c39 f766 0239
00000190: 0400 0000 0400 0000 21c5 8931 9d09 c538
000001a0: 1570 2139 1d01 2439 67ac 9238 d6d9 2738
000001b0: 7db3 a335 5451 2535 4710 d938 0f03 3039
000001c0: d921 0235 2ac6 dd38 8694 4339 a503 5437
000001d0: 02ec df37 0400 0000 0400 0000 fe1b fe38
000001e0: fef3 5335 f798 2939 1a73 8b39 00bf 3a39
000001f0: 0400 0000 d3a2 3d33 0400 0000 0400 0000

newsencoder.feature_fusion.linears.0.weight f4 [128, 128]
-0.041645654 -0.041244 0.01446839 -0.023730248 -0.04032902 0.071788475 -0.011540097 0.0017695809
0.049178645 0.012865671 0.009432526 0.07163198 0.008272053 -0.055398982 0.0053777117 -0.025533473
-0.0005077899 -0.04835964 0.02270642 0.035999235 0.003697531 0.0010075648 -0.055007704 0.06443548
0.05779971 0.0069473386 -0.021562673 0.0184183 0.0049695047 0.021460865 -0.0006945412 1.1375171e-05
-0.00023554655 0.047108494 -0.055272486 -0.009401517 -0.0024930418 -0.025832172 0.04148036 -0.023929285
0.015587889 0.023000292 -0.054740682 0.03881046 0.0069917925 -0.006075061 0.025417462 -0.030599697
0.042424455 -0.014211743 -0.015160919 -0.059240457 0.07129031 0.055874098 -0.06417203 0.07752268
-0.005509716 -0.015441243 -0.037608724 0.059782915 0.010294124 0.026679352 0.032181703 -0.015584181
-0.00771781 -0.004402478 0.025914382 0.02020517 -0.036831424 -0.06808456 0.05876686 -0.011228465
-0.049776603 -0.0025811703 0.002801538 -0.029480714 -0.020733915 0.06365509 -0.010424703 0.0048056007
-0.033854593 -0.009567853 -0.049209386 -0.0011057189 -0.05687442 0.002392734 -0.009360848 -0.0016854875
-0.023567442 0.021015182 -0.012130756 0.014375072 -0.057539497 -0.037356786 0.017345622 0.013433037
-0.00067427335 -0.046729594 -0.01516398 0.0043280134 9.136956e-05 0.000339863 -0.037557796 0.03918676
-0.0058273356 -0.016922867 -0.018319497 -0.023338312 0.075788155 -0.038246498 -0.07933512 0.034538854
-0.060879145 0.073720336 0.039345082 0.059945144 -0.03677669 0.016258243 -0.00012342118 0.06586832
-0.01158602 -0.03179491 0.0754424 -0.03294135 0.0007235483 0.025585456 0.008052419 -0.0006450089
-0.02651545 0.019193789 -0.011846622 -0.043296665 0.007722376 0.006581983 -0.06871737 -0.0015626424
-0.034838583 6.669507e-05 0.057865147 -0.05475584 -0.039704513 0.07342287 0.0009564339 -0.034709092
0.00023474706 -0.04059637 -3.1219308e-05 -0.039987653 0.003237072 0.00040210134 0.07712128 0.03974499
0.0065919263 0.048269738 0.081441686 -0.0450172 -0.05960911 -0.0046333247 -8.438291e-05 2.2069994e-06
0.010428992 0.014030415 -0.013703647 0.023996387 -0.011767366 0.04244146 -0.02783225 -0.061897356
-0.012742418 0.023743698 -0.03450788 -0.042801898 0.059471797 -0.0018800126 -0.014948549 0.050164506
0.034924343 0.030458009 0.08694059 -0.068189554 -0.03268888 0.05914654 -0.060887996 -0.019552272
0.025990957 0.005139317 0.024344012 -0.044192784 0.027289957 -0.05822663 0.010861884 -0.0048003877
0.06404147 -0.041017305 -0.05853865 0.0675887 0.07925804 0.0016285959 0.05350122 -0.015957968
0.07597997 -0.0045132395 -0.041938573 0.003363415 -0.024693517 0.050957873 -0.029033579 0.0064236997
-0.07363351 -0.03262633 -0.044841997 -0.00017758257 0.08293816 0.040102784 -0.010798181 -0.023182612
0.032384295 0.029934954 0.056395493 -0.06105481 -0.047548622 0.06128693 0.068475574 0.006902102
-0.021773707 0.08443888 0.04801942 -0.03237737 6.6228706e-05 -0.00012214178 0.04636537 -0.0002194926
0.04491919 0.037621375 -0.03805916 -0.08377177 0.045478366 -0.03722091 0.029759685 0.05078704
-0.019551048 -0.050484393 0.075543165 -0.042867508 0.071364105 0.009678115 0.017149623 0.07475428
-0.009055085 0.063277505 -0.068063356 0.00869847 -0.00476635 -0.048633493 0.009060331 -0.0009166599
00000000: a294 2abd 78ef 28bd d30c 6d3c f065 c2bc
00000010: 0b30 25bd d605 933d ad12 3dbc 48f1 e73a
00000020: 8c6f 493d 89ca 523c e28a 1a3c cab3 923d
00000030: 8187 073c 0bea 62bd 8437 b03b 932b d1bc
00000040: 341d 05ba c214 46bd d002 ba3c ef73 133d
00000050: 4752 723b 4410 843a c24f 61bd c0f6 833d
00000060: 64bf 6c3d 80a6 e33b 34a4 b0bc fae1 963c
00000070: 3ad7 a23b b2ce af3c df11 36ba fdd7 3e37
00000080: 0cfd 76b9 d6f4 403d 6765 62bd d208 1abc
00000090: 4d62 23bb fe9d d3bc 4fe7 293d 5907 c4bc
000000a0: 5864 7f3c 1c6b bc3c c437 60bd b8f7 1e3d
000000b0: 681b e53b 4e11 c7bb 4838 d03c 37ac fabc
000000c0: 44c5 2d3d 5fd8 68bc 8165 78bc 1fa6 72bd
000000d0: a700 923d 3ddc 643d a06c 83bd 36c4 9e3d
000000e0: d98a b4bb 44fd 7cbc 9b0b 1abd eede 743d
000000f0: afa8 283c a88e da3c f6d0 033d cb54 7fbc
00000100: afe5 fcbb aa42 90bb 664a d43c 5085 a53c
00000110: 8cdc 16bd eb6f 8bbd 85b5 703d 98f7 37bc
00000120: 8de2 4bbd da28 29bb 029a 373b 8a81 f1bc
00000130: 2cda a9bc 9a5d 823d 60cc 2abc 4d78 9d3b
00000140: 1dab 0abd 7cc2 1cbc c88f 49bd c5ed 90ba
00000150: 27f5 68bd 6acf 1c3b 3e5e 19bc 93eb dcba
00000160: 8210 c1bc 0828 ac3c 14c0 46bc 6c85 6b3c
00000170: 89ae 6bbd 6e03 19bd 6818 8e3c 3e16 5c3c
00000180: b8c1 30ba 8867 3fbd 5872 78bc 02d2 8d3b
00000190: a99d bf38 a42f b239 34d6 19bd 4c82 203d
000001a0: 3cf3 bebb d3a1 8abc c512 96bc fd2f bfbc
000001b0: d236 9b3d 5ca8 1cbd 747a a2bd 9d78 0d3d
000001c0: 695c 79bd b0fa 963d 4f28 213d 0a89 753d
000001d0: 28a3 16bd 0230 853c 9f6a 01b9 f8e5 863d
000001e0: 4ad3 3dbc 613b 02bd 8c81 9a3d 82ed 06bd
000001f0: 81ac 3d3a 9798 d13c 4bee 033c d115 29ba
00000200: ee36 d9bc 4b3c 9d3c 5618 42bc d857 31bd
00000210: fc0b fd3b adad d73b b1bb 8cbd 94d1 ccba
00000220: e7b2 0ebd a5de 8b38 0104 6d3d a947 60bd
00000230: 33a1 22bd bb5e 963d 31b9 7a3a 1f2b 0ebd
00000240: 6f26 7639 6148 26bd 7af1 02b8 18ca 23bd
00000250: 0e25 543b 21d1 d239 c3f1 9d3d a5cb 223d
00000260: 1601 d83b 7db6 453d e6ca a63d f563 38bd
00000270: af28 74bd 25d3 97bb bbf6 b0b8 f61b 1436
00000280: 5dde 2a3c d3df 653c 4385 60bc 1294 c43c
00000290: e9cb 40bc 19d7 2d3d 7500 e4bc 1588 7dbd
000002a0: 93c5 50bc 2582 c23c 2358 0dbd 0b51 2fbd
000002b0: b398 733d c16a f6ba c2ea 74bc 4c79 4d3d
000002c0: d40c 0f3d 1383 f93c e80d b23d f7a6 8bbd
000002d0: c6e4 05bd a443 723d b165 79bd 162c a0bc
000002e0: fdea d43c b767 a83b 186d c73c 7e03 35bd
000002f0: 308f df3c 0c7f 6ebd 0bf6 313c 924c 9dbb
00000300: 2d28 833d c301 28bd 39c6 6fbd f26b 8a3d
00000310: 0a52 a23d 9c76 d53a 1824 5b3d 49ba 82bc
00000320: 639b 9b3d cce3 93bb c8c7 2bbd bd6c 5c3b
00000330: 0f4a cabc 34b9 503d d4d7 edbc e67d d23b
00000340: 2acd 96bd 30a3 05bd 3eac 37bd 7535 3ab9
00000350: 7bdb a93d d142 243d dbea 30bc 76e9 bdbc
00000360: 65a5 043d 263a f53c f6fe 663d 9c14 7abd
00000370: 58c2 42bd 0108 7b3d ec3c 8c3d 072b e23b
00000380: c65e b2bc 4bee ac3d 03b0 443d 229e 04bd
00000390: 44e4 8a38 2f13 00b9 9de9 3d3d 9927 66b9
000003a0: 2ffd 373d df18 1a3d ece3 1bbd 8990 abbd
000003b0: 8647 3a3d f474 18bd 95ca f33c 1206 503d
000003c0: 8529 a0bc b9c8 4ebd 60b6 9a3d d795 2fbd
000003d0: 5827 923d f590 1e3c 5e7d 8c3c c618 993d
000003e0: c75b 14bc a397 813d cd64 8bbd 0784 0e3c
000003f0: 0b2f 9cbb ea33 47bd c871 143c 014c 70ba

newsencoder.feature_fusion.linears.0.bias f4 [128]
-0.08774558 -0.07499677 -0.052895732 -0.060249925 0.03191845 -0.028377298 -0.01178365 0.08451878
0.0050778687 0.062475104 -0.06916958 0.03083857 0.008395898 -0.053204432 -0.06422386 -0.031924162
-0.021531474 -0.06512168 -0.061877057 0.04995085 0.02541988 0.06909537 -0.06715877 -0.07781079
-0.060390156 -0.03988922 0.040666077 -0.07680276 0.05848986 -0.040923513 -0.023695724 0.052077383
0.024619041 -0.020091977 0.055477332 -0.07168836 -0.010206802 0.03676189 0.005905601 0.029770635
-0.086094 0.016807577 0.0088379085 0.09188286 -0.0106001245 -0.0004378455 -0.0057093143 -0.02741077
-0.0019670138 0.04230057 0.005516108 0.079044625 -0.0013240653 -0.0681428 -0.044839416 -0.029497517
-0.069747984 -0.03664696 0.04914816 0.066571444 0.034850042 0.0024283817 0.045461413 0.087622635
-0.02748036 0.036907356 -0.017046433 0.022189677 -0.060635846 0.016264789 -0.015288926 -0.011554457
-0.044766396 0.075435854 0.015212691 0.032840576 0.05829185 0.05652392 0.03419567 -0.005422465
-0.013557543 0.015411734 -0.0887424 -0.0010795032 -0.032204133 0.074607864 -0.044261422 -0.006353962
0.048591364 0.045626353 -0.009890899 0.029984517 -0.077576146 0.046331596 -0.07567013 -0.08725857
-0.05186382 -0.071406335 -0.06350293 -0.05146465 -0.03861682 0.03345362 0.03230602 0.057325877
0.032243077 -0.053911872 0.051108636 -0.009367481 0.052356713 -0.024766892 -0.026787998 -0.021038959
0.03225222 -0.011184112 -0.035219993 0.00934955 -0.00036204324 0.0561525 0.070837945 0.039470762
0.028430624 0.07399355 0.060840428 0.05598826 0.016008135 -0.002908612 -0.014447699 0.011775846
00000000: f4b3 b3bd e897 99bd 32a9 58bd a0c8 76bd
00000010: ecbc 023d 8277 e8bc 3610 41bc 2f18 ad3d
00000020: 4064 a63b e5e5 7f3d c8a8 8dbd 2ba1 fc3c
00000030: f38e 093c e4ec 59bd cd87 83bd e9c2 02bd
00000040: c662 b0bc 845e 85bd cc72 7dbd 4399 4c3d
00000050: 5a3d d03c e081 8d3d 8a8a 89bd 435b 9fbd
00000060: ab5b 77bd e162 23bd 7991 263d c44a 9dbd
00000070: 1093 6f3d 6a9f 27bd 891d c2bc 184f 553d
00000080: dfad c93c ee97 a4bc 333c 633d 59d1 92bd
00000090: 6e3a 27bc a393 163d c683 c13b 8ce1 f33c
000000a0: 0d52 b0bd 0bb0 893c e0cc 103c 152d bc3d
000000b0: 25ac 2dbc a18e e5b9 3315 bbbb 8d8c e0bc
000000c0: 04e9 00bb 5d43 2d3d 78c0 b43b 26e2 a13d
000000d0: 428c adba 748e 8bbd 89a9 37bd c7a4 f1bc
000000e0: 08d8 8ebd 1f1b 16bd 954f 493d 9c56 883d
000000f0: ebbe 0e3d 7c25 1f3b bf35 3a3d 7f73 b33d
00000100: 7e1e e1bc 2b2c 173d f6a4 8bbc 20c7 b53c
00000110: 4b5d 78bd bc3d 853c 677e 7abc e84e 3dbc
00000120: f85c 37bd 1d7e 9a3d a73e 793c d783 063d
00000130: 6fc3 6e3d a085 673d c210 0c3d efae b1bb
00000140: 7520 5ebc 7f81 7c3c 93be b5bd 1e7e 8dba
00000150: 7be8 03bd 02cc 983d 774b 35bd e534 d0bb
00000160: bd07 473d b3e2 3a3d 700d 22bc 17a2 f53c
00000170: 3ee0 9ebd 33c6 3d3d f1f8 9abd 9fb4 b2bd
00000180: 286f 54bd 7c3d 92bd d30d 82bd 99cc 52bd
00000190: ac2c 1ebd aa06 093d 5153 043d 8ace 6a3d
000001a0: 5111 043d b2d2 5cbd 4a57 513d 107a 19bc
000001b0: fe73 563d f0e3 cabc 8172 dbbc e559 acbc
000001c0: e71a 043d 913d 37bc d742 10bd db2e 193c
000001d0: 9fd0 bdb9 2a00 663d 7c13 913d 18ac 213d
000001e0: 57e7 e83c ee89 973d d033 793d f253 653d
000001f0: 7e23 833c 699e 3ebb 0bb6 6cbc 7aef 403c

newsencoder.feature_fusion.gates.0.weight f4 [128, 128]
-0.034821145 0.018547766 -7.827892e-05 -0.0043388973 -0.03199498 0.016837511 -0.030815003 -1.3161939e-05
-0.009857945 0.011916902 -0.012208358 -0.027356748 0.014038502 0.04452216 -3.9051665e-05 -0.056423225
-0.016258843 -0.04649996 -4.4000557e-05 -0.025808418 -0.0015694447 -9.813144e-05 0.021057596 -0.037225295
-0.016893651 -0.012083472 -0.039136954 0.034831055 -0.049179725 -0.016905444 -0.0110365525 0.0009162933
4.678334e-06 0.05151137 0.027987631 -0.0066889334 -0.0011599291 0.013084656 0.0023243814 -0.01935533
0.037254 0.00032456254 -0.024983255 -0.0077730226 0.026694966 -0.030713681 0.016316025 0.050282035
0.023617951 -0.023730189 0.037160978 0.027626136 0.007961773 -0.006892743 -0.050308075 -0.002181808
0.03326831 0.003863588 0.022989029 -0.019493 0.010008729 0.030383723 -0.03467289 -0.004063902
-0.03234565 -0.00015847648 -0.050191257 -0.022324773 -0.019972214 -0.016778443 -0.036664903 -0.005703314
0.028842311 -0.01802998 0.05147417 0.019833444 0.019188741 0.01870618 0.030138316 0.00083652494
-0.028447686 0.012349386 -0.02998256 -0.00060067244 0.042764645 0.02699486 0.008167486 -0.0029162115
0.008481866 0.0012112281 -0.02554442 -0.009788608 0.033224516 0.016301855 -0.028215783 -0.010372709
1.917162e-05 0.02655812 -0.008562751 0.012620113 -0.022514496 -0.008010563 -0.008563003 -0.018660799
-0.046903417 0.016253557 -0.018031424 0.017957043 0.009405391 -0.028928274 -0.02880915 -0.0015189755
0.03660287 -0.005053529 0.0012072561 -0.01606671 -0.017144455 0.0062039 0.0050314856 -0.045246765
0.0010845674 0.0109877875 0.050891355 0.022031868 -0.017378323 0.000638666 0.010908285 4.5373727e-05
0.047272634 -0.026332721 -0.004401081 0.016523223 0.019508079 0.015067892 0.02258886 -0.00291932
0.051007576 -0.00020731609 -0.027978996 -0.021447642 0.011397215 0.055906583 0.00059988286 -0.044447403
-0.019897612 0.0231964 0.0067726388 0.043414257 0.0035553018 9.9818346e-05 0.040189452 0.03139549
0.055303194 -0.0005011815 -0.0045283926 0.012480401 0.07163188 -0.0050481665 0.0020462559 1.7715215e-06
-6.705373e-05 -0.06556482 0.06072351 -0.0023538377 0.0005548461 -0.037633285 -0.03271124 -0.024988519
-0.016199347 -0.0001763331 0.051763855 0.001453268 0.012571218 0.012024274 -0.028250506 0.020115366
0.031590097 -0.042237647 0.03824537 0.016473243 -0.046516977 0.024965301 -0.004740578 0.056162264
0.030696956 0.002205108 -0.00939219 0.012912181 -0.03802698 0.051986873 -0.0032689124 -0.002155749
0.054474253 -0.0008613812 0.0419425 0.038172234 -0.029926661 0.045075785 -0.00850261 -0.007918632
0.052247476 4.5552308e-05 0.046847407 -0.016807202 0.010775617 -0.0641455 0.003079172 0.00085145095
0.043591887 0.026302597 0.0028792196 -0.0030569015 -0.06469712 -0.05846804 -9.646591e-06 4.8822552e-05
-0.018918885 0.0019104814 0.03606883 0.0012988683 -0.0076456186 -0.019031363 0.020857137 -0.050135918
-2.7383501e-05 -0.0041899653 -0.019231753 -0.02458305 0.013667237 -0.00012535419 0.016975347 -0.0075495103
-0.044614993 -0.010852063 0.021700062 0.010267002 -0.049825337 0.014021736 0.029319478 -0.010284036
0.002444333 -0.023195418 0.06062102 -0.027255584 0.02684306 -0.020077402 -4.4706103e-05 -0.030832758
0.047684997 -0.008456369 0.053104818 0.028512789 -0.0038556755 -0.010050328 -1.4987617e-06 -0.00027024906
00000000: 9ea0 0ebd 7cf1 973c ad29 a4b8 4f2d 8ebb
00000010: 2b0d 03bd d2ee 893c bf6f fcbc 19d2 5cb7
00000020: 3883 21bc 1c3f 433c 9105 48bc 421b e0bc
00000030: bf01 663c de5c 363d 68cb 23b8 0a1c 67bd
00000040: 4431 85bc be76 3ebd 3d8d 38b8 2d6c d3bc
00000050: d3b5 cdba eacb cdb8 fb80 ac3c 8d79 18bd
00000060: 8e64 8abc c1f9 45bc 124e 20bd 02ab 0e3d
00000070: ae70 49bd 497d 8abc a8d2 34bc 6733 703a
00000080: 95fa 9c36 96fd 523d 5146 e53c d72e dbbb
00000090: c308 98ba 0661 563c a654 183b 128f 9ebc
000000a0: a697 183d 0c2a aa39 afa9 ccbc d7b4 febb
000000b0: 67af da3c 429b fbbc 2fa9 853c 89f4 4d3d
000000c0: 6f7a c13c d065 c2bc 1c36 183d 3550 e23c
000000d0: 1972 023c 85dc e1bb d70f 4ebd aafc 0ebb
000000e0: 5a44 083d 4034 7d3b 7d53 bc3c c9af 9fbc
000000f0: a7fb 233c 49e7 f83c 2905 0ebd 7b2a 85bb
00000100: df7c 04bd b52c 26b9 5995 4dbd 71e2 b6bc
00000110: c59c a3bc f272 89bc f02d 16bd dee2 babb
00000120: b646 ec3c 9cb3 93bc 94d6 523d bf79 a23c
00000130: b531 9d3c b43d 993c a1e4 f63c 3d4a 5b3a
00000140: 1f0b e9bc 1455 4a3c fc9d f5bc 7276 1dba
00000150: fb29 2f3d 5324 dd3c ebd0 053c e91d 3fbb
00000160: 86f7 0a3c 12c2 9e3a 8842 d1bc 6660 20bc
00000170: 6e16 083d 788b 853c c924 e7bc 4bf2 29bc
00000180: bed2 a037 6a90 d93c c84a 0cbc 97c4 4e3c
00000190: 5270 b8bc bd3e 03bc d64b 0cbc 88de 98bc
000001a0: cc1d 40bd 2e26 853c a3b6 93bc a61a 933c
000001b0: 1219 1a3c fdfa ecbc 2b01 ecbc 5c18 c7ba
000001c0: e4ec 153d 1398 a5bb cb3c 9e3a 559e 83bc
000001d0: 8772 8cbc 164a cb3b 29df a43b ac54 39bd
000001e0: 0b28 8e3a 1f06 343c 7473 503d 2d7c b43c
000001f0: fc5c 8ebc 266c 273a aab8 323c ab4f 3e38
00000200: f3a0 413d b8b7 d7bc f136 90bb b65b 873c
00000210: 68cf 9f3c 52df 763c 460c b93c 1052 3fbb
00000220: 52ed 503d fd62 59b9 3534 e5bc f7b2 afbc
00000230: 62bb 3a3c 4dfe 643d 7541 1d3a 7b0e 36bd
00000240: 5100 a3bc 6006 be3c 03ed dd3b 26d3 313d
00000250: 1100 693b 9155 d138 b29d 243d 8f98 003d
00000260: 9a85 623d b961 03ba e962 94bb 997a 4c3c
00000270: bcb3 923d 176b a5bb 7a1a 063b 04c5 ed35
00000280: 329f 8cb8 d946 86bd 37b9 783d d842 1abb
00000290: 1773 113a 5c25 1abd 39fc 05bd b9b4 ccbc
000002a0: 7eb4 84bc 0ee6 38b9 5606 543d 957b be3a
000002b0: 83f7 4d3c 7601 453c 9b6d e7bc fbc8 a43c
000002c0: 9e64 013d 6201 2dbd 2da7 1c3d e5f2 863c
000002d0: 9688 3ebd 0884 cc3c da56 9bbb 670a 663d
000002e0: 2f78 fb3c 9383 103b b3e1 19bc 9d8d 533c
000002f0: 2ec2 1bbd 30f0 543d 403b 56bb 7747 0dbb
00000300: 6520 5f3d 50ce 61ba e6cb 2b3d 7d5a 1c3d
00000310: c228 f5bc 63a1 383d 884e 0bbc 26bd 01bc
00000320: 7301 563d 6b0f 3f38 11e3 3f3d 42af 89bc
00000330: 378c 303c b75e 83bd efcb 493b e833 5f3a
00000340: 688d 323d 8b78 d73c 4ab1 3c3b 4c56 48bb
00000350: ec7f 84bd 2f7c 6fbd cbd7 21b7 d1c6 4c38
00000360: c7fb 9abc 1e69 fa3a e9bc 133d ca3e aa3a
00000370: 1988 fabb a9e7 9bbc 96dc aa3c 525b 4dbd
00000380: 9fb5 e5b7 fa4b 89bb e98b 9dbc 6462 c9bc
00000390: 8cec 5f3c 8271 03b9 e20f 8b3c e261 f7bb
000003a0: 36be 36bd dacc 31bc 54c4 b13c ed36 283c
000003b0: a715 4cbd 6cbb 653c 672f f03c 607e 28bc
000003c0: 1a31 203b 5104 bebc bf4d 783d 1a47 dfbc
000003d0: fae5 db3c 5d79 a4bc d082 3bb8 fb94 fcbc
000003e0: 5851 433d 958c 0abc 7084 593d a793 e93c
000003f0: 80af 7cbb 22aa 24bc 0f29 c9b5 37b0 8db9

newsencoder.feature_fusion.gates.0.bias f4 [128]
-0.0031038017 0.051755212 -0.059597705 0.01297092 -0.043032803 0.040161677 -0.02184673 0.012665637
-0.017429564 -0.019740222 -0.016117543 -0.04345744 -0.017742312 0.011097034 -0.009285041 0.018913243
-0.03627813 0.041115757 0.032099698 -0.021775812 0.0344041 -0.04473821 0.03535739 0.029726058
0.035137463 -0.017249884 0.016699752 0.047626916 -0.015176869 -0.037743345 0.026097707 -0.0069196713
0.035489235 -0.05667023 0.012472105 -0.040388227 -0.030157374 -0.008379107 0.0037371495 0.011146576
-0.0031150477 -0.0032458294 -0.0015172994 -0.019096265 -0.0397574 0.048990853 -0.03058781 0.021607554
0.043320153 -0.022983847 -0.054186124 -0.03632718 0.030278647 0.0320719 0.014898569 0.055640478
-0.0250883 -0.016594704 -0.031670336 0.03417899 0.049439732 0.050523132 -0.039610773 0.016146628
-0.006852105 -0.019943323 0.041971866 0.044904057 0.044307236 0.03744125 -0.0024562252 0.029998729
-0.00097008096 -0.043556586 -0.037583597 0.020196166 0.0336497 -0.02014985 0.050114974 0.004466406
0.0057570687 -0.015476802 0.032796085 0.02582768 -0.022228248 -0.009145407 0.00065073115 0.065714575
-0.05818723 -0.0072075147 -0.05091644 -0.0031653312 -0.028619608 -0.05308419 -0.037176296 -0.042135682
-0.011365187 0.006663442 0.038501076 -0.030867785 -0.020844888 -0.005464247 0.057596304 -0.030244138
-0.02550594 -0.007542888 0.020993738 0.039338093 -0.006112248 -0.026249824 -0.015278802 -0.0058407784
0.029299205 -0.013300296 -0.03730228 -0.019570054 0.06580013 -0.0073554856 0.022735702 -0.026117053
0.038591523 0.034109574 -0.030636845 0.043133162 -0.016682616 0.015902216 -0.02818292 -0.004646152
00000000: 2769 4bbb 46fd 533d b91c 74bd fb83 543c
00000010: 2a43 30bd 9280 243d eaf7 b2bc 8883 4f3c
00000020: 72c8 8ebc 3fb6 a1bc f008 84bc 6e00 32bd
00000030: 5358 91bc 56d0 353c 4920 18bc f2ef 9a3c
00000040: 6098 14bd ff68 283d f97a 033d 3063 b2bc
00000050: 50eb 0c3d 6a3f 37bd e9d2 103d 1084 f33c
00000060: 4dec 0f3d a14f 8dbc ebcd 883c 7114 433d
00000070: 67a8 78bc c498 1abd dcca d53c 69be e2bb
00000080: 295d 113d 0b1f 68bd cd57 4c3c 206e 25bd
00000090: 990c f7bc 8648 09bc f7ea 743b 21a0 363c
000000a0: d425 4cbb fbb7 54bb 1fe0 c6ba c56f 9cbc
000000b0: a8d8 22bd a2aa 483d 4993 fabc 5302 b13c
000000c0: 7970 313d 9f48 bcbc 45f2 5dbd cfcb 14bd
000000d0: ed0a f83c d35d 033d 2119 743c 45e7 633d
000000e0: fb85 cdbc 9ef1 87bc c1b8 01bd 45ff 0b3d
000000f0: 5181 4a3d 58f1 4e3d e83e 22bd ef45 843c
00000100: 9f87 e0bb 2e60 a3bc b1ea 2b3d 51ed 373d
00000110: 817b 353d ff5b 193d 9ff8 20bb e5bf f53c
00000120: 084d 7eba 6468 32bd 42f1 19bd 6e72 a53c
00000130: 45d4 093d 4c11 a5bc 5c45 4d3d ee5a 923b
00000140: cba5 bc3b 6a92 7dbc 3055 063d 9294 d33c
00000150: 0418 b6bc 9ed6 15bc d495 2a3a 5d95 863d
00000160: bc55 6ebd 042d ecbb c28d 50bd 7271 4fbb
00000170: ab73 eabc cf6e 59bd 2c46 18bd 7796 2cbd
00000180: 0d35 3abc 0159 da3b 4eb3 1d3d 70de fcbc
00000190: e6c2 aabc 6d0d b3bb 1aea 6b3d 8ec2 f7bc
000001a0: d5f1 d0bc 552a f7bb 0ffb ab3c fb20 213d
000001b0: 4149 c8bb df09 d7bc f153 7abc 0064 bfbb
000001c0: e304 f03c 7ce9 59bc 47ca 18bd 6151 a0bc
000001d0: 38c2 863d 4906 f1bb 3940 ba3c 6ef3 d5bc
000001e0: 2512 1e3d 7bb6 0b3d 1ffa fabc 66ac 303d
000001f0: fba9 88bc 5d45 823c dedf e6bc bf3e 98bb

newsencoder.layer_norm.weight f4 [128]
0.9298641 0.93600565 0.9300728 0.9273971 0.9291887 0.92603624 0.92691976 0.9278719
0.92680675 0.92684394 0.9267418 0.9311616 0.9256736 0.9272311 0.9288888 0.9295112
0.9280203 0.93237174 0.9265284 0.93089765 0.9300338 0.92592657 0.92502934 0.92786354
0.9295884 0.92662656 0.93372816 0.9270984 0.9325018 0.92847985 0.9279987 0.9267204
0.92657965 0.92892104 0.9295109 0.92998606 0.9283119 0.92572474 0.92570466 0.92775965
0.9278133 0.9262214 0.92538553 0.9266755 0.92684007 0.9268643 0.92476076 0.9286347
0.926381 0.92615503 0.9279923 0.92539203 0.9254473 0.9262168 0.9294001 0.9290283
0.92607373 0.92766684 0.93818104 0.9301415 0.9271587 0.9267334 0.9286773 0.9296883
0.92679197 0.9257152 0.9264314 0.929201 0.9281594 0.9264192 0.92601115 0.9260555
0.9259476 0.9299926 0.92560244 0.92618924 0.9341779 0.9255115 0.92919207 0.9257319
0.9322052 0.9272116 0.9266879 0.9278147 0.92600495 0.92737275 0.93104964 0.9348342
0.9330104 0.9296329 0.93071175 0.93391085 0.9327429 0.92838156 0.9281401 0.93576205
0.9260681 0.92523557 0.9267496 0.92629325 0.928101 0.9293127 0.93276083 0.92933214
0.9249853 0.92767787 0.92759025 0.92816967 0.9284904 0.92630863 0.9261246 0.92871135
0.92496574 0.9259816 0.9271011 0.9265462 0.93341875 0.9253867 0.9334983 0.9271231
0.9259214 0.9293494 0.9273558 0.92667156 0.9257001 0.9259932 0.9309036 0.926348
00000000: 930b 6e3f 119e 6f3f 4019 6e3f e569 6d3f
00000010: 50df 6d3f b610 6d3f 9d4a 6d3f 0389 6d3f
00000020: 3543 6d3f a545 6d3f f33e 6d3f 9b60 6e3f
00000030: f2f8 6c3f 045f 6d3f a8cb 6d3f 72f4 6d3f
00000040: bd92 6d3f eaaf 6e3f f730 6d3f 4f4f 6e3f
00000050: b216 6e3f 8609 6d3f b9ce 6c3f 7788 6d3f
00000060: 81f9 6d3f 6637 6d3f cf08 6f3f 5256 6d3f
00000070: 70b8 6e3f dbb0 6d3f 5391 6d3f 8c3d 6d3f
00000080: 5334 6d3f c5cd 6d3f 6df4 6d3f 9113 6e3f
00000090: d9a5 6d3f 4cfc 6c3f fbfa 6c3f a881 6d3f
000000a0: 2c85 6d3f d81c 6d3f 11e6 6c3f 9b3a 6d3f
000000b0: 6445 6d3f fb46 6d3f 1fbd 6c3f 01bb 6d3f
000000c0: 4e27 6d3f 7f18 6d3f e790 6d3f 7ee6 6c3f
000000d0: 1dea 6c3f 8b1c 6d3f 2aed 6d3f ccd4 6d3f
000000e0: 2b13 6d3f 937b 6d3f a22c 703f c11d 6e3f
000000f0: 465a 6d3f 663e 6d3f ccbd 6d3f 0d00 6e3f
00000100: 3d42 6d3f acfb 6c3f 9c2a 6d3f 1ee0 6d3f
00000110: db9b 6d3f cf29 6d3f 110f 6d3f f911 6d3f
00000120: e70a 6d3f ff13 6e3f 48f4 6c3f bd1a 6d3f
00000130: 4826 6f3f 52ee 6c3f 88df 6d3f c4fc 6c3f
00000140: 00a5 6e3f bd5d 6d3f 6b3b 6d3f 4485 6d3f
00000150: a90e 6d3f 4d68 6d3f 4559 6e3f 4b51 6f3f
00000160: c5d9 6e3f 6cfc 6d3f 2043 6e3f c814 6f3f
00000170: 3dc8 6e3f 6aaa 6d3f 979a 6d3f 1a8e 6f3f
00000180: cd12 6d3f 3ddc 6c3f 763f 6d3f 8e21 6d3f
00000190: 0798 6d3f 70e7 6d3f 6ac9 6e3f b6e8 6d3f
000001a0: d6cb 6c3f 4c7c 6d3f 8e76 6d3f 879c 6d3f
000001b0: 8cb1 6d3f 9022 6d3f 8016 6d3f 07c0 6d3f
000001c0: 8eca 6c3f 210d 6d3f 7f56 6d3f 2232 6d3f
000001d0: 88f4 6e3f 25e6 6c3f bff9 6e3f f157 6d3f
000001e0: 2f09 6d3f d8e9 6d3f 3167 6d3f 593a 6d3f
000001f0: affa 6c3f e40d 6d3f b34f 6e3f 2425 6d3f

newsencoder.layer_norm.bias f4 [128]
-0.015386152 -0.017874649 -0.0074015697 -0.005092476 -0.0048893094 -0.008177272 0.011566336 0.008973829
0.0037555788 0.003131406 -0.0060082804 0.0043130075 0.005730298 -0.018148823 -0.006922539 -0.013447045
0.0062345373 -0.0034635635 -0.0047079423 0.0053954446 0.0080488995 0.0038960276 -0.01567301 -0.010210505
-0.0060262918 -0.0035646614 -0.0019400922 -0.010663609 0.01103984 -0.0011883581 -0.012607146 0.0052971803
0.00021329777 0.002337366 0.014731877 0.008396543 0.0079839565 -0.010155456 -0.0015091271 0.010517749
-0.015041111 0.004263192 0.011256298 0.014870243 -0.018145937 0.0001343454 -0.009659713 -0.007244347
0.0044497633 0.0113809 0.0032289706 0.006292385 -0.004797569 -0.008590145 -0.0035127515 -0.011475889
-0.00971484 0.0024837228 0.0057014157 0.013896987 0.0057025766 0.010861308 0.0033607506 0.013709935
-0.006343302 -0.012941093 -0.010894342 0.0025504078 -0.0026402639 -0.002934311 0.0015577149 -0.0044872095
-0.010774962 0.011655722 0.000617494 0.010251249 0.011843384 0.0018115926 -0.010512773 -0.024049154
0.0024835682 -0.0025614977 -0.01593552 0.00239197 0.009853178 0.013567007 -0.0027352155 -0.0034117934
-0.0024903673 0.005746086 -0.0009955028 -0.0008233687 -0.016745884 2.21578e-05 -0.015749417 -0.008658545
-0.0075634858 0.00080422556 -0.011162334 -0.0033228213 -0.013317484 -0.0033889068 0.0026648126 0.0023981836
0.00815553 0.004520983 0.0044701993 0.0066204625 0.023843508 0.013487673 0.006007017 4.5394234e-05
-0.0022876987 -0.0059482856 -0.003604962 0.004600447 0.005087722 0.012930645 -0.0024950765 0.0038075515
-0.008614052 0.011631483 0.007216287 0.008292005 0.0016387949 0.013504779 0.013961267 0.004903034
00000000: 3316 7cbc db6d 92bc de88 f2bb c9de a6bb
00000010: 8036 a0bb f7f9 05bc bb80 3d3c f806 133c
00000020: 2820 763b 4638 4d3b 1ce1 c4bb 2154 8d3b
00000030: 39c5 bb3b d7ac 94bc 77d6 e2bb ff50 5cbc
00000040: 174b cc3b f4fc 62bb 1545 9abb 45cc b03b
00000050: 88df 033c 7f54 7f3b af64 80bc f649 27bc
00000060: 3378 c5bb 189d 69bb b14a feba 6bb6 2ebc
00000070: 72e0 343c aec2 9bba 348e 4ebc f893 ad3b
00000080: afa8 5f39 7f2e 193b f85d 713c a791 093c
00000090: 24cf 023c 1263 26bc e7cd c5ba a352 2c3c
000000a0: fe6e 76bc 3fb2 8b3b 566c 383c 52a2 733c
000000b0: caa6 94bc 12df 0c39 c643 1ebc fd61 edbb
000000c0: 52cf 913b f476 3a3c 239d 533b 5a30 ce3b
000000d0: ed34 9dbb aebd 0cbc 3136 66bb 5e05 3cbc
000000e0: fe2a 1fbc f4c5 223b f1d2 ba3b 30b0 633c
000000f0: aedc ba3b a1f3 313c 0a40 5c3b a39f 603c
00000100: 79db cfbb e106 54bc 2f7e 32bc be24 273b
00000110: 4708 2dbb 924d 40bb 3d2c cc3a 7109 93bb
00000120: 7789 30bc a4f7 3e3c 52df 213a dbf4 273c
00000130: c10a 423c f672 ed3a c43d 2cbc bb02 c5bc
00000140: 5cc3 223b cdde 27bb 358b 82bc 99c2 1c3b
00000150: 396f 213c 2748 5e3c 4d41 33bb 6598 5fbb
00000160: 6e35 23bb aa49 bc3b 887b 82ba 57d7 57ba
00000170: aa2e 89bc 83df b937 ec04 81bc 92dc 0dbc
00000180: 1ed7 f7bb aad2 523a 39e2 36bc b1c3 59bb
00000190: 9431 5abc 6c18 5ebb 23a4 2e3b d82a 1d3b
000001a0: c69e 053c c124 943b c07a 923b 77f0 d83b
000001b0: 7653 c33c 67fb 5c3c 83d6 c43b b065 3e38
000001c0: 37ed 15bb d6e9 c2bb 3a41 6cbb 59bf 963b
000001d0: e8b6 a63b 0edb 533c 7084 23bb 1d88 793b
000001e0: f421 0dbc fa91 3e3c 9a76 ec3b 31db 073c
000001f0: d5cc d63a 2643 5d3c ccbd 643c a1a9 a03b
