model_checkpoint.pth (torch, 495394 bytes, 35 tensors)

newsencoder.doc_encoder.layer.0.weight f4 [128, 300]
00000000: b3b7 123d e2c6 0e3d e3c5 0dbc b0ac 2c3d
00000010: b979 8fbb 5f2d 073c 3659 e2bc 97e2 033d
00000020: a928 2a3d 6638 f1bc d2e4 0b3d 18df 043c
00000030: 7a78 1c3d 94dc 3b3c d9c2 923c dea7 ccbb
00000040: 120d 163d 1001 ee3a 66cf c4bc 3241 0d3c
00000050: 48fc 87bc f8db 33bb f712 a4bc a56b c33c
00000060: 4195 1ebd bb56 7bbc 3f77 58bc e260 c6bc
00000070: 28a8 d83b c96c 28bd e8d5 103d d00e 0bbd
00000080: 21b3 183d 4b37 e93b fdc7 91bc a6b0 0d3d
00000090: e296 053c 701a 1c3d 92af 90ba 5ccb c3bb
000000a0: 405b 4e3c f33b 52bc 9f58 513c 976d 1c3d
000000b0: d728 de3c b664 cdbc 4492 b93c 66ed 083c
000000c0: 0d35 e73c fc0f c7bc 298a 38bd 8779 9cbc
000000d0: 3f13 02bd 8236 103d c3ce 083c a464 b93c
000000e0: bad5 873c 4d84 48bb 5dc8 0f3d 3b26 04bd
000000f0: 5592 473b 20a9 00bd 930f 273c ed37 36bc
00000100: 87cc 193c 6471 45bc cf17 093d 4903 c4bc
00000110: 739d d8bc 2f34 c3bc fc15 333d a566 753c
00000120: 6613 303d 0f10 2fbd 13a3 38bd 1e84 fdbc
00000130: aa73 02bd 6b33 a23c e800 7b3c 086a 213d
00000140: c2e5 92bc 1432 fabc dd66 963c c2f7 a1bc
00000150: c2b3 aa3c 652a 03bc 76bc b53c 039a f4bc
00000160: 87c8 b2bc 0450 863c b3f8 0b3c 68aa 54bc
00000170: 640e df3c ac1b fc3c d63d edbc 15c6 cbbc
00000180: fc6d 2c3d 17e7 57bc 9fd5 69bc 364e 39bd
00000190: 35c9 c6bc 2878 683c feff 96ba 54aa fbbc
000001a0: 0dfd 9db9 7031 e3bc b9ec 11bd e0e3 adbc
000001b0: a5a9 1cbd 0073 cfbc 2500 363d 52f5 023c
000001c0: ce6b 833c c520 18bd 1233 e8bc 0014 57bc
000001d0: c57a 7f3b 53e9 13bd 89ae 99bc 87b4 dabc
000001e0: fdf4 05bb 382b 64bc 4977 27bb 05a0 03bd
000001f0: ee42 0abd 2f60 cdbc d244 35bc 0ce6 09bd
00000200: dd37 083d c7b9 85bc f7d4 163d 1c9a 543c
00000210: 4739 20bd 9427 033d 5ca6 07bc 4e4a 56bc
00000220: 05e3 32bd 494a 4ebd 8891 313c 2189 94bc
00000230: de5e 353c 0b43 03bd b476 d43c be02 17bd
00000240: 5687 44bc 8390 f53b d52d a33c fa6f 053d
00000250: 2685 183d adae fcbc 14b8 7a3c 0f3a babc
00000260: 58cf b9bb dc66 dfbc 3993 243d a284 ebbc
00000270: 0c8c c33c 481b 4e3c ac76 303c 5ca9 d6bc
00000280: 9aa1 233d ad12 e63b c1b6 683b aefd 14bd
00000290: b23f ab3c 47ab 68bc d5ca babc dff9 283d
000002a0: b182 d03b e7ca bebc 9755 c7bc 47df f7b8
000002b0: dea6 d13c b1d5 44bc 8aca e1bc e076 44bc
000002c0: cd7e 0dbd 6844 603c a782 fe3c 564a 27bd
000002d0: 2530 0e3c 4448 e13c 3bd0 c83b f864 50bc
000002e0: 7adc b93c f392 b93c 437f cf3c c2af bbbb
000002f0: 23ad 00bc acea 1e3b 35cb 8bbb ecf6 57bc
00000300: 8648 ed3c 53d9 073d 3321 a2ba f757 02bc
00000310: febe b23b b558 bebb b5e6 503c ca1f df3b
00000320: 133e 14bd 85d2 3dbc d3d7 223d c4e4 9a3c
00000330: a3f4 b43b 318c efbc 24f2 d7bc 79cd 16bd
00000340: 367e 90bc 239d 373c 1030 ee3c cae2 af3c
00000350: a814 11bd b353 ebbc aab4 59bb 72f6 153d
00000360: c9e8 073c db17 17bc 7dd7 8e3c 3748 8cbc
00000370: 7530 cebc f631 d53c ab5c b2bc 43da dbbb
00000380: 49f9 20bd 478f a03c 8500 053d cf1c 363c
00000390: 6d03 04bd 039e 49bd 8974 0abd e2b3 113d
000003a0: 0832 c33c 2947 083d bdaf aa3c 2fbc 813c
000003b0: 4536 4aba f7f2 09bd 24a6 13bd 393d 31bd
000003c0: 5ffb 993c 9bb4 bdbc cbc2 4cbc 1fee e0bc
000003d0: 4130 e0bb 4ae7 00bd da48 01bd 73fc 7e3c
000003e0: dd1f 84bc b0c8 ea3c 90f3 35bc dd92 ffbc
000003f0: 88ba ecbb 943c 69bc f21c 25bc e375 2abd
0.03581972 0.03485764 -0.008653137 0.042156875 -0.004378524 0.008250563 -0.02763043 0.032198515
0.041542683 -0.029445838 0.034153767 0.00810983 0.038200833 0.011466164 0.017915176 -0.0062455973
0.03663356 0.0018158276 -0.024024677 0.008621501 -0.01659979 -0.0027444344 -0.020028574 0.02385504
-0.03871656 -0.015340502 -0.013212024 -0.02421612 0.0066118427 -0.04111937 0.035360247 -0.033949673
0.037280206 0.007117187 -0.017795557 0.034592293 0.008153649 0.03811115 -0.0011038652 -0.00597517
0.012594998 -0.012831676 0.012777477 0.03819045 0.027119083 -0.025072437 0.022652753 0.008357381
0.028223539 -0.024299614 -0.045053635 -0.019100918 -0.031756636 0.035208233 0.008350077 0.022630997
0.016581405 -0.0030596436 0.03510319 -0.032263022 0.003045221 -0.03141129 0.010196584 -0.011121732
0.009387142 -0.01205096 0.03346997 -0.023927348 -0.026442265 -0.023828594 0.043722138 0.014978086
0.04298725 -0.042739924 -0.045077395 -0.030946787 -0.031848587 0.019799909 0.01532004 0.03940776
-0.017931823 -0.030541457 0.018359596 -0.01977146 0.020837668 -0.008005713 0.022184592 -0.029858595
-0.021824135 0.016395576 0.008543181 -0.012980081 0.027228542 0.030774914 -0.02896015 -0.024874726
0.042097077 -0.013177655 -0.014272123 -0.045240603 -0.024265865 0.014188804 -0.0011520383 -0.030720867
-0.0003013391 -0.027733535 -0.035626147 -0.021226823 -0.038247723 -0.025323391 0.04443373 0.007993059
0.016042616 -0.037140626 -0.028344665 -0.013127327 0.0038983088 -0.036111187 -0.018759983 -0.02669741
-0.0020440214 -0.01392632 -0.0025553277 -0.03213503 -0.033755235 -0.025070278 -0.011063771 -0.033666655
0.0332564 -0.016323937 0.036824193 0.012976196 -0.039117124 0.032020167 -0.008279409 -0.013079239
-0.043673534 -0.050363813 0.01083792 -0.018131794 0.011069981 -0.03204636 0.025935508 -0.03686785
-0.011995157 0.007494034 0.019919315 0.032577492 0.037236355 -0.03084501 0.015302677 -0.022732763
-0.0056704693 -0.027270727 0.040179465 -0.028749768 0.02387049 0.012579747 0.010770481 -0.026203804
0.039949037 0.0070212693 0.003550932 -0.03637474 0.020904396 -0.014200992 -0.022801796 0.04125392
0.006363236 -0.02329011 -0.024332805 -0.000118194665 0.025592264 -0.012013839 -0.027562398 -0.011991233
-0.034544755 0.013688184 0.03106816 -0.040842377 0.008678471 0.02750028 0.0061283386 -0.012719385
0.02268814 0.022653079 0.025329238 -0.005727739 -0.007853779 0.0024248762 -0.0042661675 -0.013181429
0.028965246 0.03316624 -0.0012369513 -0.007955543 0.005454897 -0.0058089145 0.012750317 0.0068092095
-0.03619201 -0.011585836 0.039756607 0.018907912 0.005522327 -0.029241653 -0.026360579 -0.036817048
-0.017638307 0.011206898 0.029075652 0.021470446 -0.03542009 -0.028726434 -0.0033219256 0.03661198
0.008295246 -0.009221996 0.017436737 -0.017124278 -0.02516959 0.0260248 -0.021772703 -0.0067093684
-0.039300237 0.01959957 0.0324712 0.011115267 -0.03222983 -0.049222957 -0.033802543 0.03557194
0.023827568 0.03327099 0.020835752 0.015836803 -0.0007713775 -0.033678975 -0.036047116 -0.043271277
0.01879662 -0.023157408 -0.012497614 -0.027457295 -0.00684169 -0.031470574 -0.031563617 0.015563118
-0.016128475 0.028660148 -0.011105433 -0.03119796 -0.0072243847 -0.014235634 -0.010077702 -0.04161633

newsencoder.doc_encoder.layer.0.bias f4 [128]
00000000: 57ac 2b3c 8776 efbc 1c1f d6bc f271 db39
00000010: 0669 043b 4f6d 093d bbde 32bd c009 bfba
00000020: 49bc d23c 425a fcbb c20c 27bd f7d6 6c3c
00000030: 74ee 69bd e229 f03c a04e 70bb 037b 9e3c
00000040: 5092 0abd b2b8 61bd 9913 4ebb f7a5 393d
00000050: 31af 47bd b9bc 3dbc 134a cc3c 2d3c 0f3d
00000060: 64f3 cfb9 b8fc 47bd 89fb 2e3d 74d3 613a
00000070: 7e0f 0a3d ea01 3b3c a88e 54bb 96a3 a0ba
00000080: 199f a1ba 9dfd 323d 1032 813c 4cd0 e13c
00000090: 0597 39bc 19fd 493d e535 913c e2ca 953c
000000a0: 6226 e83c 64ab 2bba e83c 463d fd50 ddbc
000000b0: a109 5b3b 5a45 6e3a 4531 dcbc 1e9c d13b
000000c0: 5b50 e33c 71f2 cf3b 93a0 2cbd 17d6 b23c
000000d0: 51bd 053d 5fcc a9bc f327 8c3c cb85 cabc
000000e0: 4bec f43c 21ff 36bd 0476 b93c 8d2d 3bbd
000000f0: 77aa 733c 0091 533c 3d60 803c 30e5 963c
00000100: 6c3b 1d3c 1b3f 60bd 24b5 a8bc f74e a4bc
00000110: eff3 323d 67d4 9a3c 525d 71bc 903f 1d3d
00000120: 987d e33b 85ab ceba f77f a83b 2d93 89bc
00000130: ea41 1dbd 2096 c53b d8f8 ee3c e701 c4ba
00000140: 49f3 203d 00db f6ba 6d14 ba3a 0998 d7ba
00000150: 6d48 ce39 5df2 823c 9c3c 12ba 57bc d1bb
00000160: 168a 703c 11b3 0cbb 291e 2b3d 8ece bc3a
00000170: 292a e43b 7dde 02bd 1edd 96bc b6db bf3c
00000180: ab69 beba e737 7f3b ee94 123d 718e 63bc
00000190: 4630 8abb 8e46 81ba 9af5 00bd 70f0 2d3b
000001a0: a735 1f3a c415 193d f37b 183c 0f4e 81bc
000001b0: b8d7 1e3c ef43 883b 6cc6 2fbc 14e7 623c
000001c0: 7f75 063c 9086 0e3d 20a5 d53c c5ad 243d
000001d0: 7314 863c a0cc 1abb fa2b e2ba f9a1 22bd
000001e0: 396c 11bd e7e1 4f3b 0820 efbc 093f 213d
000001f0: 0fba 18bb 66aa 41bd 5187 e8bc c154 9bbb
0.010478101 -0.029231323 -0.026137881 0.0004185583 0.00202042 0.03355151 -0.043669444 -0.0014575049
0.025724547 -0.0077011893 -0.04078365 0.0144555485 -0.057112172 0.029316846 -0.0036667958 0.019345766
-0.03383094 -0.05510778 -0.0031444787 0.045324292 -0.04875106 -0.0115806395 0.024937665 0.034969497
-0.00039663457 -0.048824996 0.04272035 0.0008614578 0.03370618 0.011414031 -0.0032433663 -0.0012255784
-0.001233074 0.043698896 0.015770942 0.027565144 -0.01132751 0.04931364 0.017725894 0.018285219
0.028338615 -0.00065486715 0.04839793 -0.027016157 0.0033422487 0.00090893137 -0.026878962 0.0063967844
0.027748277 0.00634604 -0.042145323 0.021830602 0.03265125 -0.020727335 0.017108893 -0.024722
0.02989783 -0.044676904 0.022639282 -0.045697737 0.014872185 0.012912989 0.01567089 0.018419832
0.009596687 -0.054747682 -0.020594187 -0.020057185 0.043689664 0.01890011 -0.014731722 0.038390696
0.006942462 -0.001576767 0.0051422077 -0.016793812 -0.03839294 0.006029859 0.029171392 -0.001495418
0.039294515 -0.0018833578 0.0014196761 -0.0016448508 0.00039345343 0.015984708 -0.00055784895 -0.0064006257
0.01468136 -0.0021469037 0.04177681 0.001440482 0.0069630337 -0.031950463 -0.018415984 0.023420196
-0.0014527341 0.0038943233 0.03578656 -0.013888941 -0.0042171804 -0.0009862946 -0.031484224 0.0026541017
0.00060733635 0.037374273 0.009306896 -0.015784292 0.009694986 0.004158489 -0.01072846 0.013849039
0.008206724 0.034796298 0.026079714 0.040204782 0.016367173 -0.00236205 -0.0017255538 -0.03970525
-0.0355036 0.0031720342 -0.029190078 0.039366756 -0.002330426 -0.047281645 -0.028384836 -0.004740328

newsencoder.doc_encoder.layer.2.weight f4 [128]
00000000: 92ca 6c3f 91f3 6c3f c097 6c3f 86e6 6c3f
00000010: f8d0 6c3f aee1 6c3f c2c7 6c3f 9989 6c3f
00000020: 81d6 6c3f 9489 6c3f 01bd 6c3f a5d7 6c3f
00000030: 57a2 6c3f 76c7 6c3f 9d89 6c3f 6cd7 6c3f
00000040: 7489 6c3f d9a4 6c3f 9e89 6c3f abce 6c3f
00000050: 4a8e 6c3f 8d89 6c3f 64bf 6c3f f6e7 6c3f
00000060: 8906 6d3f 439c 6c3f d909 6d3f 32d2 6c3f
00000070: afe6 6c3f aecd 6c3f 9c89 6c3f 9989 6c3f
00000080: 9889 6c3f a0f2 6c3f ea4d 6d3f 9ab0 6c3f
00000090: 9f89 6c3f 9ddd 6c3f ffaf 6c3f 9ed1 6c3f
000000a0: 3bd2 6c3f 7489 6c3f 7fe5 6c3f 268f 6c3f
000000b0: f1f1 6c3f cec8 6c3f 6993 6c3f 8d01 6d3f
000000c0: fcc3 6c3f e2a2 6c3f 18cf 6c3f 66d1 6c3f
000000d0: 56e6 6c3f 4ee6 6c3f d6cb 6c3f 17cb 6c3f
000000e0: e1ed 6c3f 69a2 6c3f 6beb 6c3f 2fae 6c3f
000000f0: 20d9 6c3f 5dcc 6c3f 3dfd 6c3f 1b9d 6c3f
00000100: 22f3 6c3f 8f9b 6c3f 5cac 6c3f dadc 6c3f
00000110: bad0 6c3f 65ba 6c3f 54ce 6c3f 4909 6d3f
00000120: 6ad0 6c3f 9989 6c3f f406 6d3f c789 6c3f
00000130: 4899 6c3f d0bf 6c3f a509 6d3f 9989 6c3f
00000140: b3e2 6c3f 688b 6c3f 1e16 6d3f 9989 6c3f
00000150: 9205 6d3f 87cf 6c3f 9989 6c3f 9c89 6c3f
00000160: f2ef 6c3f 34c4 6c3f 8fed 6c3f 16ef 6c3f
00000170: 4eed 6c3f 4bbe 6c3f 9bc9 6c3f 3d03 6d3f
00000180: 9989 6c3f 5bdc 6c3f f8e5 6c3f 58e7 6c3f
00000190: 9989 6c3f 9989 6c3f d99e 6c3f b1c1 6c3f
000001a0: 00f6 6c3f 81e4 6c3f 6fb2 6c3f 88dd 6c3f
000001b0: fcba 6c3f 7cac 6c3f 30f2 6c3f 11e5 6c3f
000001c0: 1bbd 6c3f 27ca 6c3f a0e9 6c3f dad6 6c3f
000001d0: cad3 6c3f d58a 6c3f 9989 6c3f 22d1 6c3f
000001e0: a291 6c3f 5ee0 6c3f aeed 6c3f c704 6d3f
000001f0: cd8d 6c3f 3389 6c3f aa8c 6c3f a389 6c3f
0.924966 0.9255915 0.9241905 0.9253925 0.9250636 0.9253186 0.92492306 0.9239746
0.92514807 0.9239743 0.924759 0.9251655 0.9243521 0.92491853 0.9239748 0.9251621
0.92397237 0.9243904 0.9239749 0.9250285 0.92404616 0.92397386 0.9247954 0.92541444
0.92588097 0.92425936 0.9259315 0.9250823 0.92539495 0.9250134 0.92397475 0.9239746
0.9239745 0.92557716 0.9269701 0.9245697 0.92397493 0.92525655 0.9245605 0.9250735
0.92508286 0.92397237 0.92537683 0.9240593 0.92556673 0.92493904 0.9241243 0.9258049
0.9248655 0.9243604 0.925035 0.92507017 0.92538965 0.9253892 0.9249853 0.9249739
0.92550474 0.9243532 0.9254672 0.92453283 0.92518806 0.92499334 0.9257391 0.92427224
0.9255849 0.92424864 0.924505 0.9252449 0.9250599 0.92471915 0.9250233 0.92592293
0.92505515 0.9239746 0.92588735 0.9239773 0.9242139 0.9248018 0.9259284 0.9239746
0.92533416 0.9240022 0.92611873 0.9239746 0.92586625 0.9250416 0.9239746 0.92397475
0.9255363 0.9248688 0.92549986 0.92552316 0.925496 0.92477864 0.92495126 0.92583066
0.9239746 0.92523736 0.92538404 0.925405 0.9239746 0.9239746 0.9242988 0.9248305
0.92562866 0.9253617 0.9245977 0.9252553 0.92472816 0.9245069 0.9255705 0.9253703
0.9247605 0.9249596 0.92543983 0.9251534 0.92510664 0.9239934 0.9239746 0.9250661
0.9240972 0.9252986 0.9255017 0.92585415 0.9240387 0.9239685 0.92402136 0.92397517

newsencoder.doc_encoder.layer.2.bias f4 [128]
00000000: 8b47 7cbc c109 8eba 6240 56bc 67e5 4fbc
00000010: 3e9d b3bc 5297 96bc ad17 af3c 88f8 9139
00000020: 0378 15bb f359 f03b f8f4 55bc cf0d 14bc
00000030: cacd a0bc 0054 7a3b e11e 0bbc 0a22 cc39
00000040: cb7c bfba 9908 11bc 9789 eeba 8108 953b
00000050: 86cb 22bc f35f c43b 1a3f a9bc 88f3 433b
00000060: 1e87 38b9 daeb 0a3c 991b 72bb 22fd 1c3c
00000070: 602a 3c3a e8ff 8e3b 8b5f e53a f482 d7ba
00000080: bb0e ff3b 9266 e2bc 7863 5ab8 50a6 14bc
00000090: 3da2 e63b 1829 98bb 360b 2cbc c61e 013b
000000a0: 28fd 5b3c 09d5 c3ba 3783 2c3c 39cd 83bb
000000b0: 3cbb be3b 8878 74bb 51f6 c63a db0a 683c
000000c0: 09c1 f4bb faeb 67bc 37bf bd3b 5ebe 5dbc
000000d0: 6e87 44bb 3065 80bb 4755 163c 22c3 a83b
000000e0: cdf5 e2ba 91ce 0dbc 9e7d 423c 4932 0c3c
000000f0: aba1 4b3b ca3c b73b c422 b23b 6576 2f3c
00000100: f408 38bc bbee 5cba 2167 9cbb 23f5 123c
00000110: ce29 02bc 547a 3d3b f5ef 7fbb 4f16 14bb
00000120: dc45 6fba c651 6abc 6c1e f73b 26f3 7e3c
00000130: a6c2 223c c84c 7fbc d391 343c e765 50bb
00000140: f013 ceb9 ecbf 5f3c 3902 923c 1efa 323c
00000150: a149 57bc 9886 d73b 8b0f f3ba 7190 8e3c
00000160: f9af 763c 4627 58bb 7518 3a3c 0d91 69ba
00000170: d60d 173b 4a27 763b 7ce6 23bb 149a 273c
00000180: b5f2 183b 5df7 26bc 12d7 2ebc d9a0 ee3a
00000190: eab1 853a 2e3f e23a cdc6 263c 3d0a 13bc
000001a0: 3ff8 57bc e4cf 45bb b55d c4bc a30f 243c
000001b0: cd76 8bbc e108 6ebb c9f2 ec3b ae2b 31bc
000001c0: c9bd fc3b 86ac 533c b09a bc3c 920f 60bc
000001d0: c989 843c 0c28 47bc e2df 3c3c a2b3 70bc
000001e0: aafe 10bc 56ec 9b3c 888d e33b 5dcf 413b
000001f0: c654 8ebb 38c8 64bc 8045 1e3b 608a 183b
-0.015397917 -0.0010836647 -0.0130768735 -0.012688971 -0.021925565 -0.018382702 0.021373594 0.00027841725
-0.0022807128 0.0073349415 -0.013058893 -0.009036495 -0.019629378 0.003819704 -0.008491249 0.00038935273
-0.0014609335 -0.0088521475 -0.0018198964 0.004548133 -0.009936219 0.0059928834 -0.020659972 0.0029899795
-0.00017597942 0.008479083 -0.003694272 0.009581836 0.0007177945 0.0043640025 0.0017499788 -0.0016442225
0.0077837384 -0.0276368 -5.2067888e-05 -0.009072855 0.0070383833 -0.0046435706 -0.01050072 0.001970218
0.013427056 -0.0014940809 0.010529331 -0.004022267 0.00582066 -0.0037303288 0.0015179609 0.014162744
-0.0074693006 -0.014155382 0.005790617 -0.013534157 -0.002998795 -0.0039183125 0.009175605 0.005150215
-0.0017315686 -0.008655206 0.01187077 0.008556911 0.0031071703 0.0055919634 0.0054362733 0.01070938
-0.011232603 -0.00084279076 -0.004773036 0.008969578 -0.007944537 0.0028912025 -0.0039052938 -0.0022596305
-0.00091275363 -0.014301723 0.0075414684 0.015560901 0.009934103 -0.015582271 0.011021095 -0.003179902
-0.00039306236 0.013656598 0.017823325 0.01092389 -0.013140113 0.006577324 -0.0018544061 0.01740286
0.015056604 -0.0032982393 0.01135837 -0.0008909859 0.0023049018 0.003756004 -0.0025009206 0.010229606
0.0023338024 -0.010190812 -0.010671394 0.0018205895 0.0010200117 0.0017261261 0.010179234 -0.008974609
-0.013181745 -0.0030183727 -0.023970464 0.010013494 -0.017024422 -0.003632121 0.0072310907 -0.010813637
0.007713054 0.012919551 0.02302298 -0.013675587 0.016178982 -0.012155544 0.011527987 -0.014691265
-0.008849779 0.019033592 0.006944362 0.002957306 -0.004343602 -0.0139637515 0.0024150312 0.0023275837

newsencoder.doc_encoder.layer.2.running_mean f4 [128]
00000000: cbe1 443d 8b49 553b 84aa b238 5c57 cf3c
00000010: 72ef d43b 2732 233d 644a 4639 0000 0000
00000020: 17da 193d 0400 0000 12c2 a43b 594c b23c
00000030: 5149 e637 9ccd 083d 0400 0000 8834 3a3d
00000040: 0400 0000 5224 3538 0400 0000 8a2c 113a
00000050: e138 bd38 0400 0000 d917 143d 5403 4b3d
00000060: e883 0e3d 4567 8438 8f0c 743c e166 093d
00000070: d967 0c3d 3381 d93b 0400 0000 0000 0000
00000080: 0400 0000 5502 483c 745e 063d 9e48 8039
00000090: 0400 0000 8678 043d 8ab0 003b ff26 2a3d
000000a0: 6088 1d3d 8670 403a 614e cd3c b1e9 6537
000000b0: 194f 253d 2334 d73b eaaf b237 c8c8 313d
000000c0: 03b1 8d3c 2522 0c3b 4887 963b 4171 ee3c
000000d0: df5e 3d3c 12a3 043b cc6b 8c3c ec01 2e3c
000000e0: a451 d239 61e4 9d36 3b0c c93c 6b5e b037
000000f0: ecf4 1c3d 750c 0b3d df19 333d debc 4d39
00000100: fce4 323d dfef f436 655d 4c3c c4d3 253c
00000110: e337 2e3d ef0a 6c39 dd67 133c 0b47 ca3c
00000120: ec57 e33c 0000 0000 6536 1f3a 0400 0000
00000130: d563 b539 214e 5b3b 061c 923c 0000 0000
00000140: aff3 273d 4d83 bc34 af44 423d 0000 0000
00000150: 9564 c43b 4a9f 083c 0000 0000 0400 0000
00000160: 8e82 883b a8f8 063c d84b 063d 48da bd3c
00000170: df6c 743c 095e ae37 8d21 083b a638 233d
00000180: 0000 0000 d3a7 973c be6b 1d3c 7d63 d13c
00000190: 0400 0000 0000 0000 e781 202b 42b7 a23c
000001a0: 521c 383d 3243 a33c 1dfc c739 ca24 ac3c
000001b0: ef1e 8f3b b58d 6f3a 9c50 183c 9b4a f63c
000001c0: 6285 2e3b 428e 0e3d 65b3 123d 12c1 b73a
000001d0: 4b43 953c 07c4 4d35 0000 0000 feb9 a13b
000001e0: b42e e238 3f47 223d eb50 783d ecb8 203d
000001f0: f71c 0d3a 0400 0000 0400 0000 0400 0000
0.048066895 0.0032545056 8.5194624e-05 0.02531021 0.0064982707 0.03984275 0.00018910464 0.0
0.037561502 6e-45 0.005028018 0.021764921 2.7452277e-05 0.03339921 6e-45 0.045460254
6e-45 4.318759e-05 6e-45 0.0005537948 9.022817e-05 6e-45 0.036155555 0.04956372
0.034793764 6.313486e-05 0.014895572 0.03354538 0.034278724 0.006637716 6e-45 0.0
6e-45 0.012207587 0.03280492 0.00024468167 6e-45 0.032341503 0.0019636475 0.041541096
0.038460135 0.0007340986 0.025061788 1.3703874e-05 0.040358637 0.0065674945 2.130117e-05 0.04340437
0.01729632 0.0021382656 0.0045937635 0.029106738 0.011558264 0.00202388 0.017141245 0.010620575
0.00040115148 4.7055514e-06 0.024541965 2.1024802e-05 0.038319513 0.033947427 0.043725844 0.00019620682
0.043675408 7.2996913e-06 0.012473439 0.01012129 0.042533766 0.00022510787 0.008996931 0.024692079
0.027751885 0.0 0.0006073474 6e-45 0.0003459739 0.0033463317 0.017835628 0.0
0.04100388 3.5113263e-07 0.047428783 0.0 0.0059934356 0.008338759 0.0 6e-45
0.004165954 0.008237995 0.032787174 0.023175374 0.014918535 2.0786205e-05 0.002077195 0.039848946
0.0 0.018512642 0.009608207 0.025560135 6e-45 0.0 5.7023695e-13 0.019862775
0.044948883 0.019929502 0.00038144077 0.021013636 0.0043677012 0.00091382425 0.0092965625 0.030064872
0.0026629795 0.034803636 0.035815615 0.0014019331 0.018220564 7.665371e-07 0.0 0.004935502
0.00010785219 0.039618727 0.060624044 0.039238855 0.0005383039 6e-45 6e-45 6e-45

newsencoder.doc_encoder.layer.2.running_var f4 [128]
00000000: 3c89 4e39 4a21 4538 c024 2835 2618 7639
00000010: cc2d 9438 c871 8739 d2a4 b935 0400 0000
00000020: c049 2e39 0400 0000 6eda 8138 25e0 3839
00000030: 58dd 8034 7c9d 2f39 0400 0000 6e61 3f39
00000040: 0400 0000 a2b4 0635 0400 0000 a497 9a37
00000050: ddd1 5235 0400 0000 3b1f d438 3257 2f39
00000060: 2fa2 5b39 e5a9 b634 2e4d 0739 20f9 c438
00000070: 0306 2139 bd47 a438 0400 0000 0400 0000
00000080: 0400 0000 586c 0b39 99cb a239 b538 d036
00000090: 0400 0000 a3d5 3a39 8b3a b537 4d8b 2739
000000a0: 3bb6 4339 4399 7b34 8cef ad38 fd9e 0e33
000000b0: 8644 2639 f8f9 ed38 c1e4 bd33 09f1 1e39
000000c0: f68c 5739 b589 f237 e4fc ad38 8c75 4339
000000d0: 138c 2039 e7d9 c737 9b1d 1e39 3db0 fe38
000000e0: 953a 0f37 811c b832 48a6 3c39 cc96 0b34
000000f0: d0d6 6139 5135 0839 ba09 6b39 a54a 4a36
00000100: 691d 2739 70ac 0933 6380 0a39 8256 0239
00000110: 0002 8e39 bda4 6136 d712 dc38 d097 2a39
00000120: 3d43 4a39 0400 0000 058a b836 0400 0000
00000130: b057 7736 801c 0538 8419 6c39 0400 0000
00000140: 5d93 7239 c60b 7730 757f 3539 0400 0000
00000150: 9683 b538 0789 ce38 0400 0000 0400 0000
00000160: cde6 a438 64aa 9738 7288 2839 a49f 2839
00000170: cb15 3039 80f2 a434 9b3e d337 b431 9539
00000180: 0400 0000 ea67 1b39 8fa3 7739 ca37 db38
00000190: 0400 0000 0400 0000 e085 2726 ee60 bb38
000001a0: 869d 2039 8186 0739 d950 4436 3b18 fd38
000001b0: 3138 4938 9b7e 3637 bfc7 f538 3b81 0839
000001c0: b405 1e38 9e6d 2739 8559 6139 78e9 d137
000001d0: 15d8 4039 4df1 f130 0400 0000 f5fe 6e38
000001e0: 0ce7 8035 cb11 5239 b8cd 3439 bc29 6539
000001f0: 037c 2d36 0400 0000 0400 0000 0400 0000
0.00019696815 4.6999463e-05 6.2638355e-07 0.00023469384 7.06572e-05 0.0002583398 1.3831543e-06 6e-45
0.00016621407 6e-45 6.191885e-05 0.00017631108 2.4002907e-07 0.00016747968 6e-45 0.00018251475
6e-45 5.0181745e-07 6e-45 1.8428844e-05 7.853649e-07 6e-45 0.00010114765 0.00016721783
0.00020945886 3.4023756e-07 0.00012903355 9.3924114e-05 0.00015356396 7.833492e-05 6e-45 6e-45
6e-45 0.00013296434 0.0003105074 6.2054846e-06 6e-45 0.00017817928 2.1604143e-05 0.00015978255
0.00018664535 2.3431953e-07 8.293902e-05 3.320655e-08 0.0001585652 0.00011347601 8.8426084e-08 0.00015157847
0.0002055651 2.8912773e-05 8.2963874e-05 0.00018640439 0.00015310971 2.3824117e-05 0.00015079083 0.00012144491
8.537104e-06 2.1433381e-08 0.00017991022 1.3000243e-07 0.00021537696 0.00012989833 0.0002241497 3.0143794e-06
0.00015937317 3.205463e-08 0.00013208533 0.00012429993 0.0002708584 3.3623503e-06 0.00010493927 0.00016269018
0.0001928927 6e-45 5.499695e-06 6e-45 3.685691e-06 3.1736214e-05 0.00022516219 6e-45
0.00023133816 8.987481e-10 0.00017308987 6e-45 8.655262e-05 9.848369e-05 6e-45 6e-45
7.8631194e-05 7.231979e-05 0.00016072558 0.000160812 0.00016792786 3.0723822e-07 2.5182313e-05 0.00028456526
6e-45 0.00014820663 0.00023616686 0.00010453125 6e-45 6e-45 5.81212e-16 8.9349094e-05
0.00015317471 0.0001292471 2.9253335e-06 0.000120684934 4.7974467e-05 1.0877523e-05 0.00011719716 0.00013018113
3.7675447e-05 0.00015967197 0.00021491021 2.5023459e-05 0.00018391044 1.760364e-09 6e-45 5.698107e-05
9.603987e-07 0.00020033789 0.00017242774 0.00021854689 2.5851193e-06 6e-45 6e-45 6e-45

newsencoder.feature_fusion.linears.0.weight f4 [96, 128]
00000000: ba25 0fbd 6b98 05bd b905 163d bc2d 01bd
00000010: 3365 2fbd d188 923d 392b c6bb 8ce8 47b7
00000020: 93f9 443d 7913 563c bc31 1a3c 39d4 943d
00000030: 099d d73b 9e74 64bd b4fb 1c3b 7b64 c3bc
00000040: 59fb 13ba a436 3abd 6441 b83c 6e52 0b3d
00000050: 88cb 1b3b 4166 02ba a637 50bd 3ac5 743d
00000060: 47f0 783d e8f2 b33b c3f3 86bc e686 6e3c
00000070: 5aab 6a3b f55b 8b3c 70d2 07b9 2e01 b938
00000080: 717b 07ba 872b 403d f70e 4fbd 41ab 60bc
00000090: d62d 0dba e9c4 b9bc 5e49 093d 7495 babc
000000a0: 1094 863c 873a 9c3c a3ae 64bd 0cb2 043d
000000b0: 06a6 613c 6d39 19bc 2613 6c3c 68a1 f8bc
000000c0: a715 203d 1335 79bc 4389 73bc 73ff 63bd
000000d0: ddbe 803d 1f14 633d a425 6abd bcd1 953d
000000e0: c3ba 9bbb a8f1 c1bb 8a8f f7bc 44e2 373d
000000f0: 85c3 343c 6ef6 ee3c 915b cd3c c8c0 b4bc
00000100: 73d5 85bc a9e2 cebb 8d2c c03c 7250 c13c
00000110: 0ddb 13bd 815f 87bd 4486 693d ff04 12bc
00000120: 3d9d 5abd 2b7a 553a e31c c63b cef0 b4bc
00000130: 2a36 d8bc 6e40 5d3d b6a5 61bc cd05 903b
00000140: dbb3 21bd 20aa aeba e6b3 4dbd c97a c5b9
00000150: 6620 5bbd 529c 37b9 9ab5 09bc c56a b8ba
00000160: d1f4 abbc 6d5a 1b3d 8c86 4dbc f429 953c
00000170: 427f 4abd 5904 bcbc e564 b93c 27be 943c
00000180: 7198 f3b8 1e07 23bd 79a8 58bc b43c 183c
00000190: 23eb f4b8 94a6 4fb9 87f4 d3bc 8670 173d
000001a0: d360 56bc 6e8e e1bc ec61 c6bc 35d7 b9bc
000001b0: be7c 9a3d 2de9 1fbd e623 99bd a618 f83c
000001c0: 3454 91bd 84f5 903d 29b7 023d 7f2b 7e3d
000001d0: 97bf f7bc 3699 983c 23d2 5eb9 e50c 7e3d
000001e0: afe0 a2bb 7e39 babc 5ba4 963d 8091 cbbc
000001f0: 80b8 d13a 16c3 e63b efba b43a a7bb 74b9
00000200: 12da b5bc 320f c43c 2d2d abbc 80f1 2cbd
00000210: 1ed1 8c3b e854 103c f9e1 62bd ee26 31b9
00000220: c460 d6bc a492 22ba 8359 8b3d eaa2 4cbd
00000230: 1b31 f1bc 2f1a 9a3d 070d 453a f772 0fbd
00000240: 61fb 1839 c4a5 e9bc 6818 1139 46f3 08bd
00000250: 144c 013b 2eb6 08ba 2216 9a3d ba3f 353d
00000260: 7149 533c ae40 173d d159 ae3d b8c6 2bbd
00000270: 6829 5cbd 2713 e7b9 51a1 02b9 9114 df38
00000280: 66bd 2b3c df08 633c 8d78 8dba 9d53 023d
00000290: f558 16bc 47fe 273d d114 ddbc ce1c 5bbd
000002a0: 2f90 6cbc 4b85 a53c c516 01bd a9e0 c9bc
000002b0: a69f 483d 3faa bbbb dbe4 c7bb 202a 3c3d
000002c0: 0d07 003d cf91 ca3c 7588 913d fbf3 91bd
000002d0: 5679 e0bc 37dd 3d3d eb11 88bd f163 8fbc
000002e0: 94f2 d83c c749 063a 3d82 923c 6502 efbc
000002f0: 52b6 f73c 26e6 33bd 1509 a13b a931 f2bb
00000300: ce03 6d3d 1b32 20bd 00f2 54bd 4ee3 833d
00000310: 0e79 9f3d efa6 fbba 52e0 713d 4960 21bc
00000320: 043a 8d3d e6b4 1eba 9f10 21bd 0a5f b1ba
00000330: df84 b4bc e7e8 403d db78 c1bc 9192 8a3b
00000340: 334f 93bd dfbe d2bb 314d eebc 1054 76ba
00000350: ef51 ae3d 1ca8 ed3c 22aa 1fbc 36fb bdbc
00000360: 60a1 0e3d 2109 1d3d 478e 623d b2eb 65bd
00000370: e95d 58bd 6a2a 0e3d be83 843d d6fa 093c
00000380: 0b7a b0bc 0fd3 a23d 3168 0f3d 21bb ecbc
00000390: e98a 0fb9 4c83 55b9 4f13 d53c 1861 9a3b
000003a0: 22f2 313d cc76 013d 64d5 f9bc aaf4 99bd
000003b0: ac13 383d bef9 24bd 6eb4 f83c a497 203d
000003c0: c3df 87bc 9360 2fbd 09c7 8e3d 2877 1ebd
000003d0: 7de4 893d ea13 473c c28c 8f3c 2563 9c3d
000003e0: fa12 9bbb 42f1 6f3d d628 90bd 8d66 3f3c
000003f0: 6b73 9ebc f23b a0bc 5fb3 a93a d8a0 00ba
-0.03494809 -0.03261606 0.03662655 -0.031537756 -0.04282112 0.07155002 -0.006047633 -1.1915468e-05
0.048089575 0.013066166 0.009411272 0.07267041 0.0065799993 -0.055775277 0.0023953738 -0.023851624
-0.00056450587 -0.045462266 0.022492118 0.034014158 0.0023772437 -0.00049743435 -0.05083432 0.059758402
0.06077602 0.005491603 -0.016473657 0.0145585295 0.00358077 0.017011622 -0.00012952997 8.821707e-05
-0.00051682355 0.04691651 -0.05055138 -0.013712705 -0.0005385553 -0.022676902 0.033517234 -0.022776343
0.016428024 0.019070877 -0.05583061 0.03239636 0.013772493 -0.00935207 0.014408862 -0.030350402
0.03908315 -0.015210408 -0.014864269 -0.055663537 0.06286404 0.05543911 -0.057164803 0.07315394
-0.0047524883 -0.0059187002 -0.030219812 0.044893518 0.011032944 0.029170241 0.025068076 -0.022064582
-0.016337132 -0.006313641 0.023458743 0.02359793 -0.036097575 -0.06610013 0.05701281 -0.008912324
-0.05337261 0.00081435096 0.006045924 -0.02208748 -0.026393015 0.054016523 -0.013772419 0.0043952228
-0.039478164 -0.0013325848 -0.050220393 -0.0003766625 -0.053497694 -0.00017510474 -0.008405114 -0.0014069906
-0.020990761 0.037928034 -0.0125442855 0.018208481 -0.04943777 -0.022951292 0.022631118 0.018157078
-0.000116155374 -0.03980171 -0.013223761 0.0092918165 -0.00011678624 -0.00019803114 -0.025873436 0.036972545
-0.013084608 -0.027533736 -0.024216615 -0.022685627 0.07543324 -0.039040733 -0.0747755 0.03028519
-0.070961386 0.070780784 0.031912956 0.0620532 -0.030242724 0.018627744 -0.00021249852 0.062024016
-0.004970632 -0.022732493 0.07355567 -0.024849653 0.001600042 0.007042299 0.0013788621 -0.00023339559
-0.02219871 0.023933027 -0.020895565 -0.0422225 0.0042973896 0.008809306 -0.055391286 -0.00016894538
-0.026169188 -0.0006201661 0.068041824 -0.049960054 -0.02944236 0.075245254 0.0007516895 -0.03502175
0.00014589496 -0.028521426 0.0001383737 -0.03343513 0.0019729184 -0.0005215135 0.07523753 0.044250228
0.012895928 0.036926918 0.08513225 -0.04193756 -0.053750426 -0.00044074023 -0.00012457861 0.000106372994
0.010482168 0.0138570955 -0.0010793373 0.03181802 -0.009176482 0.041013982 -0.026987465 -0.053494267
-0.014438673 0.02020516 -0.031515855 -0.02464326 0.048980378 -0.005727082 -0.0061002797 0.04593861
0.031256724 0.02472773 0.07106105 -0.07126614 -0.027401607 0.046353545 -0.066440426 -0.01750371
0.026482858 0.0005122688 0.017884368 -0.029175946 0.030238304 -0.04392066 0.0049144127 -0.007391174
0.057864957 -0.039110284 -0.0519886 0.06439839 0.07786761 -0.001919953 0.05905182 -0.009849616
0.06895831 -0.00060541776 -0.03932249 -0.0013532352 -0.022036014 0.047097113 -0.023617199 0.004228898
-0.071928404 -0.006431445 -0.029089542 -0.00093966816 0.08511721 0.029010825 -0.009745153 -0.023191076
0.034821868 0.038338784 0.055311467 -0.05613298 -0.052823935 0.034708418 0.0647044 0.00842162
-0.02154257 0.079504125 0.035011474 -0.028897824 -0.00013689291 -0.00020362175 0.026010184 0.0047112815
0.043443806 0.031607434 -0.03049726 -0.07517369 0.044940636 -0.040277235 0.030359473 0.039207116
-0.01658619 -0.04281671 0.06971557 -0.038687855 0.06733034 0.012150744 0.017523173 0.07636098
-0.004732487 0.05857969 -0.07039039 0.011682165 -0.019342145 -0.019559834 0.0012947134 -0.000490678

newsencoder.feature_fusion.linears.0.bias f4 [96]
00000000: 633a 6cbd 1342 c7bd 832b f3bc 788c 373c
00000010: 3e44 6d3c cdbd b13b 7492 9bbd b3cd 07bd
00000020: 5909 65bd 0030 f2bb 7d2a 42bd 8da7 a5bb
00000030: 978e b9bb 4045 aebd dfc0 743d 8595 a43b
00000040: ded5 0b3d d5e6 1e3d 570b d23b 5066 273c
00000050: 38da a5bd 1d57 183d 87e9 923d 0d21 1fbd
00000060: 2bde 903d 002b 17bd 31ff 213d 5b96 37bd
00000070: 9a9a bbbc bb02 53bd 197d 733d bbd7 9abc
00000080: 34e3 9fbd 3e67 dd3a d98e 60bd a678 46bd
00000090: 89d1 53bd 8ea6 90bd d42e 7abd d51c 1f3d
000000a0: d3ce f5bc 7895 323c 96eb b53d 9f96 153d
000000b0: 810f be3d 133a a63d e530 2a3c be48 413d
000000c0: 3819 8b3d 406a 8bbd 7ead 83bd c19a 5e3d
000000d0: 1158 493d 19b9 c23c da18 133c a128 7fbd
000000e0: a9ce 9b3c 60ff 6fbb 66bd a7bb bdaf 9d3d
000000f0: d902 543d 9426 253c 8b23 98bc 01d6 78bd
00000100: 04af 1d3d 3e33 c53d 798a e0bc b27d 6bbd
00000110: ea86 963d afa7 8bbd 976c b73d a5d2 bd3b
00000120: 9d71 943d 0bb3 ab3c 9d3c c03c 4443 9ebd
00000130: aebb 46bc 85d0 853d c4d9 12bd 1181 9a3d
00000140: 3689 68bc 4c2e 69bd 8bcf 71bd 17d6 8fbd
00000150: f686 1c3d 786f 4ebd fb4d 103d eb4a a8bc
00000160: 6f1e 633d bb5f 823d d6db 93bd 15d7 85bd
00000170: 6e23 693d 044a f9bc 55db 81bd 1104 56bd
-0.05767287 -0.097293995 -0.029683834 0.011202924 0.014481602 0.0054242373 -0.07596293 -0.033155154
-0.055917118 -0.007390976 -0.0474038 -0.005055374 -0.00566275 -0.08509302 0.05975425 0.005022707
0.034139507 0.038794357 0.006410043 0.010217264 -0.080982625 0.037192453 0.07173448 -0.03884988
0.07073625 -0.036906242 0.03955001 -0.044821125 -0.022900868 -0.051516276 0.059445474 -0.018901696
-0.078070074 0.001689173 -0.05482373 -0.048454903 -0.0517135 -0.07063018 -0.061079815 0.038845856
-0.030005848 0.010899894 0.08882825 0.036520597 0.09280301 0.081165455 0.010387634 0.047188513
0.067919195 -0.06807375 -0.064295754 0.054346804 0.049156252 0.023769902 0.008978093 -0.062294606
0.019019442 -0.0036620721 -0.0051190136 0.07699535 0.05176053 0.0100799985 -0.018571636 -0.060750965
0.038496986 0.09628914 -0.027409779 -0.05749292 0.073499516 -0.068190925 0.08956259 0.005792933
0.072482325 0.020959398 0.023466403 -0.07727674 -0.012129707 0.065339126 -0.03585221 0.07544149
-0.01419287 -0.056928918 -0.05903582 -0.07023256 0.038214646 -0.050399274 0.035230618 -0.020543536
0.055448946 0.063659154 -0.07219665 -0.06535164 0.056918554 -0.030430801 -0.063406624 -0.05224997

newsencoder.feature_fusion.gates.0.weight f4 [96, 128]
00000000: 3d99 33bd 0925 02bd 9498 83b9 5a64 fa3c
00000010: 6bcf 023c 734a e33b 6995 cf3a 744e bdba
00000020: e641 603c 4db9 733b cf76 dd3b de46 243d
00000030: e582 c93c 9aab 3eba fe81 10ba 99cb f13c
00000040: 8695 c134 4662 6dbb 7346 10b8 b687 063b
00000050: b113 98bb 5f07 cb3a 7dd0 0bbd 52a6 fcb9
00000060: d19a 82bd 8b16 a13b 8b93 8bbc 4c9e ff3a
00000070: 315d 143d 83ed 4b3b 6579 fc37 3e38 c936
00000080: df05 9837 116b f13c f906 213c ad71 703c
00000090: 4d6d 493b 79bb 90ba 4808 113d a96a 1e3c
000000a0: 0c22 033d 2a3e 97bc e827 4bbd c3a7 4e39
000000b0: ae09 833c f1d5 41bc 785e cd37 1095 ab3c
000000c0: 91ab 323d 5eaa 033c 30b6 113d ed5d 3d3d
000000d0: bf1e 8e3c 337f ca3a 9fb9 fabb bcb3 28bd
000000e0: cc90 543c e342 e837 82f4 95bc cfad 82bb
000000f0: 4340 ecbc 2197 a1bb af9b c13c 87d0 8b3c
00000100: 1a31 ccbc b29b c239 a053 a1bc 74a6 43bd
00000110: 2d10 013d 641f ec3c 0b3b 3a3d a4c4 273d
00000120: add2 5fbc 75f8 59b8 17f0 363c 5e3d 8ebb
00000130: 6f02 043d 5bf1 2bbd 3325 9b3b 5258 d6b6
00000140: 59b3 883c 1c7e 043c 448c 033c 5a99 64b8
00000150: 475f 453d bcd3 4fbd ad0d 6ab5 abc3 80bc
00000160: acb5 633b 35a6 fa3c 4488 cd3c d13d 7dbc
00000170: 2e4b aebc 1e97 e03b 2e52 21bd a853 2cbd
00000180: a950 0e3c 8be6 a53c 4aa5 0ebd 4b47 32bd
00000190: 9991 9336 bfb5 d436 03b4 d2ba a97a 423d
000001a0: b925 f03c d52e 1d3d afd7 b53b 943f 603b
000001b0: c2c6 0abd b63a 803c 4bec 2ebc 16ea 52bb
000001c0: d53d f73b d2c8 0c3d f2e0 783c 8aef 3abd
000001d0: 4216 453b 4e63 c23b 482f 49b8 ef8d 193d
000001e0: c734 15bc 7fff 15bd 86b9 323d e393 d1bc
000001f0: 2506 583c d8f2 153c cbf7 5ebb 8db2 7ebc
00000200: 3ef0 76bb 7cfb 1dbd 92a9 763c ff8d c93c
00000210: 1b9f 353d b05d a8bc f86e fd3b 2390 c637
00000220: 3afd 16bd 28fb 81b8 83eb 8d3c 689e 643b
00000230: 6129 b83c 305f e9ba 0fca a0b8 25ab aa3c
00000240: 5b0e 64bb 2ae8 93bc 0f5e 0fbb 7d48 10bc
00000250: 6e08 df3a b0cc cbb9 1436 4bbd 5a1c cfbc
00000260: c60e 47bd 5a7b 4539 b20c 42bd cd6a 37bb
00000270: 3da7 1bbd ac40 33bd a2fb ae3b 65dd a83c
00000280: e08f 95bb 1666 143c 6d75 2bbd 362a 62bc
00000290: a038 70bc 2fc1 04bd 0917 413d 5b9e 923c
000002a0: e340 8f3c 8bc5 83ba cef4 a63c 417b 0c39
000002b0: cdb8 823c e2e5 3f3b 9237 53bb 58af c53c
000002c0: 060d 153d 6521 1abc cb3b 0d3d 099f 873c
000002d0: 75c8 4b3c dd5f 173d 2230 c93a 93c0 373c
000002e0: a95c 46bb 3aec 45bc 95f9 6a3a 7936 fc3a
000002f0: 3004 01bc 0b22 da3b 7245 4cbc 0b48 7a3c
00000300: 496c 51bd 31a6 21b9 cd96 173a ee80 3c3c
00000310: 0a31 4cbc 811b 8b3b 2640 29bd 25fa 873c
00000320: 3ade 74bc 3e28 8a3b 1097 113d a507 6f3c
00000330: e932 66bc 0cce a53c ec97 95bc a325 36b8
00000340: 5f20 d43c 8dd8 5fbc 1f93 3dbd b5c7 db38
00000350: 2a32 bf3a aa76 f4bc fc23 f438 7ad5 113b
00000360: e5b8 10bc f3ca 36bd 7f0f 113c 78af e7bc
00000370: a253 b03a 5656 8b39 d9f6 a53c 6bd8 c63b
00000380: 776e 92bb f438 4ebd f3fc cfbc 8c2c 4bbd
00000390: 45fe d937 8fea a8b7 a9d5 fdb9 c8d8 45bd
000003a0: 2fdf 323d 9a5c fabc 58bc 15bc 0694 183d
000003b0: b70d 45bb 77f7 e6bb 1be2 b73c 3f4c 91bc
000003c0: 47d4 d53c 8114 5c3b 9035 fb3c e80a d43b
000003d0: 4f4b f5bc 1863 18b9 a443 9e38 05cf b3bc
000003e0: 8ac2 5a3c e803 d43c b1fd b3bc abe0 08bd
000003f0: 79f9 08bb 0f93 3f3c c9ab b637 f7ba 1d3c
-0.04384731 -0.0317736 -0.00025099947 0.03056543 0.007984023 0.0069363653 0.0015837374 -0.0014442937
0.013687586 0.0037189305 0.006758548 0.040106647 0.024598548 -0.00072734954 -0.00055125344 0.029516028
3.6057844e-07 -0.0036221906 -3.4397886e-05 0.0020527667 -0.0046410193 0.0015489868 -0.034134377 -0.00048189104
-0.06377185 0.0049160174 -0.017038127 0.0019502132 0.036221687 0.003111691 3.009727e-05 5.9968143e-06
1.8122546e-05 0.029469999 0.009828323 0.01467554 0.0030735314 -0.0011042199 0.03540829 0.009668984
0.03201489 -0.01846226 -0.049598604 0.00019708187 0.015995827 -0.011830793 2.4481895e-05 0.020945102
0.04362065 0.008036224 0.03557414 0.046232153 0.017348645 0.0015449285 -0.0076515223 -0.041187033
0.012973975 2.7687702e-05 -0.018305067 -0.0039880048 -0.028839236 -0.004931346 0.023633806 0.017067207
-0.024925757 0.00037118566 -0.019693196 -0.047766164 0.031509567 0.028823562 0.045466464 0.040959015
-0.013661069 -5.1968225e-05 0.01116564 -0.0043408116 0.032228883 -0.04197822 0.004734659 -6.387979e-06
0.016687082 0.008086707 0.008029047 -5.4502256e-05 0.048186567 -0.050739035 -8.7191694e-07 -0.015718302
0.0034745736 0.030596832 0.02508939 -0.015456633 -0.021276083 0.006853952 -0.039385013 -0.04207197
0.008686223 0.020251533 -0.0348256 -0.04352502 4.397891e-06 6.3392504e-06 -0.0016075376 0.04748026
0.029314863 0.03837474 0.005549393 0.0034217583 -0.033880956 0.015652996 -0.010676454 -0.0032182983
0.0075452127 0.034371205 0.01519035 -0.0456386 0.003007308 0.005932248 -4.796617e-05 0.037488874
-0.009106821 -0.036620613 0.04363396 -0.025583213 0.013185059 0.009152137 -0.0034022208 -0.0155454995
-0.0037679817 -0.038569912 0.015055077 0.024603842 0.044341188 -0.020552486 0.007734176 2.3670558e-05
-0.03686259 -6.197981e-05 0.017324215 0.0034884457 0.022480669 -0.0017804857 -7.667031e-05 0.020833561
-0.0034798596 -0.01805504 -0.0021876132 -0.008806345 0.0017016062 -0.0003887168 -0.04961212 -0.025282074
-0.048598073 0.00018833336 -0.04737539 -0.0027987242 -0.038001288 -0.043762848 0.0053400556 0.020613382
-0.0045642704 0.009057542 -0.041860033 -0.013804009 -0.014661938 -0.032410797 0.04714111 0.017897775
0.017486995 -0.0010053379 0.020380404 0.00013397356 0.01595726 0.0029281308 -0.0032229167 0.024131462
0.036389373 -0.009407376 0.03448085 0.016555326 0.012437929 0.036956657 0.0015349428 0.011215347
-0.0030267632 -0.012080247 0.0008963582 0.0019242308 -0.0078745335 0.0066568903 -0.012467729 0.015275965
-0.05112866 -0.00015416068 0.0005782664 0.011505349 -0.012462864 0.004245222 -0.041320942 0.01659877
-0.014945561 0.004216223 0.035544455 0.014589225 -0.014050224 0.020239852 -0.018260919 -4.3427233e-05
0.025894342 -0.01366247 -0.046282884 0.00010479932 0.0014587094 -0.02984174 0.00011641529 0.0022252486
-0.008833145 -0.04462714 0.008853792 -0.028281912 0.0013452659 0.0002657647 0.020259308 0.0060682795
-0.004468735 -0.050347283 -0.02538917 -0.04960303 2.598682e-05 -2.0136386e-05 -0.0004841511 -0.04830244
0.043669876 -0.030561734 -0.009139143 0.03725054 -0.003006799 -0.007048543 0.022446683 -0.017736552
0.026102198 0.0033581557 0.030665189 0.0064710267 -0.029943136 -0.00014532765 7.546626e-05 -0.0219493
0.013352046 0.025880769 -0.021971555 -0.033417385 -0.002090065 0.011692776 2.1776084e-05 0.009627095

newsencoder.feature_fusion.gates.0.bias f4 [96]
00000000: efc8 233c 1c71 1ebd 209d 183d 19d1 29bd
00000010: c473 883c 8760 8e3a 3d34 7bbc f239 193d
00000020: ffe8 633c 9c92 4d3d f76b ab3c cb45 d1bc
00000030: 8c7c 5f3d ec8f cb3c 20f0 24bc ec9b c7bc
00000040: 237b fdbc eb4b 2f3d 861f f6bc a2da 843b
00000050: 4297 de3b 3739 4d3c 81ce dd3c be35 28bd
00000060: b5be 2ebd 0c73 68bb ec85 edbb 4508 ae3c
00000070: 1e38 36bc 1cf9 9d3b daeb b9bb 09ad 32bc
00000080: cb78 223c 55fc 25bd a248 073d 8b19 e83c
00000090: 9e30 0e3d 6a55 c9bc 6d77 5ebd 6f3f 433c
000000a0: 9ec9 bb3b 26d3 b5bc 4525 af3c 75b9 1d3d
000000b0: c07b 19bd 68b5 36bc fc60 a13b a0df f93c
000000c0: fe52 c4bc b821 f5bb 0c55 dc3c 7d46 c13b
000000d0: ca76 8d3c cfb8 f6bc e824 a0bb f99a c43c
000000e0: dba0 29bd 430a 033d 0e09 1fbd d3a2 833c
000000f0: a5fa d4bc 1aac 403d c7c9 6dbb 12cb 09bd
00000100: 8157 2bbb a154 5abc c6ca a53b 416c 5c3c
00000110: 1d41 38bd da0a 45bd 9307 883a 6b7d 2bbd
00000120: 0452 adbc b846 d2bb 114c 2fbc e80a 43bc
00000130: 4b5a 003d b562 78bc 3064 47bd e9d1 5b3d
00000140: 695b b03c c11d a6bc de3d 2ebd 6264 3abc
00000150: 1d3b 8f3c aef8 21bd 27c5 5b3d a4f9 16bd
00000160: ff4a 56bc ac9f b1bb b3f4 c23c 3914 b3bc
00000170: f2f6 7fbd 2a91 5ebd 1478 75bc acd0 5a3c
0.009996637 -0.03868209 0.03725922 -0.041459177 0.016656764 0.0010862508 -0.015332279 0.037408777
0.013910531 0.050188646 0.020925505 -0.025545975 0.054562137 0.0248489 -0.010067016 -0.024366342
-0.030942505 0.04279701 -0.030044328 0.0040543834 0.0067929337 0.012525848 0.027076008 -0.041066878
-0.04266234 -0.0035468964 -0.0072486307 0.021244178 -0.011121778 0.004820956 -0.0056738677 -0.010905513
0.009916495 -0.040523846 0.033028252 0.028332492 0.034714334 -0.024576861 -0.054313112 0.011916979
0.0057308218 -0.02219541 0.021380076 0.038506944 -0.037471533 -0.011151649 0.0049248915 0.03050214
-0.023965355 -0.007480826 0.026896022 0.0058982954 0.017268557 -0.03011742 -0.004887212 0.023999678
-0.04141317 0.03199221 -0.038826995 0.016068852 -0.025998423 0.04703913 -0.0036283599 -0.03364093
-0.0026144686 -0.013325841 0.005059573 0.013453544 -0.044983972 -0.048106052 0.0010378234 -0.041867655
-0.021157272 -0.0064171217 -0.010699288 -0.011904456 0.03133611 -0.015160252 -0.04867953 0.053666983
0.021527963 -0.02027786 -0.04253947 -0.011376472 0.017484242 -0.0395438 0.053654816 -0.03685917
-0.013079404 -0.0054206457 0.023798322 -0.021860229 -0.062491365 -0.054337658 -0.014982242 0.013355415

newsencoder.layer_norm.weight f4 [96]
00000000: 623b 6d3f c15c 6d3f a953 6d3f b1f8 703f
00000010: 2e69 6e3f 57fc 6c3f 75f0 6d3f e278 6d3f
00000020: 8a69 6d3f b155 6d3f 8da6 6d3f 8bfb 6e3f
00000030: fcb4 6d3f ba7b 6d3f 0798 6d3f ab3f 6d3f
00000040: b301 6d3f 0aa8 6d3f 2576 6e3f 48be 6d3f
00000050: a566 6e3f c7d1 6e3f 2734 6e3f 1212 6d3f
00000060: 858d 6f3f f375 6d3f 0075 6d3f fc2c 6d3f
00000070: 777f 6d3f fc64 6e3f 775a 6d3f bb36 6e3f
00000080: 51b1 6d3f e5d3 6d3f 5dc4 6d3f 6d5d 6d3f
00000090: 6662 6d3f 8e17 6d3f 7fe9 6f3f 3063 6d3f
000000a0: e8c5 6f3f 099c 6d3f 1ae4 6c3f 22f2 6f3f
000000b0: 5346 6d3f 8f16 6d3f 4421 6d3f 46de 6e3f
000000c0: 2308 6e3f a13b 6d3f 00d5 6d3f 3285 6d3f
000000d0: f2a0 6f3f 5ec9 6d3f f4eb 6c3f 334d 703f
000000e0: e8a9 6d3f d244 6d3f b0e6 6d3f 1b0a 6d3f
000000f0: 3b6b 6d3f 4587 703f 1603 6e3f 8105 6d3f
00000100: 7c1e 6d3f 766a 6f3f 5788 6d3f 49cf 6d3f
00000110: 8dc4 6d3f c070 6e3f 206f 6d3f fac8 6d3f
00000120: e129 6d3f f66e 6d3f 9ae4 6c3f a408 6e3f
00000130: d331 6e3f f35c 6d3f 1d70 6d3f ef92 6e3f
00000140: 1c04 6f3f a62e 6d3f b33c 6d3f d1ff 6c3f
00000150: b950 6e3f 11ea 6c3f 72c4 703f 4aae 6e3f
00000160: 46b7 6d3f 9599 6e3f 8239 6f3f 8d2b 6d3f
00000170: a040 6f3f 1cef 703f 8542 6d3f d9f4 6e3f
0.92668736 0.92719656 0.9270578 0.9412947 0.9312924 0.9257254 0.92945033 0.9276258
0.92739165 0.9270888 0.9283226 0.93352574 0.92854285 0.92766917 0.928101 0.92675275
0.9258072 0.9283453 0.93149024 0.9286847 0.93125373 0.93288845 0.9304833 0.926057
0.93575317 0.927581 0.9275665 0.92646766 0.9277262 0.9312284 0.92716163 0.9305226
0.9284869 0.9290145 0.9287775 0.9272068 0.9272827 0.92614067 0.9371566 0.92729473
0.93661356 0.92816216 0.92535555 0.9372884 0.9268543 0.92612547 0.92628884 0.9330791
0.92981166 0.9266911 0.9290314 0.92781365 0.9360496 0.92885387 0.92547536 0.93867797
0.9283738 0.92683136 0.92930126 0.92593545 0.92741746 0.93956405 0.9297346 0.92586523
0.9262464 0.9352182 0.92786163 0.9289442 0.9287804 0.9314079 0.9274769 0.9288479
0.9264203 0.9274744 0.9253632 0.92981935 0.93044776 0.92719954 0.92749196 0.9319295
0.93365645 0.92649305 0.92670745 0.92577845 0.93091923 0.92544657 0.9404975 0.93234694
0.9285778 0.932031 0.93447125 0.9264458 0.93457985 0.9411485 0.92679626 0.9334236

newsencoder.layer_norm.bias f4 [96]
00000000: 3077 55bc 0f9e 5dbc 736c 37bb 9e8b 1839
00000010: d8d0 513c 362f 913b 2eb4 bd3b 1907 f9bb
00000020: cb4a cabb d6b5 223c 1df0 df3a af33 6b3a
00000030: 9bab 3c3c 1dbf 1ebc 1b5a d53c b7be 8dbc
00000040: dcc0 5e3c 9b80 da3b e8a1 123c 4288 ccbb
00000050: 4a14 7d3b e556 41bc 1ee2 c33b 1ca0 89bb
00000060: 08b6 d73b 560a 16bc 6695 ce3b b960 1cbc
00000070: a57b b93c 9b99 11bc 668b 9a3b a64f 0a3c
00000080: 8d27 26bc d035 e8bb 5782 99bb 67a8 9b3b
00000090: 4897 86bb 5b08 88bc 3586 35bc 91d2 0d3c
000000a0: e4af 3bbb f13e b5bb 7c8a 933c 3cc9 713c
000000b0: a86e 403c 492a 523c 60d8 7b3b 660b cd3b
000000c0: 875c 62bb c704 debb 24ae 34bc 5d9f a5ba
000000d0: 2891 963b 4ac3 743a d228 5abb 4f71 79bc
000000e0: a83a e2bb 4dae 8b3b ac8d 03bc 3436 c93b
000000f0: 12b0 213c 8ace 5b3c 80b9 96b7 9b5c 1fbc
00000100: 7bcd af3b 85ff bc3c 3afd 583c 6633 103b
00000110: a550 a03c a450 b93b 06e6 763c 786a 65bb
00000120: 2473 843b 21f9 833c 0340 3b3a cfa7 c939
00000130: 9146 92b9 e9eb 863b bb9d 36bb dcdb 413c
00000140: 0d1b f53a 750d 44bc c6dd 81bc bc1b 9abb
00000150: caec 543c 304d 51bb 2b81 ef3b da54 423b
00000160: 6ed2 733c c53c 003c 959c 3cbc 3c20 67bc
00000170: 0c9e 783b ea5a 19bb 2e0c d13b 993e 1bbb
-0.013028905 -0.013526454 -0.0027988225 0.00014547861 0.01280614 0.004430677 0.0057893014 -0.007599723
-0.006173467 0.009931048 0.0017085109 0.000897224 0.011515523 -0.00968912 0.026043942 -0.017302854
0.013595786 0.006668163 0.008949734 -0.006241829 0.003861683 -0.011800502 0.005977883 -0.0041999947
0.006582979 -0.009157738 0.006304431 -0.009544545 0.022641966 -0.00888672 0.0047163246 0.008441841
-0.010141266 -0.007086493 -0.004684727 0.0047502997 -0.0041073896 -0.016605547 -0.011079361 0.00865616
-0.0028638775 -0.005531185 0.01801037 0.014757451 0.0117451325 0.012827464 0.003842853 0.0062574623
-0.0034540014 -0.006775472 -0.0110278465 -0.0012635995 0.0045949407 0.00093369617 -0.003328849 -0.015224769
-0.006903965 0.0042627216 -0.008029383 0.0061404947 0.009868639 0.013415942 -1.7967774e-05 -0.009726669
0.0053650714 0.02307106 0.013243968 0.0022003292 0.019569704 0.005655365 0.01506949 -0.0035006087
0.004042046 0.016110005 0.00071430224 0.00038462735 -0.00027899866 0.004117478 -0.002786501 0.011832204
0.0018700078 -0.011966099 -0.01585282 -0.004703013 0.012995908 -0.0031936876 0.007309099 0.0029652626
0.014881713 0.007826989 -0.011511941 -0.014106806 0.0037936 -0.0023400136 0.0063796258 -0.0023688434
