model_checkpoint.pth (torch, 495394 bytes, 35 tensors)

newsencoder.doc_encoder.layer.0.weight f4 [128, 300]
00000000: 8c7b 083d f0bd 0c3d 9186 d1bb 72f4 353d
00000010: 5037 3fbb 298c 263c ef74 f1bc 4b83 023d
00000020: d7bc 2c3d 5b6b fdbc 742f 0c3d fac6 313c
00000030: 490c 243d c998 0f3c cf13 803c 0e54 c2bb
00000040: edf0 123d 675b 3d3b dedc b1bc 706d 0c3c
00000050: 815e 84bc 34a2 61b9 a408 afbc cd8e d23c
00000060: f608 12bd 3ab7 8dbc 0bf9 70bc 3c5c d6bc
00000070: 477f da3b 360f 2bbd 44f9 0d3d a7d2 0dbd
00000080: cd3d 0f3d 696c 103c b132 a6bc 2b2b 143d
00000090: ed43 b73b 2d08 213d e340 abba 1a6c cbbb
000000a0: 35ad 573c 5048 0dbc 9a32 5a3c f4f3 173d
000000b0: 0cc5 c53c dd80 c1bc 98c8 ba3c 3cd9 0c3c
000000c0: 4378 f53c a67b c5bc 2d97 2dbd 813e 99bc
000000d0: 5a58 f5bc eb6f 0f3d cdc0 1f3c 9f59 b63c
000000e0: 90da 603c 7217 3ebb 5c54 033d 80cc ffbc
000000f0: 97fb be3b ab9e fabc ad2b 2b3c 1295 1ebc
00000100: 5575 393c cf30 5cbc 81f0 0d3d 6432 d6bc
00000110: b6ba debc b195 b7bc 1a39 323d 0147 883c
00000120: 7ff3 2c3d b7c7 29bd 7479 3dbd 953a fbbc
00000130: 22e6 01bd 0107 a63c ac3e 7d3c 9fbc 343d
00000140: bf48 89bc 3fc0 ebbc d085 9c3c 3436 9abc
00000150: cf6d b63c 1a4b 1fbc ca1f b23c 5501 f0bc
00000160: 8466 bebc f8e6 863c 0070 383c c129 4dbc
00000170: 8cb6 c03c 437c fd3c cb9e e8bc e7d1 cabc
00000180: 5df4 2e3d 147e 58bc db12 73bc a41e 3cbd
00000190: 9f0f dfbc dd25 323c de85 453a c6be 03bd
000001a0: b779 883a 2fef ddbc 77ab 1ebd 5f4d bebc
000001b0: e7b2 1cbd 03b9 c4bc 60f9 2f3d 39be 053c
000001c0: 5715 673c 0d8f 12bd 03db ddbc c91a 75bc
000001d0: e974 543b 1cf6 13bd 854a 8abc 2d4e edbc
000001e0: a3ef 9bba af6d 69bc 90ee 35bb 080d fabc
000001f0: f781 12bd 75ff c3bc 6373 3fbc 28b8 13bd
00000200: f18d 093d 8118 70bc 5e03 123d c50c 573c
00000210: 1ea1 2cbd d627 053d 0312 02bc cc7c 61bc
00000220: f4b9 33bd d80d 48bd c162 433c a7ea 7cbc
00000230: 997f 403c bdb1 08bd e738 de3c 304e 15bd
00000240: f2a5 43bc ec54 f63b fb14 a53c 1db8 063d
00000250: f00f 223d 7857 febc 93f6 563c db9b bbbc
00000260: 1e2f 16bc cb9f e7bc 6972 293d 1a95 e3bc
00000270: 1fb1 d53c 26b8 6a3c 93cc 263c eee5 c6bc
00000280: d03a 153d 6862 ff3b 3463 2e3b 983f 0fbd
00000290: 5f6f b03c aa14 57bc 0ea2 cbbc 957c 2a3d
000002a0: 6e02 d03b 6ae2 b1bc 6217 c1bc 9a0d f23a
000002b0: 120f c83c 0c6d 2fbc e578 e4bc dd60 2bbc
000002c0: f9f2 0ebd bafc 5f3c 36a6 053d 52f8 1cbd
000002d0: 0da4 173c 4e4a df3c 917d d33b 83f7 56bc
000002e0: 237a a73c b7a4 bc3c a562 c93c 36d4 a0bb
000002f0: fbea 10bc f4a8 833b ef09 c4bb 54b5 2abc
00000300: a505 f23c 24f4 073d 7178 5bbb 7ca7 fdbb
00000310: 8b46 dc3a a1e1 0fbc 612a 463c 3cbc e93b
00000320: 5f4c 11bd 12e2 3cbc 45ff 233d 7984 933c
00000330: 7185 c83b f3e9 f9bc c243 d0bc d609 14bd
00000340: e79f 83bc fb95 273c dc06 f63c bfcc 9c3c
00000350: de1b 17bd 5663 f2bc 077f 60bb 8281 1d3d
00000360: 2b66 f33b 09b5 27bc b1ae 723c 4114 8ebc
00000370: 1e8d d7bc ad3a e23c 8742 b0bc d643 fabb
00000380: 6910 2dbd faa7 a53c 9a81 003d f916 653c
00000390: 026c 09bd e1fc 42bd 29b0 10bd 733d 0e3d
000003a0: 4c5a c93c 41fb 063d 42a0 ad3c a174 733c
000003b0: 9342 b33a 16a0 07bd 1e74 1dbd 253f 27bd
000003c0: 6530 a43c b951 d8bc b5fe 2cbc af32 d4bc
000003d0: 7b5e f2bb c1bc e6bc 5965 09bd 68dc 843c
000003e0: f400 78bc 9f8a ee3c 4222 39bc af9c 00bd
000003f0: abb4 b6bb 5a6b 96bc d7a7 3bbc 970c 28bd
0.03332095 0.034360826 -0.0063942154 0.044422574 -0.0029177256 0.010165253 -0.029474704 0.031863492
0.04217228 -0.03093498 0.034224942 0.010850662 0.04005078 0.008764454 0.015634445 -0.0059304303
0.035874296 0.0028893591 -0.021711763 0.008571014 -0.016158344 -0.00021518097 -0.021366425 0.025702858
-0.035653077 -0.017299283 -0.014707814 -0.026167028 0.0066680047 -0.041762553 0.034661546 -0.03462472
0.034971047 0.0088149095 -0.020287843 0.03617398 0.005592814 0.039314438 -0.0013065602 -0.006207955
0.013163854 -0.008623198 0.013317728 0.037097886 0.02414181 -0.023621017 0.022800729 0.008596715
0.029964572 -0.024106812 -0.0423805 -0.018706562 -0.029949356 0.035018843 0.009750557 0.022259532
0.013723984 -0.0029005674 0.032062873 -0.031225443 0.0058283317 -0.030593237 0.010447425 -0.009679096
0.011319478 -0.013439371 0.03465319 -0.026147075 -0.02718864 -0.022410246 0.043511488 0.01663542
0.042224403 -0.04145023 -0.046258405 -0.030667583 -0.031713612 0.020267012 0.015456837 0.044125196
-0.01675832 -0.028778194 0.019106776 -0.018824674 0.022269158 -0.009722495 0.021743674 -0.02929751
-0.023242243 0.016467556 0.011257172 -0.012522162 0.023524545 0.030943042 -0.02839603 -0.024758292
0.04271351 -0.013213653 -0.014836038 -0.04592766 -0.027229128 0.010873285 0.00075349014 -0.032164358
0.001041225 -0.02709159 -0.03873774 -0.023230253 -0.038256552 -0.024014002 0.042962432 0.008163028
0.014104209 -0.035780955 -0.027081972 -0.014959999 0.0032418317 -0.03612338 -0.016881237 -0.028967941
-0.0011896979 -0.014247342 -0.0027760603 -0.030523792 -0.035768475 -0.023925522 -0.011685225 -0.036064297
0.03358263 -0.01465428 0.035647742 0.013125603 -0.04214584 0.032508694 -0.007938865 -0.013762664
-0.04387851 -0.048841327 0.0119254 -0.015436805 0.011749172 -0.03337263 0.027126743 -0.03645152
-0.01194142 0.0075174477 0.020151606 0.032890428 0.03956598 -0.031047568 0.013120311 -0.022901466
-0.009166507 -0.028274437 0.041368876 -0.027781058 0.026085434 0.014326131 0.01018061 -0.02427956
0.03643304 0.0077937134 0.0026609423 -0.034972757 0.02153748 -0.013127485 -0.024857547 0.041622717
0.006347946 -0.021714408 -0.02357072 0.0018467188 0.024421249 -0.010707151 -0.027889678 -0.010460106
-0.034899686 0.013671095 0.032629214 -0.038322754 0.009255421 0.02725711 0.0064541777 -0.013120535
0.020443982 0.02302776 0.02458317 -0.00490811 -0.008845086 0.0040179435 -0.0059826295 -0.010419209
0.029543707 0.033191815 -0.0033488537 -0.007740913 0.0016805691 -0.0087818215 0.012095065 0.007133035
-0.035473224 -0.011528509 0.040038366 0.018007504 0.006119423 -0.030507063 -0.025422934 -0.036142193
-0.016067458 0.010228629 0.030032568 0.0191406 -0.03689181 -0.029588383 -0.0034255402 0.038453586
0.007427951 -0.010236033 0.0148121575 -0.017343642 -0.026312407 0.02761587 -0.021516098 -0.007637481
-0.042251978 0.020221699 0.031373598 0.013982528 -0.03355027 -0.047604445 -0.03532425 0.03472657
0.02457919 0.03295446 0.021194581 0.0148593495 0.0013676457 -0.033111654 -0.038440816 -0.040831704
0.020042608 -0.026406156 -0.010558774 -0.025903074 -0.007396517 -0.028166177 -0.03354392 0.01621838
-0.015136946 0.029118834 -0.011299672 -0.031399425 -0.0055757365 -0.018361736 -0.01145359 -0.04102763

newsencoder.doc_encoder.layer.0.bias f4 [128]
00000000: 90e2 2a3c 3d95 e0bc 48d0 d7bc b672 97b8
00000010: 798a 263b 3133 fe3c e1c7 32bd c009 bfba
00000020: 8fa7 cf3c c0f4 bdbb 5e64 2bbd 1776 723c
00000030: e8ce 69bd 0305 e73c c7b7 6bbc f490 b23c
00000040: ac82 0fbd bfd4 64bd ef10 62bb fcb6 3b3d
00000050: 8396 48bd 2564 e8bc 2720 e63c 8547 143d
00000060: 2bf5 64b7 a485 4abd abbb 2e3d 1afd 4c3b
00000070: 739d 123d a1e3 413c 8e15 f8ba 96a3 a0ba
00000080: c7c9 5fba 4aef 303d e0a4 5e3c 0b2a ef3c
00000090: 8b71 03bc 4a13 453d 5bc0 883c 3e9c 823c
000000a0: e31f e93c 2530 46bb 206a 3e3d 4116 dbbc
000000b0: d059 343b 1cb8 b33a c15b ddbc 567f e73b
000000c0: 8770 da3c 34e9 d33b 9afc 2fbd 41f6 b63c
000000d0: 72e1 0a3d 66f6 acbc 46ef 8e3c 5211 bcbc
000000e0: 4e09 f73c c1f7 36bd e45d cf3c 0339 39bd
000000f0: b82f 5c3c f326 8a3c 5c30 853c aed7 953c
00000100: 2393 053c cfad 60bd b0d2 a8bc 36a3 a3bc
00000110: 9694 323d a119 a93c 3258 64bc f18b 1d3d
00000120: 9b72 d13b 85ab ceba 4277 cd3b 0cd6 aebc
00000130: 9c2d 1ebd eff6 c83b 01d4 e83c e701 c4ba
00000140: 909b 1f3d ddbd 00bb 0858 e33a 0998 d7ba
00000150: 542b 183b 09cb 833c 9c3c 12ba d3dd 54bc
00000160: 125c 7d3c 3925 8cbb 8cf9 2f3d 0f7e 683b
00000170: 6b66 093c 93b4 00bd 737e 91bc c97c d73c
00000180: 7399 bfba bbc6 643b 2dda 153d ebb5 72bc
00000190: fc80 95bc 8e46 81ba 9cd6 fdbc f0e6 333b
000001a0: 4d76 903a 0f45 1b3d 71eb 193c 189a 91bc
000001b0: 87cc 213c 6500 623b c823 2ebc d0d6 653c
000001c0: 02ee e73b c991 073d 1cd7 db3c 8c0f 293d
000001d0: 373e 873c ff91 04bb fa2b e2ba 08d6 1cbd
000001e0: b867 11bd 60d5 6e3b 989e f8bc 01d0 1c3d
000001f0: 6c28 d7ba 8d13 3dbd 266d e5bc 456b 75bc
0.010429993 -0.027414912 -0.026344433 -7.221608e-05 0.0025412126 0.03103027 -0.04364765 -0.0014575049
0.025348453 -0.0057969987 -0.041843764 0.014798663 -0.057082087 0.028200632 -0.014387078 0.021797635
-0.035036728 -0.055866953 -0.0034494956 0.045828804 -0.048971664 -0.028368065 0.028091503 0.03620102
-1.3646942e-05 -0.049443856 0.042659443 0.003127879 0.035794687 0.011834056 -0.0018927322 -0.0012255784
-0.0008536842 0.043196954 0.013589114 0.029194852 -0.008022676 0.0481141 0.016693285 0.015943643
0.028457588 -0.0030241099 0.046487927 -0.02674401 0.0027519353 0.0013711485 -0.02702129 0.00706474
0.026664985 0.006467009 -0.04296551 0.02233422 0.033906408 -0.021113586 0.017448079 -0.022957478
0.030155804 -0.04466987 0.025313325 -0.045220386 0.013439111 0.016864276 0.016258411 0.01829132
0.008152756 -0.054853257 -0.020608276 -0.019975286 0.043598734 0.020642104 -0.013937043 0.038463537
0.006391836 -0.001576767 0.00627032 -0.0213423 -0.038617715 0.0061329524 0.028421404 -0.001495418
0.038966715 -0.0019644417 0.0017344961 -0.0016448508 0.0023219185 0.016088026 -0.00055784895 -0.01299234
0.015463846 -0.004276898 0.042962596 0.0035475527 0.008386235 -0.03142221 -0.017760491 0.02630462
-0.0014617875 0.0034908492 0.03658502 -0.01481388 -0.018249981 -0.0009862946 -0.030986123 0.0027450882
0.0011021585 0.037907656 0.0093945125 -0.017773673 0.009875423 0.0034485098 -0.010628648 0.014028266
0.0070779333 0.033098016 0.02683597 0.041274592 0.016509159 -0.0020228622 -0.0017255538 -0.038290054
-0.035499305 0.00364431 -0.03034906 0.038284305 -0.0016415245 -0.046161223 -0.028006148 -0.014979188

newsencoder.doc_encoder.layer.2.weight f4 [128]
00000000: f2cf 6c3f 87f6 6c3f c498 6c3f dbd3 6c3f
00000010: 8bd8 6c3f dcdb 6c3f efbb 6c3f 9989 6c3f
00000020: 6cd5 6c3f 9a89 6c3f 8eb4 6c3f 4bd0 6c3f
00000030: e7a9 6c3f eecf 6c3f 9189 6c3f 84dd 6c3f
00000040: a389 6c3f b3a4 6c3f 9a89 6c3f 9cd1 6c3f
00000050: 078e 6c3f bc88 6c3f 20bd 6c3f 54ef 6c3f
00000060: 4100 6d3f 2b9c 6c3f 3d09 6d3f 47c9 6c3f
00000070: dde7 6c3f b8c6 6c3f 9b89 6c3f 9989 6c3f
00000080: 9289 6c3f 1aed 6c3f fe4b 6d3f 2dc7 6c3f
00000090: 8e89 6c3f 83e4 6c3f b8a2 6c3f 05e3 6c3f
000000a0: 87d6 6c3f 9a89 6c3f 90ea 6c3f 298f 6c3f
000000b0: 02e7 6c3f 0fca 6c3f ac92 6c3f 0203 6d3f
000000c0: 6bc0 6c3f 26ac 6c3f 0acf 6c3f 9cdb 6c3f
000000d0: bde1 6c3f 09ec 6c3f c6c8 6c3f 10ce 6c3f
000000e0: 11f4 6c3f a7af 6c3f 62e6 6c3f ffbe 6c3f
000000f0: c8db 6c3f 7ad3 6c3f 1dfa 6c3f 629b 6c3f
00000100: 8fe9 6c3f 3699 6c3f 8eac 6c3f e7e4 6c3f
00000110: 88d7 6c3f 80cc 6c3f add1 6c3f 3aff 6c3f
00000120: 54d1 6c3f 9989 6c3f 7a0d 6d3f 808b 6c3f
00000130: 8898 6c3f 0cc2 6c3f 140a 6d3f 9989 6c3f
00000140: b9e1 6c3f 7691 6c3f 5316 6d3f 9989 6c3f
00000150: f307 6d3f 93d6 6c3f 9989 6c3f 9189 6c3f
00000160: 29f7 6c3f c8ab 6c3f c8ed 6c3f 72f3 6c3f
00000170: 18f5 6c3f 52c3 6c3f 0cd2 6c3f 97fb 6c3f
00000180: 9989 6c3f fde0 6c3f b2ef 6c3f e0e9 6c3f
00000190: 9989 6c3f 9989 6c3f b59d 6c3f 52bf 6c3f
000001a0: 0ef1 6c3f 56ea 6c3f 0bba 6c3f cdd4 6c3f
000001b0: 6eb5 6c3f 49a4 6c3f b7f1 6c3f d4e1 6c3f
000001c0: 4bbf 6c3f 85c4 6c3f 2be5 6c3f e6d0 6c3f
000001d0: a0dc 6c3f 9989 6c3f 9989 6c3f a6d0 6c3f
000001e0: ba8d 6c3f 38e7 6c3f 74f6 6c3f f2fd 6c3f
000001f0: 9a89 6c3f 908d 6c3f fa8a 6c3f 8788 6c3f
0.925048 0.9256367 0.924206 0.92510766 0.9251792 0.9252298 0.92474264 0.9239746
0.92513156 0.92397463 0.92463005 0.9250533 0.9244675 0.92504776 0.9239741 0.92525506
0.92397517 0.9243881 0.92397463 0.9250734 0.92404217 0.9239614 0.9247608 0.92552686
0.9257851 0.92425793 0.9259222 0.92494625 0.92541295 0.9249072 0.9239747 0.9239746
0.92397416 0.9254929 0.9269408 0.9249142 0.9239739 0.9253618 0.9243579 0.92533904
0.9251484 0.92397463 0.92545414 0.92405945 0.9253999 0.92495817 0.92411304 0.92582715
0.92481107 0.9245018 0.92503417 0.925226 0.9253195 0.9254766 0.92493856 0.92501926
0.92559916 0.92455524 0.92539036 0.92478937 0.9252286 0.9251019 0.9256914 0.92424595
0.9254388 0.9242128 0.924508 0.9253678 0.92516375 0.9249954 0.9250744 0.92576945
0.9250691 0.9239746 0.9259869 0.9240036 0.92420244 0.9248359 0.92593503 0.9239746
0.92531925 0.92409456 0.9261219 0.9239746 0.92590255 0.92514914 0.9239746 0.9239741
0.92564636 0.9244962 0.92550325 0.9255897 0.92561483 0.92485535 0.92508006 0.92571396
0.9239746 0.92530805 0.92553246 0.92544365 0.9239746 0.9239746 0.9242814 0.9247943
0.9255532 0.9254507 0.9247138 0.9251221 0.9246434 0.9243818 0.9255633 0.92532086
0.9247939 0.92487365 0.9253718 0.92506254 0.9252415 0.9239746 0.9239746 0.9250587
0.9240376 0.9254031 0.9256356 0.9257499 0.92397463 0.9240351 0.9239956 0.92395824

newsencoder.doc_encoder.layer.2.bias f4 [128]
00000000: 806d 7fbc aeb8 99ba 88b1 4abc 9f25 46bc
00000010: d39f abbc ab1f 9bbc 2b4d a93c f0d2 a83a
00000020: 9a3d 5cbb 16d6 e93b 486c 50bc 4aee 15bc
00000030: bea7 a3bc a6f8 633b 76ac 14bc a1a3 8bba
00000040: 0d88 0d38 1e41 10bc ddfb e3ba e333 9d3b
00000050: 0507 31bc d290 b83b 0ef9 b0bc 2afa 2e3b
00000060: 8d42 0eba 7981 003c c9e9 18bb 50e3 173c
00000070: 0948 193a 1834 b33b f095 6b3a e53d cfba
00000080: fb8c 033c cb33 ddbc 2101 13b9 3e11 1abc
00000090: 6299 ee3b 943e 72bb 8153 24bc 0a01 173b
000000a0: 9307 533c 37a6 c1ba 1597 2d3c a5a5 27bb
000000b0: 3565 883b 065d 59bb b547 0a3a ffcc 6b3c
000000c0: 8bbd aebb c4c3 69bc 73f8 bc3b 69cd 63bc
000000d0: 0884 2fbb 94d0 2fbb 7858 113c aa60 af3b
000000e0: b41f f8ba ec32 fcbb faa4 4c3c e67d dc3b
000000f0: fe95 503b 4ad2 dd3b 9947 903b 9017 3a3c
00000100: 56ac 50bc b40a 2eb9 c8fc b6bb 5b69 163c
00000110: 90c8 f5bb 2a4f 003b a410 58bb 06d6 13bb
00000120: 4996 a0ba 7462 6bbc 403b f73b ec5b 713c
00000130: adef 183c 4dcd 70bc 4b1c 3e3c 23e5 81bb
00000140: 5234 be3a 7c3a 673c 51f5 903c fdff 2f3c
00000150: bbf9 5cbc a9ed d03b 62aa 1bbb df50 8c3c
00000160: 7375 4f3c d7ad 89bb edd4 4d3c 3302 1dba
00000170: 8383 3b3b 816e 913b e468 97ba a46d 333c
00000180: 7e0a e83a b4df 2dbc cd6c 34bc 9949 de3a
00000190: 39c1 9239 01bb 7c3a fb32 173c 44da 28bc
000001a0: c8c5 57bc 5faa 80bb 4d28 ccbc 3493 203c
000001b0: ada5 87bc 3d46 1cbb 786b f53b b09f 2ebc
000001c0: aabf 043c 967b 583c 6102 c13c 4f09 53bc
000001d0: c40b 833c 95f4 53bc f1a9 163c 7ae0 52bc
000001e0: 0f87 03bc 7840 8f3c 9e97 d63b 2e40 703b
000001f0: 44d7 a6bb 7666 8abc a91d e93a f036 523b
-0.015590072 -0.0011728012 -0.012371428 -0.0120939305 -0.020950234 -0.018935999 0.02066668 0.0012880247
-0.0033606053 0.0071361167 -0.012721129 -0.009151051 -0.019977447 0.0034785657 -0.009074321 -0.0010653624
3.3743727e-05 -0.008804588 -0.0017393787 0.004797445 -0.010804896 0.0056324983 -0.021603134 0.0026699402
-0.0005426787 0.007843369 -0.0023332706 0.009270504 0.0005847221 0.0054688565 0.0008986881 -0.0015811293
0.008029218 -0.027002236 -0.00014019433 -0.009403525 0.0072814682 -0.003696357 -0.0100296745 0.002304139
0.012880224 -0.0014774267 0.010595103 -0.002558091 0.0041624554 -0.0033167019 0.00052749674 0.014392137
-0.005332654 -0.014267866 0.005766922 -0.013903954 -0.0026781578 -0.0026827203 0.00887119 0.0053520994
-0.0018930347 -0.0076965 0.012490505 0.0067288755 0.0031827684 0.006769453 0.0044030664 0.011358157
-0.012736401 -0.0001659792 -0.005584333 0.009180392 -0.0075007156 0.0019578435 -0.0032968903 -0.0022557988
-0.001225182 -0.014366735 0.007544905 0.014731389 0.009334487 -0.014697385 0.011603425 -0.003964083
0.0014511442 0.014113065 0.017695101 0.010742185 -0.013487275 0.0063759875 -0.002375268 0.017128406
0.012662279 -0.0042016315 0.0125629725 -0.00059894024 0.0028612323 0.004438222 -0.0011551646 0.010951433
0.0017703322 -0.010612417 -0.011012268 0.001695919 0.00027991252 0.0009640903 0.009228463 -0.010305945
-0.013169713 -0.00392656 -0.02492156 0.009800721 -0.016558493 -0.0023845576 0.007489618 -0.01065819
0.008102337 0.013213059 0.023560705 -0.012880637 0.015996821 -0.012936731 0.009195791 -0.012870902
-0.008027806 0.017486796 0.006548836 0.0036659348 -0.0050915796 -0.01689456 0.0017785329 0.0032076202

newsencoder.doc_encoder.layer.2.running_mean f4 [128]
00000000: b4d3 483d 5f28 023c a884 a838 757f b93c
00000010: e197 8f3c 3eaf 183d 30f9 4939 0000 0000
00000020: 27a2 1e3d 0400 0000 fafe be3a f0ee b23c
00000030: 5022 6238 6f1e 0c3d 0400 0000 1584 2a3d
00000040: 0400 0000 9e9a dc35 0400 0000 56d8 f239
00000050: a0c6 a538 0400 0000 c77b 173d cdc0 453d
00000060: 12fe 1c3d e31b 2e10 211f 8b3c 13ae 0c3d
00000070: a82e 2b3d 528f ec3b 0400 0000 0000 0000
00000080: 0400 0000 316a 333c c630 cf3c 4c9b 443a
00000090: 0400 0000 9c3b c03c e68a 0f3a 38c2 2a3d
000000a0: 2b39 143d 0400 0000 2b24 ed3c aa58 ec37
000000b0: 72cc 1c3d ea55 173c 4c1a a237 a274 2b3d
000000c0: 97de 663c 3f8b 0b3b f0b3 233b 1e7c de3c
000000d0: 0087 9e3c cd09 ef3a 5235 913c da36 9a3c
000000e0: 2445 a739 0400 0000 a520 013d fe23 8438
000000f0: dff7 063d 77b5 0f3d 58cf 363d 0dca 2039
00000100: 6fea 3e3d 769f 1036 1c68 263c 3fab 1e3c
00000110: 53c8 143d 47af 6b3b 0019 5a3c 22c8 aa3c
00000120: 99d8 a93c 0000 0000 b7ad 8e3a 31c6 0c39
00000130: f932 4e39 7fac b63b 3882 553c 0000 0000
00000140: 6534 203d 8c42 602a a3e5 373d 0000 0000
00000150: 0ebd 593c 72d6 0c3c 0000 0000 0400 0000
00000160: fdb4 093c 600c ea39 21a1 153d 8f2a de3c
00000170: 2236 7e3c 6eee 8338 f7a2 a93b f786 293d
00000180: d95d cb2c f00d 913c e044 073c 5cae b73c
00000190: 0400 0000 0000 0000 1808 af36 7fdc 923c
000001a0: 7283 353d 8dd2 913c 8b6b 3d3a 08b6 173c
000001b0: b890 ec3b ddf2 263a 692b 1c3c 1f80 083d
000001c0: 69ea 893a 236e 133d ce45 0f3d 2c96 bb3b
000001d0: 54a5 b83c 0400 0000 0000 0000 d73f 2c3c
000001e0: 235b 2738 00d8 143d 2dda 713d 61e6 353d
000001f0: 0400 0000 0f1a 0b39 0400 0000 1793 791a
0.04903002 0.0079441955 8.0355734e-05 0.022643784 0.017528476 0.0372765 0.00019261683 0.0
0.03872886 6e-45 0.0014571839 0.02184245 5.3914555e-05 0.03420871 6e-45 0.04162987
6e-45 1.6436277e-06 6e-45 0.0004631902 7.90481e-05 6e-45 0.036983278 0.048279572
0.038328238 3.4336933e-29 0.016982617 0.034345698 0.04179254 0.0072192336 6e-45 0.0
6e-45 0.010950611 0.025291812 0.00074999477 6e-45 0.023465924 0.00054757146 0.041689128
0.036187332 6e-45 0.02894791 2.817468e-05 0.03828091 0.009236792 1.932415e-05 0.041859277
0.0140911555 0.0021292714 0.0024979077 0.027158793 0.019351482 0.0018237174 0.01772562 0.018824983
0.00031904236 6e-45 0.031525273 6.3009546e-05 0.032951232 0.035085168 0.044631332 0.00015334059
0.046610292 2.155049e-06 0.010156658 0.009684383 0.036323857 0.0035962628 0.0133116245 0.020847384
0.020733165 0.0 0.0010885511 0.00013425272 0.0001966468 0.0055747624 0.013031535 0.0
0.039112467 1.9918285e-13 0.044896733 0.0 0.013289703 0.00859605 0.0 6e-45
0.008404967 0.00044641178 0.036530618 0.027119903 0.015515836 6.290978e-05 0.0051768976 0.041388478
5.780026e-12 0.017706841 0.008256167 0.022422008 6e-45 0.0 5.2163487e-06 0.017927406
0.04431481 0.017800594 0.0007225803 0.009259708 0.0072194003 0.0006368587 0.009531834 0.03332531
0.001052213 0.035993706 0.03497868 0.005724689 0.022539772 6e-45 0.0 0.0105132675
3.990078e-05 0.036338806 0.05904596 0.04440916 6e-45 0.0001326578 6e-45 5.161081e-23

newsencoder.doc_encoder.layer.2.running_var f4 [128]
00000000: b22a 6239 e0de fb38 7b3e 9c34 ac17 7039
00000010: 89e7 1239 a161 4539 9b0f d735 0400 0000
00000020: aea9 4039 0400 0000 efe9 9937 4706 2f39
00000030: f6f6 0a35 f4d6 3939 0400 0000 34fd 3339
00000040: 0400 0000 74ea b130 0400 0000 4d71 7337
00000050: eff3 2135 0400 0000 0d42 cd38 a424 4239
00000060: 916c 4e39 d175 ff09 91ef 1c39 3d74 cf38
00000070: 6835 1d39 3838 bb38 0400 0000 0400 0000
00000080: 0400 0000 9bfa da38 ff54 8a39 2ca4 2237
00000090: 0400 0000 7942 3e39 fbc5 b336 7100 3c39
000000a0: 34b1 3f39 0400 0000 c9fe b438 2fd0 1a34
000000b0: 7434 2a39 c332 2039 f5c4 b333 0e40 2b39
000000c0: 45a2 4b39 4077 0738 36a0 2b38 641c 2e39
000000d0: 889d 3039 9f8b a937 2a24 2339 74ed 4539
000000e0: ea64 dd36 0400 0000 90a4 3039 576f be34
000000f0: 5707 4a39 77d6 0e39 a7cf 5c39 4b41 1036
00000100: e1c7 2239 89be df31 7ce6 fe38 3991 fe38
00000110: 3cc7 8c39 2286 2f38 d127 0f39 753c 2539
00000120: 6b8a 2e39 0400 0000 d6ef 2937 8736 5035
00000130: fa1f 0e36 e767 4e38 0034 3c39 0400 0000
00000140: 61ef 7939 697f 7b26 892e 2e39 0400 0000
00000150: a3ca 2a39 2677 cd38 0400 0000 0400 0000
00000160: b3be 1739 4779 6036 b333 3639 daf7 1a39
00000170: d566 2f39 8dfc b035 760a 8338 b986 8139
00000180: 9b39 8324 1186 1739 ed0d 4739 35a1 e038
00000190: 0400 0000 0400 0000 0c18 8732 91bd c238
000001a0: 641b 2439 dd26 0a39 fe06 1537 663a a438
000001b0: 3651 bb38 f14d 0937 8f0c f938 e0ca 0f39
000001c0: 5b62 4c37 d51f 1739 7e52 5739 781b aa38
000001d0: 65e4 5539 0400 0000 0400 0000 097e cc38
000001e0: 6ab2 6034 8bbd 4539 d6ac 2e39 5b44 6939
000001f0: 0400 0000 b313 bb35 0400 0000 446d 4116
0.00021568945 0.000120101264 2.9102725e-07 0.00022897002 0.00014009899 0.00018823754 1.602329e-06 6e-45
0.00018373757 6e-45 1.8347955e-05 0.00016691639 5.176838e-07 0.00017723051 6e-45 0.00017165096
6e-45 1.2945081e-09 6e-45 1.4510309e-05 6.0332144e-07 6e-45 9.787465e-05 0.00018514931
0.00019686135 6.149981e-33 0.00014966565 9.89218e-05 0.00014992582 8.9273264e-05 6e-45 6e-45
6e-45 0.00010441729 0.00026384738 9.694177e-06 6e-45 0.00018144575 5.3576637e-06 0.00017929242
0.00018281193 6e-45 8.630526e-05 1.4418104e-07 0.00016232004 0.000152777 8.371163e-08 0.00016331693
0.00019420039 3.229757e-05 4.0918785e-05 0.0001660451 0.00016843353 2.0211386e-05 0.00015558364 0.00018875842
6.598061e-06 6e-45 0.00016845972 3.5471268e-07 0.00019266955 0.0001362207 0.00021058191 2.1495678e-06
0.00015523985 6.5118155e-09 0.00012154595 0.00012138714 0.00026851322 4.1848172e-05 0.00013652375 0.00015758148
0.00016645498 6e-45 1.0129026e-05 7.7565386e-07 2.1178262e-06 4.9210994e-05 0.00017948449 6e-45
0.00023835666 8.725579e-16 0.00016611269 6e-45 0.00016287951 9.797355e-05 6e-45 6e-45
0.00014471523 3.3449194e-06 0.00017376132 0.00014778916 0.00016727608 1.3186524e-06 6.248515e-05 0.00024705174
5.690978e-17 0.00014450426 0.00018983307 0.000107111795 6e-45 6e-45 1.5727004e-08 9.2859504e-05
0.00015650463 0.00013175183 8.88272e-06 7.831007e-05 8.9319816e-05 8.1839835e-06 0.000118755845 0.0001371312
1.2182248e-05 0.0001441234 0.00020534729 8.111348e-05 0.00020398347 6e-45 6e-45 9.750954e-05
2.0926532e-07 0.00018857994 0.0001665832 0.00022246076 6e-45 1.3938319e-06 6e-45 1.5624894e-25

newsencoder.feature_fusion.linears.0.weight f4 [96, 128]
00000000: 0d73 16bd 36e1 06bd 4efd 0a3d 5c85 fbbc
00000010: 1c2b 37bd 3b25 953d 3dfa bfbb 74ed 8cb7
00000020: 4f44 4a3d ac28 563c b94a 2a3c 095c 953d
00000030: 0b95 153c 1403 5ebd 4270 1e3b ad30 c7bc
00000040: b815 25ba 82f8 e3bc 8c34 b83c 5ba6 0a3d
00000050: 2bb1 473b 5c13 cfb9 dfaf 4bbd c86d 743d
00000060: 27f9 753d 0716 573b 7c5b 80bc aef4 843c
00000070: 8d04 653b 7fc1 903c c55b a4b8 a05f ab38
00000080: 24e0 e0b9 7d73 3d3d 7bce 55bd 6c01 a1bc
00000090: 710f e2b9 d33b cabc c974 0a3d e845 b6bc
000000a0: a3d4 8d3c 08dd 9d3c 1374 5dbd c329 e73c
000000b0: 8032 473c af2e 2fbc ea59 1f3c aca6 febc
000000c0: 7425 273d b202 8abc 3a65 5fbc fda6 64bd
000000d0: 2da9 803d 7740 653d 8d49 6ebd fb5b 993d
000000e0: 970a 95bb 9faf 66bb 0c93 04bd 59f5 583d
000000f0: 2bbc 313c 8bf7 da3c 44ec cc3c b9e9 b2bc
00000100: b35d 79bc 714c a5bb cf78 c13c 3b88 d13c
00000110: 8bcf 16bd 1e07 8dbd 406c 6b3d 7a33 18bc
00000120: 5873 5ebd 910d 5e3a 0e87 bd3b c5c9 f7bc
00000130: 6aa8 cebc b24c 5f3d 6621 64bc c9cb 913b
00000140: 910b 1abd 5e69 fdba da63 53bd 6466 8fb9
00000150: 1ee7 61bd 7d67 ea3a 31e9 09bc 581c b0ba
00000160: bb56 c4bc 7aeb 153d 8392 60bc 0e54 8d3c
00000170: 0262 4abd c19f 02bd c3f7 b13c 06eb 983c
00000180: b346 b2b8 41c4 25bd 653e 46bc 2c3a 223c
00000190: 5190 34b7 60e0 0cb8 1a6c dabc b47b 153d
000001a0: 75bf 68bc 0ee5 debc 36f9 c5bc 8871 b1bc
000001b0: a2f5 993d ec7e 17bd e670 9cbd 5e79 f83c
000001c0: b733 94bd 980e 913d 402d fb3c 2a57 7b3d
000001d0: 496b ffbc 7a42 8f3c 68d3 d0b8 aac5 813d
000001e0: 7ecd 06bb 0197 c3bc 96df 963d e974 cabc
000001f0: 8569 b139 4ae3 bf3c 4b9e af3a 1b15 c938
00000200: 215d bbbc 7810 c63c 5346 9ebc 262d 2dbd
00000210: 75ac a83b f63e 213c da0a 5cbd 33ca 6eb9
00000220: d8d8 d9bc 368e 1fba d700 893d 88e7 4fbd
00000230: 0dc4 01bd 881c 9d3d 17b2 463a b8c6 0fbd
00000240: fb4f 8d35 e524 7ebc 7d31 cf38 0531 0abd
00000250: 3ac8 053b 3389 efb9 502e 9c3d 1c79 3e3d
00000260: 00f4 383c f5c1 ef3c 2014 b03d 1815 2dbd
00000270: 9b56 61bd 3a0d 96b9 e4db b7b8 c6af cd38
00000280: 8e71 2e3c d53a 5a3c 90b6 7db9 64c4 0c3d
00000290: fa29 18bc 5659 2d3d 8096 cbbc e51a 5cbd
000002a0: 873e 81bc bee0 a53c fbe8 01bd 09c0 aebc
000002b0: 6a7b 4e3d 5d09 d3bb cd2f 9fbb 04ca 433d
000002c0: 473a ff3c d2b6 c93c 228c 913d 5684 95bd
000002d0: c656 eebc dd72 3a3d e8b1 88bd 07fa 96bc
000002e0: 267a d93c adfa 5b3a 2e19 853c c1db 14bd
000002f0: 8803 e73c 8e46 34bd 6219 c63b 7a5f f9bb
00000300: 61fb 6f3d 1823 1bbd 8772 5cbd b91c 843d
00000310: 1a07 9f3d e9f8 05bb 0bc4 7d3d 78b1 30bc
00000320: 343b 8d3d 296a 77ba 4714 22bd 1835 2abb
00000330: 7d21 b0bc 7ffa 3c3d e2a4 bdbc 5cb5 8d3b
00000340: e9f6 95bd 5da9 e9bb ff34 f6bc 7c50 5bba
00000350: e772 ad3d 1190 f33c e62e 20bc 8eba bfbc
00000360: 6015 133d 7d8c 143d 0c7d 623d 65e6 63bd
00000370: 8cbc 5bbd b4e3 363d 97c2 813d a056 f53b
00000380: 6a51 b0bc 1d94 a13d 67ef 0d3d 6b44 f2bc
00000390: 0c9c 17b7 121e 38b8 1211 dc3c bbbb b53b
000003a0: 1b68 3a3d 7ca6 013d 46cd 00bd fef1 95bd
000003b0: 0f6d 353d c88b 22bd 75b4 f33c 91e6 1f3d
000003c0: afc9 87bc c922 34bd 25f2 8e3d be30 24bd
000003d0: ad56 873d 1610 3f3c 2b84 8f3c c32e 9a3d
000003e0: dc70 71bb f17c 6f3d a33b 91bd 7158 133c
000003f0: 6b91 84bb 8fb1 30bd 8307 943a aeb9 8aba
-0.036730815 -0.03292962 0.033932976 -0.03070324 -0.044718847 0.07282492 -0.005858688 -1.6799873e-05
0.04938155 0.01307122 0.010393792 0.07292945 0.009129773 -0.054202154 0.0024175798 -0.024315203
-0.0006297487 -0.027828459 0.022485994 0.033850055 0.003047059 -0.0003949654 -0.04972827 0.059675008
0.060052063 0.0032819526 -0.015668623 0.016229954 0.003494534 0.017670391 -7.837223e-05 8.171727e-05
-0.00042891607 0.046252716 -0.05219887 -0.019653998 -0.00043117584 -0.02468673 0.03380278 -0.02225013
0.017313307 0.019270435 -0.054065775 0.028218156 0.012158036 -0.010692283 0.009726027 -0.031085335
0.040807202 -0.016846988 -0.013634974 -0.055823315 0.06282268 0.05596968 -0.058175612 0.07488247
-0.0045483815 -0.0035199893 -0.032366797 0.052968357 0.010848085 0.026729366 0.025015004 -0.021839963
-0.015220094 -0.005044513 0.023617176 0.025577655 -0.036819022 -0.06886123 0.057476282 -0.009289617
-0.05430922 0.00084706495 0.005783922 -0.030247578 -0.02522679 0.0545165 -0.013923978 0.004449342
-0.037608687 -0.001933377 -0.051608898 -0.00027351372 -0.05515205 0.0017883625 -0.008417414 -0.0013436181
-0.023967138 0.03660152 -0.013706806 0.017251994 -0.049409874 -0.031890634 0.021724587 0.018666755
-8.50087e-05 -0.040470365 -0.012099837 0.009901565 -1.0762437e-05 -3.3587567e-05 -0.026662875 0.036494926
-0.014205803 -0.027208831 -0.024166685 -0.021660581 0.07517554 -0.036986277 -0.07638721 0.03033131
-0.07236426 0.07082862 0.030661225 0.061362423 -0.031179087 0.017487753 -9.9575904e-05 0.063365296
-0.002056926 -0.023875715 0.073668644 -0.02471395 0.0003383869 0.02342381 0.0013398615 9.588358e-05
-0.022871556 0.024177775 -0.019320643 -0.042279385 0.0051475116 0.009841671 -0.053721286 -0.00022772774
-0.026592657 -0.000608656 0.06689613 -0.050757915 -0.03168111 0.076714575 0.0007579638 -0.035101622
1.0528596e-06 -0.015511726 9.879747e-05 -0.033738155 0.0020413534 -0.00045687854 0.07626021 0.046502218
0.011288643 0.02926729 0.085975885 -0.042256445 -0.055014234 -0.00028620084 -8.767078e-05 9.807902e-05
0.010647191 0.013319691 -0.0002419597 0.03436698 -0.009287352 0.042321526 -0.024852037 -0.053736586
-0.015776886 0.020248767 -0.031716328 -0.021331804 0.050410666 -0.006440325 -0.004857993 0.04780008
0.031155718 0.024623308 0.07106806 -0.07300632 -0.029094111 0.0455197 -0.06674558 -0.01842977
0.026547503 0.00083915406 0.016247358 -0.036342386 0.028199926 -0.0440126 0.0060455063 -0.0076102586
0.058589343 -0.037875265 -0.05382016 0.06450791 0.077650264 -0.0020442551 0.06195454 -0.010784499
0.06896058 -0.00094381213 -0.03957012 -0.0025971588 -0.021500343 0.04613733 -0.023149911 0.0043245982
-0.07322485 -0.0071307854 -0.030054567 -0.000836618 0.084691815 0.029731782 -0.009776806 -0.023404386
0.035909057 0.036266793 0.055295035 -0.055639643 -0.05364661 0.04465075 0.06335943 0.007487133
-0.021523196 0.078895785 0.03465214 -0.02957364 -9.036634e-06 -4.3897024e-05 0.026863609 0.005546061
0.04550944 0.031652912 -0.031445764 -0.07321547 0.04429346 -0.039684087 0.029749135 0.039038245
-0.016575662 -0.043978486 0.06979779 -0.040085547 0.06608329 0.01166155 0.017519077 0.0752845
-0.003684095 0.058468763 -0.07091453 0.008993254 -0.0040456555 -0.043138083 0.0011293743 -0.0010583901

newsencoder.feature_fusion.linears.0.bias f4 [96]
00000000: 1775 6abd dd60 c6bd aaa0 edbc 67b4 3c3c
00000010: dad2 613c a192 a23b 801b 9bbd 6e03 09bd
00000020: 248b 63bd 68f8 d5bb 6fa2 43bd 4c8a a1bb
00000030: 37b2 d0bb 8ee8 afbd 222d 703d fd0f c03b
00000040: 366e 053d 33d6 253d d551 c63b df4a 0f3c
00000050: 7fce a4bd bffd 113d e1b5 933d a457 20bd
00000060: 0ef1 913d 4208 15bd ec49 1d3d 4f2e 37bd
00000070: 0628 bcbc 10f5 4bbd a0bc 723d 8dc7 a0bc
00000080: 49ad 9fbd 3c6f 663b 4f17 59bd ae2b 45bd
00000090: fede 51bd 4314 90bd 9d92 7dbd 0172 1c3d
000000a0: 1011 f2bc 52ad 1f3c f897 b43d fccd 143d
000000b0: ebc6 c13d 5960 a43d 8114 253c 8f05 423d
000000c0: 2f48 8e3d 64ba 8abd 410c 85bd 4fa7 5a3d
000000d0: f787 473d 2b6d c03c 4361 fe3b 7d64 7fbd
000000e0: b6b9 993c 6bba 48bb 617a 8dbb 73cd 9a3d
000000f0: e313 543d b162 193c e436 9bbc 62e0 75bd
00000100: 7efe 183d 4bb3 c33d 3244 e1bc 1aae 6abd
00000110: c5e1 953d 56da 8abd 4120 b63d 0e84 f73b
00000120: 992d 923d 0126 a73c da5b bb3c c791 9dbd
00000130: d091 41bc 10bb 853d 2428 10bd 8c57 9a3d
00000140: 8c1f 5bbc d7cb 65bd 705d 73bd 19cc 8ebd
00000150: ed01 1c3d b3e4 4fbd 025c 0f3d b0fe 9bbc
00000160: 160f 683d 8822 833d 0473 92bd c36a 84bd
00000170: 5143 6a3d 0c33 02bd b44c 7fbd 438a 54bd
-0.05724057 -0.09686444 -0.029007275 0.011517621 0.013783181 0.004961327 -0.075736046 -0.033450536
-0.055552617 -0.0065298565 -0.04776233 -0.0049298164 -0.006368901 -0.08589278 0.058636792 0.005861281
0.03257581 0.04048748 0.0060522356 0.008745878 -0.080471985 0.03564238 0.07212425 -0.03914608
0.07126056 -0.03638483 0.038400576 -0.044721898 -0.022968303 -0.049794257 0.059261918 -0.019626403
-0.077967234 0.0035161516 -0.053000744 -0.04813736 -0.051238053 -0.070351146 -0.0619074 0.03819466
-0.029549152 0.009745913 0.08818048 0.036329255 0.09461769 0.08026189 0.010075689 0.047368582
0.06947362 -0.067738324 -0.06496478 0.053382214 0.04871365 0.023489555 0.0077630593 -0.062351692
0.018765312 -0.0030628692 -0.004317567 0.075587176 0.051776778 0.009361909 -0.018947072 -0.06002844
0.037352078 0.09555682 -0.027498338 -0.057294942 0.07318453 -0.067799255 0.08892871 0.007553584
0.07137603 0.020403864 0.022870947 -0.076938204 -0.01181455 0.0652982 -0.03519453 0.075362295
-0.013374221 -0.0561026 -0.05941528 -0.06972522 0.038087774 -0.050755214 0.034999855 -0.019042343
0.056655012 0.06403071 -0.07150844 -0.06465676 0.057193104 -0.031786963 -0.06232901 -0.05188967

newsencoder.feature_fusion.gates.0.weight f4 [96, 128]
00000000: b584 30bd 8c15 08bd 6a19 a6b9 d2fe f93c
00000010: 7dd4 033c d81a f53b f5c0 e33a 6df9 bcba
00000020: 6d6c 523c fcfc 743b cf7f ef3b c549 273d
00000030: 3bc3 d73c c110 08ba 3927 19ba e55b 003d
00000040: a804 ab34 5c05 1aba 28d9 7db7 5bd0 5d3b
00000050: 512b a3bb 5896 cb3a 4214 0fbd 6e89 42bb
00000060: 07e9 82bd a6c2 0a3b eaec 84bc bc33 873a
00000070: 2aa0 173d d986 163b bc51 2838 e897 0db7
00000080: 4d95 6c38 ef00 fb3c 8ede 203c 9b92 ed3c
00000090: 44e5 4a3b 7cec 4039 babc f23c 9598 223c
000000a0: 655d 023d 9838 97bc 9c24 4ebd 700b 89b9
000000b0: 0468 893c e213 4bbc 4db0 4738 0735 b23c
000000c0: 8278 353d c307 1e3c fb83 0b3d 5003 3e3d
000000d0: de7f 783c 0a8e 733a 6649 0ebc 20ea 3abd
000000e0: 6cca 3d3c e98d eeb7 a335 99bc 5963 0dbc
000000f0: 6e0c e7bc 0545 9fbb 3732 c23c 20fe 7f3c
00000100: 34c4 dfbc aec9 7f39 4e21 96bc a53c 43bd
00000110: b09e 073d df5e 1f3d 50dc 3d3d 50f1 233d
00000120: 8c5b 58bc 6dc4 cab8 10c7 443c 0e06 b8bb
00000130: c654 013d 4671 2bbd 4493 123b 9b13 7bb7
00000140: 8829 8a3c 512d 063c 554e 003c 906b ea37
00000150: 3553 4c3d d5c1 54bd 5e7e 55b8 02ba 80bc
00000160: fd5c 963b 1a3d cc3c 0bd0 d43c fe36 8bbc
00000170: f18a a9bc 4efe 523c 813c 22bd 35e4 2abd
00000180: c35c 0e3c 5f73 a13c 5c53 0ebd 9f8c 36bd
00000190: 130b ef35 e3f2 1a37 b458 b4ba 2184 513d
000001a0: 98f6 ec3c 6e87 233d 29d7 ef3b cceb d53a
000001b0: 7038 10bd efa2 353c 56fb 22bc f188 8bbb
000001c0: 2003 0d3c 661c 143d 8fd7 883c d304 3cbd
000001d0: 56f1 fd3a e572 bb3b f53a ab38 3684 153d
000001e0: 70e3 5dbb fd49 17bd f985 333d dda8 ccbc
000001f0: 9d97 cf3b 553d 793c 8eab 5abb 2c47 7fbc
00000200: 58c9 acbb 6e6e 1ebd 498f 823c 1180 ed3c
00000210: dc71 383d 7225 aebc 49e3 d03b 9e25 69b7
00000220: 4152 14bd 52cd 95b8 d763 a13c 3da6 543b
00000230: 828f ce3c 3bd2 6bba 8f00 73b8 15d6 a63c
00000240: 308a 63bb cd34 2abc 5522 0fbb 6a45 14bc
00000250: 477b 513b dc42 d3b9 04be 4ebd eb16 c9bc
00000260: 9cc5 3ebd 0df1 9736 28a4 4dbd 0e7b bfbb
00000270: c952 22bd baf6 2fbd 47c3 ae3b eedb a83c
00000280: 3869 95bb c676 043c 4e8d 32bd af85 e7bc
00000290: 8ccd 70bc d97e 0bbd 56c3 213d 0685 8d3c
000002a0: 809b 993c 07f3 8cba ad76 9e3c 3150 b4b9
000002b0: cf46 7a3c a358 eb3a 1fb1 43bb 7ac1 bd3c
000002c0: 821a 193d 342b 17bc 8465 0d3d ff58 713c
000002d0: dda8 5c3c 712c 1a3d 9336 81ba 1637 563c
000002e0: 7a01 83bb a01b 49bc c0f9 b939 42b6 c13b
000002f0: fbef debb 8939 d63b c18c 29bc 838e 843c
00000300: 45da 55bd 752a 5b39 b0fa f63a b184 3f3c
00000310: 8c01 64bc a178 ba3b 7976 3fbd a6c0 a93c
00000320: 4973 98bc 2864 8b3b fe47 233d 0e4b 783c
00000330: ceef 4fbc c4fb ad3c cdbb 9ebc 35de c636
00000340: 3cd5 da3c f9f3 5dbc 9cde 43bd 839c 5338
00000350: d7fa 4aba 7053 f4bc c226 da38 94c8 103b
00000360: af99 3abc 9c42 1bbd e22f 213c 2c05 f1bc
00000370: 0f9f 823a a820 16bb b176 b33c 645b c93b
00000380: 016a 92bb 1eff 53bd ef02 cbbc 8438 50bd
00000390: 90d8 15b7 985a e3b7 df8c 88ba d699 48bd
000003a0: 4896 2e3d ff0e f8bc cb86 46bc a401 183d
000003b0: a7e6 37bb 2f2b edbb 493d be3c c5f1 8bbc
000003c0: 4e3a ca3c 5857 863b a344 023d 4a5e f93b
000003d0: 3e50 eabc 7a42 61b9 9ca2 9938 09fd bbbc
000003e0: 523f c83b 5946 db3c 7465 afbc 42e5 0bbd
000003f0: a426 4eb8 961c 963c e386 a636 6e22 233c
-0.04309531 -0.033223674 -0.00031680922 0.030517016 0.008046267 0.0074800067 0.0017376231 -0.0014417596
0.0128432335 0.0037382236 0.007308937 0.040841836 0.02633821 -0.0005190485 -0.00058423314 0.031337637
3.185462e-07 -0.00058754324 -1.5130536e-05 0.0033846113 -0.004979529 0.0015532477 -0.03493143 -0.0029683965
-0.06392103 0.0021173148 -0.01622625 0.0010315101 0.03701798 0.002296856 4.0130442e-05 -8.439623e-06
5.6405832e-05 0.030640094 0.009818686 0.029000571 0.0030959407 0.00018398644 0.029631007 0.009924074
0.03182735 -0.018459603 -0.050327882 -0.00026139198 0.016773231 -0.012394877 4.760949e-05 0.021753801
0.04430438 0.009645405 0.034061413 0.046389878 0.015167205 0.000929088 -0.008684492 -0.045633435
0.011583906 -2.8437893e-05 -0.018702334 -0.008629643 -0.02820417 -0.0048605227 0.023705585 0.015624553
-0.027315237 0.00024393827 -0.018326428 -0.047665257 0.03311032 0.038908836 0.046352684 0.040025055
-0.01320542 -9.668698e-05 0.012010351 -0.005615956 0.031574987 -0.041856073 0.002236561 -1.4965331e-05
0.016865507 0.008189515 0.007831176 2.7945061e-05 0.04988404 -0.051942665 -5.0900846e-05 -0.015713695
0.004588722 0.02493148 0.025978109 -0.016993996 -0.020696135 0.012878014 -0.039608482 -0.04172154
0.008689108 0.019708334 -0.034747466 -0.0445677 1.7810111e-06 9.235667e-06 -0.0013759346 0.0511514
0.028926179 0.039924078 0.0073193503 0.0016320883 -0.035210073 0.01108621 -0.0099476185 -0.004258268
0.008606702 0.036159895 0.016704349 -0.04590304 0.0019374292 0.0057204836 8.164897e-05 0.03650304
-0.0033857487 -0.036935795 0.04382894 -0.024982864 0.0063352124 0.015212377 -0.0033366415 -0.015580934
-0.0052730255 -0.038679533 0.015937464 0.02899173 0.04503046 -0.02125809 0.0063747508 -1.3896641e-05
-0.036211256 -7.1431175e-05 0.019700928 0.0032447719 0.025214914 -0.00089958654 -5.7936235e-05 0.020365754
-0.0034719817 -0.010388565 -0.0021840532 -0.009049753 0.0031964348 -0.0004029487 -0.05047418 -0.024547061
-0.046575174 4.5282127e-06 -0.05020538 -0.0058435267 -0.03962973 -0.042959906 0.0053333375 0.020612683
-0.004559662 0.008084958 -0.04359179 -0.028261987 -0.014697444 -0.03405652 0.039492927 0.017275345
0.018750906 -0.001075358 0.019343698 -0.00034392023 0.015275671 0.0017955493 -0.002986021 0.023163546
0.037378795 -0.009226609 0.03452064 0.014730691 0.0134679945 0.03764004 -0.0009858183 0.013074657
-0.0039979788 -0.012274653 0.00035472028 0.0059116194 -0.0068035102 0.0065376204 -0.0103485 0.016181236
-0.05221011 0.00020901284 0.0018843021 0.011689351 -0.013916384 0.0056906496 -0.046743844 0.020721745
-0.01860966 0.004253883 0.03986358 0.015154613 -0.012691451 0.021238215 -0.01937666 5.926728e-06
0.026713006 -0.013546937 -0.04781972 5.0452083e-05 -0.00077430665 -0.029824942 0.00010402269 0.002209221
-0.01138918 -0.03790532 0.009838076 -0.029421411 0.0009965616 -0.0022907648 0.021907182 0.006144928
-0.004468203 -0.05175697 -0.024781672 -0.050835148 -8.9315145e-06 -2.7102695e-05 -0.001041796 -0.048974834
0.042623788 -0.030280588 -0.012117098 0.03711094 -0.0028061063 -0.007237814 0.023222582 -0.017083058
0.024686005 0.0040997677 0.03180374 0.007610117 -0.028602716 -0.00021482437 7.325897e-05 -0.022947805
0.006111064 0.026766943 -0.021410681 -0.034154184 -4.9150214e-05 0.018324178 4.9628884e-06 0.009956939

newsencoder.feature_fusion.gates.0.bias f4 [96]
00000000: 6835 353c a233 1fbd b524 153d 44e9 2bbd
00000010: b4e6 843c c7a0 d6b6 6e35 83bc 00be 123d
00000020: e92c 693c 46eb 4f3d 10e9 a73c 5a8d d4bc
00000030: fa8c 5d3d 92e1 ca3c 3ee6 2dbc 77f6 cabc
00000040: e890 02bd 165c 343d 7dc5 fcbc d67d 863b
00000050: 0e8e f63b f4e8 563c 63a2 de3c 5370 2bbd
00000060: 3a55 2fbd b430 58bb 2e59 f7bb ff8b ad3c
00000070: 8aae 2bbc 4553 a63b bfaf ccbb f7ce 36bc
00000080: 03d2 123c c967 28bd 9bb2 0b3d ce88 e03c
00000090: 7aa8 0f3d e0fd c4bc da9a 5ebd 7c21 483c
000000a0: 1663 df3b 53f4 b4bc 3b7c b33c 9a70 1c3d
000000b0: e206 19bd 4b72 3fbc 88a3 a73b dbf8 f43c
000000c0: 842f b9bc ef1a dbbb 454d db3c 8a8d c33b
000000d0: 1f08 8f3c 6ed1 fcbc db2e b1bb f44b c63c
000000e0: 8a4e 2fbd 76a0 053d 448f 1fbd 1622 8f3c
000000f0: c40a ddbc 2af0 3f3d d07b 82bb c735 0abd
00000100: f29d 17bb 0126 59bc 3418 bc3b b838 523c
00000110: 71e6 37bd 54cc 46bd bccb bb3a 5937 28bd
00000120: c220 b9bc a81a c8bb dd74 21bc 985a 3dbc
00000130: 57ed 013d 8cb5 74bc 730f 4cbd 5f9d 5c3d
00000140: dfe9 af3c 6da6 acbc 077d 33bd 1b28 3ebc
00000150: 48ce 8c3c e6db 1cbd 7784 593d fa1f 13bd
00000160: c793 4fbc d890 bdbb 7161 c33c d0e2 bbbc
00000170: 4f9c 80bd 8e3b 60bd 27c1 6bbc dd4c 5e3c
0.011060096 -0.0388676 0.03641196 -0.041970506 0.01622329 -6.396414e-06 -0.016016688 0.03582573
0.014231899 0.050761484 0.020496875 -0.025946308 0.054089524 0.024765763 -0.010613976 -0.024775727
-0.031876475 0.044033132 -0.030855889 0.0041043563 0.0075242585 0.013117064 0.027177041 -0.041855168
-0.042805888 -0.0032988014 -0.007548473 0.02118492 -0.010478625 0.0050758445 -0.0062465365 -0.011157743
0.0089612035 -0.041114602 0.03410588 0.027408984 0.03507278 -0.024046838 -0.054346897 0.012215015
0.006817232 -0.02208916 0.021909824 0.038193323 -0.03736008 -0.011684964 0.00511593 0.02990382
-0.022605665 -0.0066865603 0.026770243 0.0059678005 0.017459927 -0.030861583 -0.005407197 0.02420614
-0.04279951 0.03262373 -0.038954988 0.017472308 -0.026982673 0.046859898 -0.0039820448 -0.033742692
-0.0023134914 -0.01325369 0.00574019 0.012830906 -0.0448975 -0.048534706 0.0014327685 -0.04106841
-0.022598628 -0.0061066933 -0.0098545225 -0.011557244 0.031720486 -0.014935862 -0.04981942 0.05386102
0.021473823 -0.021075452 -0.043820407 -0.011606242 0.017188206 -0.03829565 0.053104844 -0.035919167
-0.01266951 -0.005785089 0.023850175 -0.022935301 -0.062798135 -0.054744296 -0.014389313 0.01356813

newsencoder.layer_norm.weight f4 [96]
00000000: 763d 6d3f e776 6d3f 3b4d 6d3f ecd1 703f
00000010: 8d68 6e3f 73f2 6c3f 5008 6e3f 3852 6d3f
00000020: b581 6d3f 1e4e 6d3f 6ca8 6d3f d821 6f3f
00000030: 60b9 6d3f 8978 6d3f 309c 6d3f 1971 6d3f
00000040: 8304 6d3f e9cb 6d3f 5872 6e3f 24b0 6d3f
00000050: 82ad 6e3f 85f6 6e3f 852e 6e3f 1522 6d3f
00000060: 726b 6f3f 9a63 6d3f 2c83 6d3f b93d 6d3f
00000070: ffa4 6d3f 5e40 6e3f da70 6d3f 3317 6e3f
00000080: 3672 6d3f 84e8 6d3f c7fd 6d3f 8a5d 6d3f
00000090: 2c67 6d3f 8318 6d3f b9e8 6f3f 5658 6d3f
000000a0: 85c0 6f3f 866d 6d3f eae1 6c3f 6df5 6f3f
000000b0: b15f 6d3f 8e17 6d3f 983b 6d3f 9ecc 6e3f
000000c0: 6c07 6e3f 904b 6d3f 77cb 6d3f 767f 6d3f
000000d0: d35d 6f3f dacb 6d3f dcea 6c3f a46d 703f
000000e0: 80ae 6d3f da46 6d3f 57be 6d3f 7a12 6d3f
000000f0: 1d87 6d3f d041 703f 192c 6e3f 0c05 6d3f
00000100: 2c0d 6d3f 0e4f 6f3f 7e96 6d3f aaa6 6d3f
00000110: fad4 6d3f e8aa 6e3f 707e 6d3f 3dc0 6d3f
00000120: 2144 6d3f c97e 6d3f 60e5 6c3f 6fea 6d3f
00000130: 6668 6e3f 8a47 6d3f a685 6d3f 9780 6e3f
00000140: 3dbe 6e3f cc1a 6d3f 0548 6d3f 83ef 6c3f
00000150: 163b 6e3f b6ea 6c3f 96a5 703f 3772 6e3f
00000160: dba6 6d3f 117f 6e3f 9b36 6f3f 0e4c 6d3f
00000170: 0945 6f3f dae1 703f b550 6d3f 59e7 6e3f
0.92671907 0.92759556 0.9269597 0.94070315 0.9312828 0.9255745 0.92981434 0.9270358
0.9277604 0.9269732 0.92835116 0.93411016 0.92860985 0.9276205 0.9281645 0.927507
0.9258501 0.9288927 0.93143225 0.92846894 0.932335 0.9334491 0.93039733 0.9263013
0.93523324 0.92730105 0.9277828 0.92672306 0.9282989 0.93066967 0.9275032 0.9300415
0.927524 0.92932916 0.9296536 0.92720854 0.9273555 0.92615527 0.9371448 0.92712915
0.93653136 0.92745245 0.9253222 0.93733865 0.9272414 0.92614067 0.9266906 0.9328097
0.92980075 0.92693424 0.9288859 0.92772615 0.9350254 0.9288918 0.92545867 0.939173
0.9284439 0.92686236 0.9286856 0.9260632 0.9278429 0.9385042 0.9303604 0.92585826
0.92598224 0.9348 0.9280776 0.92832434 0.929031 0.9322953 0.92771053 0.9287146
0.9268208 0.92771584 0.925375 0.9293584 0.9312805 0.92687285 0.92782056 0.9316496
0.9325903 0.92619014 0.9268802 0.92552966 0.9305891 0.9254564 0.94002664 0.9314303
0.92832726 0.9316264 0.93442696 0.92694175 0.93464714 0.9409462 0.92701274 0.9332176

newsencoder.layer_norm.bias f4 [96]
00000000: 2ecc 47bc f3cb 4fbc b047 18bb a9a7 8139
00000010: 7851 483c 31eb 873b bc53 cd3b 8746 04bc
00000020: 1d5e a6bb 67dc 2b3c 068d d73a b53b bb3a
00000030: 1156 343c 3458 2fbc 33ca d03c 2543 89bc
00000040: c1a4 433c 0d00 033c 5be6 093c 0806 f9bb
00000050: 8716 993b e4b5 49bc 8a0e d03b adc2 8ebb
00000060: 8dfa f93b e5fc 11bc 5f91 9f3b e868 1dbc
00000070: 29b3 b53c 355d efbb ce49 8a3b f363 073c
00000080: 656f 2cbc ae28 c1bb f7bb 4abb 4e24 b23b
00000090: 8671 5dbb 5591 80bc bf09 3dbc 1e1f 023c
000000a0: c1d7 18bb 8e52 d4bb 5312 8f3c 14ef 653c
000000b0: 2735 523c 0341 413c a3d6 733b f0b8 d03b
000000c0: 8fba e3ba 0c42 ccbb ea28 3cbc 888f 1dbb
000000d0: 1509 833b 3c91 383a 6f9e 90bb 4527 80bc
000000e0: 6c50 e0bb c404 a13b ba31 f5bb 6400 b53b
000000f0: 396b 273c 6a59 573c 7bd0 16ba 9184 15bc
00000100: ac8a 943b 0d6c b53c b6a6 563c df37 2a3b
00000110: f6a5 9f3c 92ec cd3b 8e5e 663c fa11 06bb
00000120: 2604 203b f839 7c3c 848a a739 55ec 883a
00000130: 8dc5 33b9 8e5f 843b 0e59 01bb f310 3e3c
00000140: db67 233b 28ba 38bc e4f2 83bc e7b0 8abb
00000150: 1284 503c b8dc 7ebb c5cc ea3b be02 903b
00000160: 29da 853c 2144 fb3b 5b79 35bc ddaa 51bc
00000170: 2ab2 8f3b fe45 38bb 38a9 e93b 7c62 0bbb
-0.012194676 -0.012682903 -0.0023236088 0.00024729714 0.012226455 0.00414791 0.0062660854 -0.008073456
-0.005077137 0.01048956 0.0016445227 0.0014284762 0.011006848 -0.010702182 0.025487041 -0.01675565
0.011941136 0.007995618 0.008416737 -0.007599596 0.004671875 -0.0123114325 0.0063493894 -0.0043567033
0.007628745 -0.008910392 0.0048696245 -0.009607531 0.022180157 -0.0073048123 0.004220224 0.008263576
-0.010524605 -0.005894742 -0.003093479 0.0054364568 -0.003378959 -0.0156943 -0.011537968 0.007941989
-0.0023321959 -0.006479568 0.017464792 0.014034051 0.012830055 0.011795285 0.003720679 0.0063697025
-0.0017374324 -0.0062334593 -0.011484364 -0.002404185 0.0039988854 0.00070406846 -0.004413418 -0.015643725
-0.0068455245 0.004913898 -0.0074827345 0.005523728 0.010218435 0.013143877 -0.0005753112 -0.009125845
0.0045331325 0.02214625 0.01310127 0.0025973243 0.019488316 0.006284305 0.0140606295 -0.0020457492
0.0024416535 0.01539468 0.00031955924 0.0010446409 -0.00017144364 0.0040397113 -0.0019736919 0.011600721
0.002493373 -0.011274852 -0.01610703 -0.004232514 0.0127268005 -0.0038888883 0.0071655237 0.004394858
0.016339378 0.0076680337 -0.011076297 -0.012797085 0.0043852525 -0.002811789 0.007130768 -0.0021268418
