model_checkpoint.pth (torch, 495394 bytes, 35 tensors)

newsencoder.doc_encoder.layer.0.weight f4 [128, 300]
00000000: d4c1 083d 9fb1 0b3d eb55 d8bb 91cb 2f3d
00000010: 9884 95ba 995d 183c e81e e9bc ca08 053d
00000020: 7622 273d d9e9 f8bc a632 0e3d 7a76 353c
00000030: df0f 213d 3b60 1f3c 42f6 6b3c d0c9 bebb
00000040: 33bb 113d ea5f 243b 232c b3bc 974f 0e3c
00000050: 43cf 86bc f2d1 acba c72a 9dbc 99ce cd3c
00000060: e702 16bd 09ce 84bc dfc2 6abc 584e d1bc
00000070: ec4a f13b ec96 27bd 0831 093d cdae 0cbd
00000080: a2d5 133d 7125 0f3c bd37 a5bc b045 0e3d
00000090: ccaf b53b 9e11 1f3d 1aea b9ba 6e07 c4bb
000000a0: 403c 513c a85b 10bc 4cb1 763c 206d 113d
000000b0: 942e d33c 015f d5bc 72f9 a73c 6bc7 f23b
000000c0: 8e4b f33c 4dc1 c6bc c0ae 35bd 0a6c b1bc
000000d0: 6e41 f3bc bd6d 0e3d 3c24 2e3c 9cad b23c
000000e0: fb5d 623c e76c 94bb 896f 063d 9e16 f3bc
000000f0: 900e 6d3b 239d 05bd 9507 253c 656a 1fbc
00000100: 59a1 2f3c d12f 4fbc e2b8 073d f40c cfbc
00000110: 9bc8 c6bc cb7a adbc 25be 303d 7ddb 9a3c
00000120: 8b1a 2f3d 5d52 2abd f846 3dbd b2b3 eebc
00000130: 6bd2 febc 31fb b83c 3f07 873c ddb4 2e3d
00000140: a210 8abc 905e e8bc 7095 9b3c 3345 9dbc
00000150: 28ce a33c d9f6 2bbc 2414 b83c 4d9d f0bc
00000160: 995a c4bc 5263 823c 168e 293c 3410 72bc
00000170: 7061 c53c e5bd f63c 15d1 dabc c2c5 c7bc
00000180: 7824 383d 7481 74bc 667f 5dbc 2043 41bd
00000190: d3de debc d578 513c 44cb 44ba 351f 06bd
000001a0: 130c 503a 8b93 e0bc 6094 17bd 5509 b2bc
000001b0: 1d46 1cbd af37 babc 9a5e 343d 4781 0e3c
000001c0: 7002 653c d414 17bd a75c fabc 9de5 5ebc
000001d0: c1b3 553b 65d8 17bd 69f1 95bc d109 ebbc
000001e0: 7859 29ba f273 56bc efc6 00bb 262c 06bd
000001f0: 8606 15bd de76 cdbc acc7 19bc 513c 02bd
00000200: 7299 0c3d f2c6 7ebc d10b 163d 5756 633c
00000210: 9556 27bd 6ed2 073d c4d2 0abc 4972 54bc
00000220: 6dbe 37bd 6994 45bd c198 353c d92e 5fbc
00000230: a52b 393c c66c 09bd 301e d83c 55b6 14bd
00000240: 8334 4ebc 5cba ae3b 97d8 9f3c 95f1 073d
00000250: dd0e 183d a454 f1bc 312e 803c 4009 c2bc
00000260: 3c19 debb 7da3 dbbc 5c38 203d b370 e3bc
00000270: 1cb0 d43c d63f 5e3c e68d 083c 3bd8 dbbc
00000280: ac9f 203d fcfc ec3b b789 8a3b 144c 12bd
00000290: a6c2 b13c a8a1 56bc 9828 c5bc 0ee3 1f3d
000002a0: d87a a53b 1f75 c1bc 92b0 c0bc 69e2 563b
000002b0: 8044 c43c 456f 2ebc 02ac e8bc 62e2 27bc
000002c0: 377d 16bd 74c3 613c 9de6 023d 13be 1abd
000002d0: 17f8 e53b 0486 e23c 5741 963b 3d67 42bc
000002e0: fcdd 9e3c 9a40 b63c ba7a d23c d69a 6cbb
000002f0: b78f 14bc 994a 2e3b e423 a3bb a820 3ebc
00000300: 44e3 ea3c 82ab 083d abe6 30bb e0ec 08bc
00000310: 32dc 713b ba2d babb 515b 483c 1396 f33b
00000320: dfe6 0ebd 4ba4 49bc 5e6c 2c3d 01c8 963c
00000330: c29b b93b ec63 f6bc 6705 c9bc dc6b 0fbd
00000340: 1a49 9bbc 93ac 123c ea74 e23c bef9 953c
00000350: e115 0cbd 3f76 f6bc 3e56 69bb 285f 1d3d
00000360: be14 183c f269 e9bb 6de6 8d3c c6d3 83bc
00000370: 6dec cfbc 958c de3c 920d b3bc cb2c b9bb
00000380: ccda 29bd 234c 9e3c ec37 073d 9542 523c
00000390: c8ba 09bd f634 46bd 49de 15bd a0e0 0b3d
000003a0: ce05 c83c e96c 073d 5c67 b13c 7264 763c
000003b0: 581c f4b9 6169 09bd f979 10bd 8104 2abd
000003c0: 00cf 923c e87a bebc aedf 2ebc 9d96 d2bc
000003d0: c554 c9bb a3ca e9bc 5d35 03bd 1576 863c
000003e0: 37b2 79bc a580 dc3c 6494 32bc 957a 01bd
000003f0: c71b e0bb ae9f 9abc d394 2ebc 5a2f 26bd
0.033387974 0.03410494 -0.006602039 0.042918745 -0.0011407314 0.009299659 -0.02845712 0.032479085
0.04080435 -0.030384945 0.03471627 0.01107561 0.039321776 0.009727533 0.014401974 -0.005822398
0.035578918 0.0025081583 -0.021871632 0.008685968 -0.016456252 -0.0013185127 -0.019185437 0.025122928
-0.03662386 -0.016211526 -0.014328687 -0.025550053 0.0073636677 -0.040915415 0.033494025 -0.03434639
0.036092408 0.008736954 -0.02016818 0.034734428 0.0055446383 0.03883516 -0.0014184148 -0.005982331
0.012770712 -0.008810915 0.015056919 0.03550446 0.025779046 -0.026046278 0.020504687 0.0074090264
0.029699113 -0.024262095 -0.044356108 -0.021657962 -0.029694285 0.034772623 0.010628756 0.021811299
0.013816352 -0.0045295837 0.032821212 -0.02967387 0.003617201 -0.03262056 0.0100726085 -0.009729956
0.010719621 -0.012645678 0.033135302 -0.025274731 -0.024265578 -0.021176716 0.043150086 0.018903488
0.042749923 -0.041582454 -0.04621026 -0.02913842 -0.031106194 0.022580715 0.016482947 0.042652953
-0.016853634 -0.028365403 0.018992156 -0.019198036 0.019995764 -0.010495865 0.022470541 -0.029371882
-0.023968982 0.0159165 0.010348817 -0.014774371 0.024094313 0.030119846 -0.026711026 -0.02438629
0.044956654 -0.014923442 -0.013519144 -0.047183156 -0.02720586 0.012785156 -0.00075070956 -0.032744605
0.00079363695 -0.027414104 -0.037006736 -0.021732965 -0.038152803 -0.02273163 0.04403553 0.008697814
0.013977632 -0.036885098 -0.030561758 -0.013604549 0.0032608362 -0.037071604 -0.01830359 -0.028691204
-0.000646017 -0.013089167 -0.0019649824 -0.032756947 -0.036383174 -0.025081094 -0.009385984 -0.031795803
0.034326024 -0.015550362 0.036632363 0.0138755655 -0.040854055 0.033159666 -0.008473102 -0.012966701
-0.04485934 -0.048237238 0.011083783 -0.013622009 0.01130191 -0.033551 0.026381582 -0.036306698
-0.012585762 0.0053322744 0.019512458 0.033189375 0.03712355 -0.029459305 0.015647026 -0.023686051
-0.0067779105 -0.026811356 0.03911625 -0.0277637 0.025962882 0.013565024 0.0083346125 -0.026836505
0.039214775 0.0072323065 0.0042278427 -0.035717085 0.02169926 -0.013100065 -0.024067208 0.039034896
0.0050500445 -0.023615418 -0.023521695 0.003278876 0.023958445 -0.010646646 -0.028402332 -0.010246845
-0.036740508 0.01377951 0.03195821 -0.037778925 0.0070181 0.027651794 0.004585426 -0.011865434
0.01939296 0.022247601 0.025693286 -0.0036103032 -0.009067467 0.0026594757 -0.0049786437 -0.011604466
0.028672822 0.033366688 -0.0026992958 -0.008357257 0.0036904928 -0.0056817206 0.012228803 0.0074336617
-0.034888145 -0.012307237 0.042095535 0.018405916 0.0056643197 -0.030076943 -0.024538709 -0.035014972
-0.018955756 0.008952278 0.02764364 0.018307563 -0.034200553 -0.030085681 -0.0035604383 0.038420826
0.009282289 -0.0071232254 0.01732179 -0.016092192 -0.025381291 0.027166644 -0.021857057 -0.0056510917
-0.041468427 0.019323414 0.033012316 0.012833257 -0.033625394 -0.04839035 -0.03658894 0.034149766
0.02441683 0.03306285 0.02165573 0.0150385965 -0.00046560424 -0.033547763 -0.035272572 -0.0415082
0.01792097 -0.023251966 -0.010673447 -0.025706584 -0.0061441385 -0.028539008 -0.032033313 0.016413728
-0.015240244 0.026916811 -0.010899637 -0.031611044 -0.006839249 -0.01887497 -0.0106556 -0.0405725

newsencoder.doc_encoder.layer.0.bias f4 [128]
00000000: 7b4e ea3b cb93 ebbc 23d1 d8bc 465d 39b9
00000010: 6693 b33a 2352 193d 9d4e 33bd c009 bfba
00000020: cc49 c53c 744e cfbb cd8d 2cbd affc 5a3c
00000030: 7265 6abd 7155 d73c d4e3 a0ba f8b6 ba3c
00000040: 947a 3abd 1e7a 62bd a349 9abc d9f7 383d
00000050: 7356 48bd 5b56 d3bb 5df6 f43c c795 103d
00000060: b18e 2439 6fe5 3abd cec4 2d3d c60c b13b
00000070: 5297 0e3d 05e1 3e3c 6319 41bc 96a3 a0ba
00000080: 0e3f 5fba 687b 353d 2d76 643c 7a3d f23c
00000090: 9293 a1bc 411b 433d d848 8e3c 7281 8e3c
000000a0: 145d e93c 77b2 77bb abaf 413d 5d8b dcbc
000000b0: 3b90 9e3b 878c 603a 7d22 ddbc 8b8f ad3b
000000c0: 4ac1 ee3c 507a c83b 52ea 2fbd c3e9 bd3c
000000d0: 4bf8 023d ff95 adbc bf81 8c3c 2e9c b8bc
000000e0: f43f fa3c ce19 37bd 134b bc3c 3f82 38bd
000000f0: 7ab1 373c 3f2d 8a3c 47ef 993c e1ab 953c
00000100: b723 343c 2d47 5fbd e490 aabc 1df4 9fbc
00000110: 73d0 323d 5c09 b63c bb01 5ebc f965 1e3d
00000120: aecb 083c 85ab ceba e138 b73b acc5 96bc
00000130: 4141 1ebd 013a c83b f3a5 ea3c e701 c4ba
00000140: 6b59 233d 7033 07bb 3d34 953a 0998 d7ba
00000150: d881 093a 67b8 863c 9c3c 12ba 41ce 12bc
00000160: 56a7 6d3c 70b4 f4ba 8032 213d 4eb5 3f3a
00000170: 915e f43b 57d7 02bd c7e9 92bc 9e2e d23c
00000180: ab69 beba 7640 423b 37ba 143d e3b6 87bc
00000190: 39f1 d0bc 8e46 81ba 18dc febc 26fa ce3a
000001a0: 266c a337 16ee 1a3d c681 153c 4910 80bc
000001b0: 990f 3c3c 9e24 763b 06ec 2ebc a23d 613c
000001c0: b8ad f73b df07 0b3d 7b7e da3c 5ebf 293d
000001d0: 8b8c 7e3c 024a bfba fa2b e2ba 9585 1abd
000001e0: 8615 12bd 9828 fb3a 6ea8 f3bc 4b3b 1e3d
000001f0: 69c6 93ba aa76 3ebd 6cf9 e0bc 27bf 59bc
0.007150469 -0.028756997 -0.026466912 -0.00017677722 0.0013700544 0.037431847 -0.043776143 -0.0014575049
0.02408304 -0.006326491 -0.04212742 0.0133659085 -0.057225652 0.026285859 -0.0012274929 0.022792324
-0.045527056 -0.05529224 -0.01883394 0.04515824 -0.04891057 -0.0064495034 0.029902631 0.03529909
0.00015693415 -0.04562896 0.042424016 0.005403134 0.03481228 0.0116503285 -0.011785838 -0.0012255784
-0.0008516171 0.044307142 0.013944191 0.02957033 -0.019723687 0.047633413 0.017368719 0.017395709
0.028486766 -0.0037795582 0.04728667 -0.026921922 0.004838971 0.0008565862 -0.026993984 0.0052966527
0.029144902 0.0061180964 -0.042948075 0.023182755 0.031975072 -0.021189688 0.017151712 -0.02253541
0.030548073 -0.044702344 0.022985017 -0.045046087 0.011211747 0.016867278 0.018790854 0.018270435
0.010994843 -0.054511238 -0.020821042 -0.019525582 0.043655824 0.02222126 -0.013550217 0.038671467
0.008349342 -0.001576767 0.0055914973 -0.018404804 -0.03863645 0.00611043 0.028643584 -0.001495418
0.039880197 -0.0020630024 0.0011383366 -0.0016448508 0.00052454835 0.016445352 -0.00055784895 -0.008960308
0.014505228 -0.0018669497 0.0393548 0.0007313088 0.0074575623 -0.031943645 -0.01793374 0.025656994
-0.0014527341 0.0029640472 0.0363104 -0.0165667 -0.025505649 -0.0009862946 -0.031110808 0.0015791103
1.9481475e-05 0.037824713 0.009125179 -0.015632765 0.011478328 0.0037558447 -0.01067639 0.013747605
0.0075585507 0.033943053 0.026671639 0.041442268 0.015536438 -0.00145942 -0.0017255538 -0.03772505
-0.035665058 0.0019161878 -0.0297434 0.038630765 -0.0011274341 -0.046499886 -0.027462684 -0.013290203

newsencoder.doc_encoder.layer.2.weight f4 [128]
00000000: 9ac7 6c3f eff9 6c3f 9a91 6c3f b1d6 6c3f
00000010: 58d3 6c3f 88e1 6c3f d0c3 6c3f 9989 6c3f
00000020: f9dc 6c3f 9d89 6c3f 3fb2 6c3f ebd7 6c3f
00000030: b4a7 6c3f 55cc 6c3f 9989 6c3f 09df 6c3f
00000040: 1389 6c3f fca6 6c3f cf89 6c3f e1c6 6c3f
00000050: cd8e 6c3f 8d89 6c3f bec2 6c3f 4fe5 6c3f
00000060: c2fe 6c3f b7c7 6c3f e40c 6d3f 2ece 6c3f
00000070: 66ea 6c3f d0c6 6c3f 9989 6c3f 9989 6c3f
00000080: 9989 6c3f 10ee 6c3f e151 6d3f ebcc 6c3f
00000090: a389 6c3f f4dd 6c3f 30aa 6c3f ddd1 6c3f
000000a0: 07d4 6c3f 9889 6c3f a4e7 6c3f 4693 6c3f
000000b0: cae9 6c3f 72cb 6c3f e88c 6c3f 3404 6d3f
000000c0: 53be 6c3f e4a0 6c3f 06c5 6c3f f6ce 6c3f
000000d0: 67ea 6c3f 72e0 6c3f fbc2 6c3f 1bcd 6c3f
000000e0: 7afb 6c3f 87aa 6c3f eee8 6c3f fbbd 6c3f
000000f0: 09de 6c3f f1d0 6c3f 5e02 6d3f 0f9d 6c3f
00000100: 52ea 6c3f bd9e 6c3f 29aa 6c3f b9de 6c3f
00000110: 4fd2 6c3f 2bcb 6c3f 08cd 6c3f b0fe 6c3f
00000120: a0d2 6c3f 9989 6c3f 8e0f 6d3f 018a 6c3f
00000130: 599e 6c3f 85c3 6c3f 680d 6d3f 9989 6c3f
00000140: e8da 6c3f 1190 6c3f c710 6d3f 9989 6c3f
00000150: 2601 6d3f 30cb 6c3f 9989 6c3f 9889 6c3f
00000160: 13f4 6c3f 3bc3 6c3f 6ce4 6c3f b2ed 6c3f
00000170: 1df3 6c3f 67c3 6c3f 3ecc 6c3f d70a 6d3f
00000180: 9989 6c3f 29dd 6c3f f3df 6c3f 5be6 6c3f
00000190: 9789 6c3f 9989 6c3f e1a0 6c3f 4ebe 6c3f
000001a0: c0fa 6c3f 47e3 6c3f 79c2 6c3f cbd8 6c3f
000001b0: bdc0 6c3f b49e 6c3f 1cef 6c3f 26e4 6c3f
000001c0: a9bc 6c3f 42cc 6c3f 68e9 6c3f 1ad4 6c3f
000001d0: 29d6 6c3f 9c89 6c3f 9989 6c3f 2ed6 6c3f
000001e0: 8c8e 6c3f 8fea 6c3f 93f1 6c3f f600 6d3f
000001f0: 9989 6c3f b390 6c3f c98b 6c3f e788 6c3f
0.9249207 0.9256887 0.9240967 0.92515093 0.92509985 0.92531633 0.92486286 0.9239746
0.9252468 0.9239748 0.9245948 0.92516965 0.92443395 0.92499286 0.9239746 0.92527825
0.9239666 0.924423 0.9239778 0.92490965 0.92405397 0.92397386 0.92484653 0.925374
0.9257623 0.9249224 0.92597795 0.92502105 0.92545164 0.92490864 0.9239746 0.9239746
0.9239746 0.92550755 0.9270306 0.9250018 0.92397517 0.92526174 0.92447186 0.92507726
0.9251103 0.9239745 0.92540956 0.9241222 0.92544234 0.9249793 0.92402506 0.9258454
0.9247791 0.92433 0.92488134 0.925033 0.9254517 0.92529976 0.92485017 0.92500466
0.9257122 0.92447704 0.9254292 0.9247739 0.925263 0.9250632 0.9258174 0.9242715
0.92545044 0.92429715 0.92447144 0.9252735 0.92508405 0.9249751 0.9250035 0.9257612
0.9250889 0.9239746 0.9260186 0.9239808 0.9242912 0.9248584 0.9259858 0.9239746
0.92521524 0.9240733 0.92603725 0.9239746 0.9257988 0.9249754 0.9239746 0.9239745
0.9255993 0.924854 0.92536044 0.92550194 0.9255846 0.9248566 0.9249915 0.92594665
0.9239746 0.92524964 0.9252922 0.92538995 0.92397445 0.9239746 0.9243298 0.9247788
0.92570114 0.925343 0.9248424 0.925183 0.92481595 0.9242966 0.9255235 0.92535627
0.9247537 0.9249917 0.9254365 0.9251114 0.9251428 0.92397475 0.9239746 0.9251431
0.9240501 0.9254541 0.92556113 0.9257959 0.9239746 0.92408293 0.92400795 0.92396396

newsencoder.doc_encoder.layer.2.bias f4 [128]
00000000: a166 81bc f9b1 52ba 9dbe 4bbc 61a6 4cbc
00000010: c82d b1bc 4c39 9bbc d823 a73c 35c6 403a
00000020: 3909 c1ba 95f1 ef3b bc11 49bc a026 04bc
00000030: 3b4e 9dbc 675a 833b 37d0 15bc ca92 a4ba
00000040: 6229 56ba efc2 01bc e043 c8ba b648 b33b
00000050: 3985 2bbc 2baf 8c3b d44c b6bc de4f 363b
00000060: 821b c139 a7dd e43b e868 7dbb bcf8 183c
00000070: 74a7 903a 96e0 ac3b ff0e 763a a1ad 0dbb
00000080: e91b e93b 5f25 dcbc 0df4 4f39 6857 27bc
00000090: e4d7 bd3b 9d89 8abb 6f01 46bc 7b3b a03a
000000a0: 248b 563c 8e6c 97ba 7f3d 343c b8a8 4ebb
000000b0: a0ef b13b a43f 8ebb 6053 463a e592 693c
000000c0: 26c8 dcbb a750 5bbc f10d c23b bd71 5dbc
000000d0: 1e47 59bb 4fe4 43bb bf62 113c fe18 b43b
000000e0: aba7 afba 07d4 dcbb 59fa 453c c40e 053c
000000f0: 51bf 4e3b 6da5 063c a457 833b 084a 3e3c
00000100: bea1 36bc 1e4f 17ba 6d23 d6bb f855 1d3c
00000110: 8ab0 10bc 0c58 043b 8226 2bbb f0aa 0fbb
00000120: 6508 e4ba 3c87 6bbc e110 043c 00f3 6e3c
00000130: 2efc 2b3c a8b6 77bc 45f6 293c a98e 6dbb
00000140: a6aa 183a edac 593c 6905 913c 9788 393c
00000150: 88e5 64bc 7623 bc3b c48c d4ba 6d3a 913c
00000160: d011 5f3c 2048 a4bb 602f 373c e363 a1ba
00000170: c0be 363b e18d 713b b6ac 04bb a7f6 253c
00000180: 532b 0b3b 43e0 29bc d884 2fbc 2a3a c53a
00000190: c8d7 9e3a 2481 443a 9ffe 183c 6bb0 2fbc
000001a0: dee8 5dbc e563 4fbb 1be5 c7bc 189e 273c
000001b0: 8ade 72bc 860b 6abb b535 e23b cdee 31bc
000001c0: 8d56 cf3b cde6 4d3c 9e93 bc3c 9d6b 5cbc
000001d0: bc67 853c b3f9 51bc f258 1d3c 14b1 58bc
000001e0: 5035 1ebc 1844 943c 24bf ed3b 2d47 3b3b
000001f0: e55f aebb 3043 89bc febf 073b a01d 3d3b
-0.015796008 -0.0008037384 -0.0124355825 -0.01249084 -0.021628276 -0.01894822 0.020402834 0.0007353754
-0.001472748 0.0073225 -0.012272295 -0.00806585 -0.019202342 0.0040085795 -0.009143881 -0.0012555954
-0.00081696187 -0.007920011 -0.0015279017 0.0054713143 -0.0104687745 0.0042933426 -0.022253431 0.00278186
0.00036832324 0.006984431 -0.0038667265 0.009336647 0.0011036233 0.005275796 0.000938639 -0.0021618383
0.007113923 -0.026873289 0.00019831974 -0.01021371 0.0057935584 -0.0042278306 -0.012085303 0.0012224758
0.013094697 -0.0011552738 0.01100099 -0.003153367 0.005430177 -0.0043410826 0.00075655244 0.014256214
-0.0067377267 -0.013385928 0.005922072 -0.013515887 -0.0033153961 -0.0029890721 0.008873641 0.0054961434
-0.0013401409 -0.006739143 0.012083613 0.008121196 0.003154714 0.0082181515 0.0040082503 0.01161433
-0.011146961 -0.0005771982 -0.006534985 0.009603016 -0.008831153 0.0020194082 -0.0026115482 -0.0021921955
-0.0017397521 -0.014375504 0.008060665 0.014584303 0.010497136 -0.015119232 0.010373657 -0.0036248362
0.00058237684 0.013285858 0.017702775 0.011324069 -0.01397074 0.005741532 -0.0016216268 0.017728055
0.013615087 -0.005013481 0.011180729 -0.0012313094 0.0027884692 0.0036858248 -0.0020244545 0.010129607
0.002123554 -0.01036841 -0.010712825 0.0015047241 0.0012118751 0.000749605 0.00933805 -0.010723214
-0.013544289 -0.0031645235 -0.024401238 0.010230564 -0.014823565 -0.0035712435 0.006903375 -0.010860157
0.0063274563 0.012567234 0.023019608 -0.013453391 0.016284816 -0.012815881 0.009603726 -0.013225812
-0.009656265 0.018098876 0.0072554518 0.002857636 -0.00532149 -0.01675567 0.0020713801 0.002885677

newsencoder.doc_encoder.layer.2.running_mean f4 [128]
00000000: 2087 273d 59fa 9f3b d7b4 1c38 5579 9b3c
00000010: 75b1 bf3b 2fbe 1e3d 81a2 6939 0000 0000
00000020: 82ec 313d 0400 0000 b8ae b53a 573b 343c
00000030: cbf2 3438 875a b93c 0400 0000 7a1f 4e3d
00000040: 0400 0000 34f8 2738 0400 0000 2ea7 043a
00000050: b5eb d138 0400 0000 d24d 293d d7a9 423d
00000060: 1b2c 293d 8d59 f13b 31b0 893c af97 083d
00000070: 51e9 2b3d 2218 c63b 0400 0000 0000 0000
00000080: 0400 0000 1ca6 433c 5d45 c73c 9a88 9b3a
00000090: 0400 0000 4330 d33c f926 063b d40a 253d
000000a0: 1d8e 273d 0400 0000 35d8 c23c 0c4b d837
000000b0: 8ef4 1b3d f6e1 c13b 0400 0000 f38b 323d
000000c0: 0447 013d d5e6 153b bfd8 1e3b 8e17 083d
000000d0: 9906 043c 9897 d63a 61e0 2b3c 744e ad3c
000000e0: af05 df39 435c 9936 426c ce3c 1e68 de38
000000f0: 3772 903c 9e88 123d 34de 303d 6214 0539
00000100: d536 3c3d 490c 4337 acff 393c d5b2 523c
00000110: 24ed 163d 21ce 363c 4291 843c e801 bc3c
00000120: 4eb9 093d 0000 0000 ca6a 4f3a 0400 0000
00000130: 6230 3539 9bcf db3b bcce 4d3c 0000 0000
00000140: 9702 1a3d 05a8 a326 8dc2 3b3d 0000 0000
00000150: ff5d a53b d73d 103c 0000 0000 0400 0000
00000160: 67a4 633b ef3a 1f3c 5ca3 0f3d 660c b53c
00000170: f0dc 763c 0a82 8a37 4b16 9e3b c455 433d
00000180: 0000 0000 212b 953c 2b76 803c 225c 603c
00000190: 0400 0000 0000 0000 bee1 3736 bdee 4b3c
000001a0: cc35 3e3d 865a 7f3c b83b 353a eb61 ae3c
000001b0: fdb9 8e3c d1d6 d939 50e1 0b3c 2429 003d
000001c0: 1804 0a3b ed55 073d ee39 0d3d b3ec b93b
000001d0: 26de 6f3c 0400 0000 0000 0000 4ba4 6a3c
000001e0: 3e94 7737 da4f 1d3d 0e36 723d c6bb 173d
000001f0: 0400 0000 24e3 6e39 0400 0000 c6fe 2d26
0.04090035 0.0048821387 3.736172e-05 0.018978754 0.005850012 0.038755592 0.00022281149 0.0
0.043438442 6e-45 0.0013861274 0.011000476 4.3141463e-05 0.022626175 6e-45 0.050322987
6e-45 4.004706e-05 6e-45 0.0005060312 0.000100098005 6e-45 0.04133398 0.047525253
0.041301828 0.0073654116 0.016807647 0.03334778 0.041970555 0.0060453573 6e-45 0.0
6e-45 0.011941459 0.024325067 0.0011866272 6e-45 0.025779849 0.0020470007 0.04029353
0.040907014 6e-45 0.023784736 2.5784153e-05 0.038075022 0.005916829 6e-45 0.043590497
0.031561866 0.0022873182 0.0024238077 0.03322559 0.008058214 0.0016372083 0.010490508 0.021155573
0.0004253811 4.570496e-06 0.025198106 0.00010605178 0.017632587 0.03577482 0.04318066 0.00012691462
0.04595073 1.1625766e-05 0.011352461 0.01286002 0.03684725 0.011157543 0.016182546 0.022950128
0.033623986 0.0 0.0007912336 6e-45 0.00017279529 0.006708098 0.012561496 0.0
0.037600126 1.1355939e-15 0.045839835 0.0 0.0050466056 0.008803806 0.0 6e-45
0.0034735443 0.009718641 0.0350679 0.022100639 0.015067324 1.6511436e-05 0.004824435 0.047689214
0.0 0.018209042 0.015681347 0.013693841 6e-45 0.0 2.7400524e-06 0.012447056
0.046438023 0.015585547 0.0006913501 0.021286925 0.01742267 0.00041549516 0.008537605 0.031289235
0.002105957 0.03304093 0.034479074 0.0056739687 0.014640367 6e-45 0.0 0.014321397
1.4756863e-05 0.03840623 0.05913358 0.03704431 6e-45 0.00022782065 6e-45 6.0366715e-16

newsencoder.doc_encoder.layer.2.running_var f4 [128]
00000000: 5e5a 5939 6429 9838 8f9d 3234 bade 2b39
00000010: ff68 7338 9497 6239 d9d4 0436 0400 0000
00000020: 207f 3b39 0400 0000 95ea 6537 a3bc 0839
00000030: aa6e d034 c2a2 1e39 0400 0000 bdac 3339
00000040: 0400 0000 c2c6 b734 0400 0000 70ad 8037
00000050: 4a67 2235 0400 0000 4b20 df38 14ce 4f39
00000060: bd4e 7339 7db2 bb38 9a14 1439 d96a bd38
00000070: c422 1b39 486a 9e38 0400 0000 0400 0000
00000080: 0400 0000 aaad 0139 489b 8939 eba5 3f37
00000090: 0400 0000 f741 3139 3b3e e437 7e31 2939
000000a0: 9a89 3839 0400 0000 18dd ba38 6b83 0834
000000b0: e31c 2439 e7d9 e938 0400 0000 2c76 2739
000000c0: f1ae 9539 dffc 1938 9439 1b38 cbf3 3339
000000d0: ab3a df38 06df 9a37 8838 e738 ffe7 4339
000000e0: 8d28 0137 7cce 7032 8e3b 4439 12de 3c35
000000f0: 2ad1 3739 1bdf 0e39 2e4f 4e39 57a8 0636
00000100: c4ef 2b39 4595 9a33 fed9 1239 6da7 1239
00000110: eb8a 7e39 0743 aa38 e196 0d39 953a 2239
00000120: d561 6a39 0400 0000 3cdb cc36 0400 0000
00000130: 7d06 0136 b028 8a38 4a42 4739 0400 0000
00000140: 8bdb 5039 5335 8522 3eb0 1a39 0400 0000
00000150: 1293 9a38 f9c7 d238 0400 0000 0400 0000
00000160: e14a 7c38 08f7 a938 011e 1539 98bc 1b39
00000170: 2b53 2039 094e 8d34 be57 6038 e9ad 8a39
00000180: 0400 0000 83d0 1739 0827 9639 8828 cc38
00000190: 0400 0000 0400 0000 442a f731 8c03 a738
000001a0: 9dca 1939 7507 ea38 80ed f236 97cf 0139
000001b0: e143 0739 2b11 9336 3e40 e638 343c fe38
000001c0: fec6 ed37 e0b1 0439 e6f4 5339 a204 ac38
000001d0: dda7 1f39 0400 0000 0400 0000 bf7a f738
000001e0: 39be 8833 04b8 3639 f8f0 2e39 d7f6 7639
000001f0: 0400 0000 ee8e 4936 0400 0000 509f 0522
0.00020728397 7.2556344e-05 1.6634861e-07 0.00016390803 5.80335e-05 0.00021609507 1.9793426e-06 6e-45
0.00017881067 6e-45 1.37040815e-05 0.00013040243 3.8823538e-07 0.00015128686 6e-45 0.0001713512
6e-45 3.4231022e-07 6e-45 1.5339552e-05 6.050001e-07 6e-45 0.00010639484 0.00019817828
0.00023203618 8.950101e-05 0.00014122055 9.032124e-05 0.00014794903 7.5538235e-05 6e-45 6e-45
6e-45 0.00012367094 0.0002624637 1.1423118e-05 6e-45 0.00016904609 2.7208696e-05 0.00016135533
0.00017598868 6e-45 8.910353e-05 1.2713797e-07 0.0001565102 0.00011150893 6e-45 0.00015970384
0.00028549836 3.6713547e-05 3.7008504e-05 0.0001716159 0.000106443964 1.8462084e-05 0.00011025468 0.00018683074
7.698441e-06 1.4016788e-08 0.00018714202 7.035861e-07 0.0001753016 0.00013625289 0.00019675188 2.0065543e-06
0.0001639715 7.198336e-08 0.00014004853 0.00013986016 0.00024275079 8.1187165e-05 0.00013503015 0.00015471347
0.00022352424 6e-45 6.105196e-06 6e-45 1.9226275e-06 6.5879314e-05 0.00019002813 6e-45
0.00019918212 3.610618e-18 0.0001475224 6e-45 7.370686e-05 0.00010050828 6e-45 6e-45
6.015122e-05 8.104561e-05 0.00014220925 0.00014852209 0.00015289772 2.6320075e-07 5.3487478e-05 0.00026450984
6e-45 0.00014478159 0.0002863931 9.7350276e-05 6e-45 6e-45 7.193451e-09 7.963841e-05
0.00014666696 0.000111593785 7.2398107e-06 0.00012379732 0.0001289989 4.38294e-06 0.00010979221 0.000121228775
2.8345265e-05 0.00012654765 0.0002021376 8.202462e-05 0.00015225956 6e-45 6e-45 0.00011800741
6.367595e-08 0.00017425424 0.00016683701 0.00023552343 6e-45 3.003453e-06 6e-45 1.81092e-18

newsencoder.feature_fusion.linears.0.weight f4 [96, 128]
00000000: d2af 13bd a10a fbbc a266 093d be9c 01bd
00000010: dd94 27bd e10c 923d 11a2 ccbb cac5 81b8
00000020: 2e6e 3f3d 51a1 553c 47b5 253c 5e5d 953d
00000030: dcbc 103c 1dcb 5fbd 1a4d 203b b3b0 bebc
00000040: ae92 26ba 1952 22bd f8e7 b93c c34f 073d
00000050: 290f 4d3b f72f a8b9 f722 4ebd 4e2d 793d
00000060: d14a 783d 542c fa3b 62a5 71bc 228d 783c
00000070: 1648 a73b ceac 843c 8e33 8cb8 e6f7 2139
00000080: 7919 14ba 7a3b 383d 30e8 4fbd 34bb 9dbc
00000090: c735 e3b9 9239 c5bc 7bd2 093d 3293 b6bc
000000a0: e444 8e3c d6e9 9d3c 8655 63bd b41d 0a3d
000000b0: aef0 463c 9ad1 23bc f90a 823b 32e8 f8bc
000000c0: 888b 233d 8f58 80bc edd8 79bc 2771 6abd
000000d0: a63d 7b3d 6cfe 5c3d 0616 6ebd 055e 963d
000000e0: 58a6 85bb 57d8 81bb 4b8d febc 8867 5a3d
000000f0: 8337 373c 5161 e53c 7642 c73c cb53 b6bc
00000100: 87f3 72bc 65a2 eabb 3423 d03c 112d c43c
00000110: 8c47 12bd 187f 8ebd d1ab 6b3d d5cd 0ebc
00000120: fa71 5dbd c851 7f3a fc1f c03b bb4d b7bc
00000130: f45a d8bc 09e2 5e3d 3653 6fbc 9d88 913b
00000140: dc21 1bbd 2f8b f9ba ebed 4dbd df35 f1b9
00000150: b670 5ebd fdc9 763a fc90 09bc b107 d3ba
00000160: 1251 b5bc f4bc 1a3d 562f 3fbc 1754 943c
00000170: 7f59 4bbd 1e4a dbbc e244 b73c 5b5d 9b3c
00000180: bc90 1cb9 22aa 22bd 8029 54bc 43fb 023c
00000190: 3755 b2b8 9a9f 27b8 d916 e3bc ee20 1b3d
000001a0: c9ba 6dbc c038 dcbc 9cfa c8bc 748d afbc
000001b0: bebd 9b3d c565 14bd c55c 9abd 5442 f93c
000001c0: 6503 94bd aae8 8c3d 41b0 f33c d191 7d3d
000001d0: eff9 fdbc cd73 8e3c afc2 82b9 5332 813d
000001e0: 15a6 38bb 9142 b8bc 5f2c 963d b896 d1bc
000001f0: 3c62 fc39 147a da3c a42e 983a a7bf 24b8
00000200: e758 bebc 88ca d63c 3a36 a0bc 0643 33bd
00000210: ef14 9f3b 7ad1 143c fa3d 5dbd 499d 62b9
00000220: a96a e1bc 573e 34ba 6cdf 823d fa29 4fbd
00000230: 8622 0dbd 3aa5 993d be1e 743a 96d3 09bd
00000240: 69ad 8a38 4e8d d2bc 4c4d fb38 2bf1 02bd
00000250: 6195 433a 60bc cdb9 08a1 9c3d 9890 343d
00000260: 80e4 2b3c eae2 7a3d 742c b13d 2f7e 31bd
00000270: ea9f 5ebd 0cc5 c0ba 4066 dbb8 298d 5339
00000280: 25ac 2a3c b217 773c d754 bab9 dd2f 143d
00000290: f5a8 16bc f3ac 2f3d bce6 dfbc 345a 5ebd
000002a0: 27ae 68bc fedc a53c f7a4 fbbc ed16 02bd
000002b0: 0d19 4e3d e58e a3bb 40a3 95ba d980 3d3d
000002c0: d929 fa3c e555 cb3c 1b7a 8d3d 5d59 94bd
000002d0: 4d06 ddbc b7bb 3e3d 9686 89bd 2a70 95bc
000002e0: 9f3c e63c 7cdd 923a e4ba 843c 5830 15bd
000002f0: 6f13 e93c baae 3cbd 6e1f a13b c08c cfbb
00000300: 73e6 6c3d 5b92 38bd 1141 5abd 3a59 863d
00000310: 4811 a33d ea50 7638 6cda 783d d1e2 24bc
00000320: b122 8d3d 17de 2bba 14d4 27bd 1ada c7ba
00000330: ec86 babc d5dd 3f3d 7b7e bdbc 8efd 8d3b
00000340: 141c 95bd 450c e8bb f339 fbbc b740 9bba
00000350: 161a ad3d 251d ec3c 4ba8 1fbc df11 c0bc
00000360: 43ac 0d3d b46e 203d 863e 663d 4d33 65bd
00000370: 6485 58bd 65b9 223d 9981 813d d72a 063c
00000380: ed75 b0bc b6f6 9f3d f196 0b3d bbc7 ecbc
00000390: 7d05 d7b8 422b 11b8 d2e3 ec3c 4587 f23b
000003a0: d972 3b3d b2f9 fd3c c0a1 ffbc 8f62 9abd
000003b0: 2326 3e3d b571 1ebd 1210 063d 7ee0 1e3d
000003c0: e337 7fbc 948d 37bd 2591 8f3d 1851 20bd
000003d0: 48ff 8a3d bb78 3c3c 14cb 8e3c 72d0 9d3d
000003e0: 00a1 babb faad 6a3d 7a84 90bd f962 2b3c
000003f0: 5d2d 80bb ab0b 4ebd 40c0 703a cf59 33ba
-0.036056347 -0.030644717 0.033545144 -0.03164362 -0.04091345 0.07131363 -0.0062449058 -6.1880404e-05
0.046735935 0.013038949 0.010114021 0.07293199 0.00883409 -0.054637063 0.0024460019 -0.023277616
-0.00063542544 -0.039629076 0.02269362 0.03303505 0.0031289554 -0.00032079194 -0.050326314 0.06083422
0.060618225 0.007634679 -0.014748903 0.015170367 0.005105029 0.016195681 -6.685323e-05 0.00015446506
-0.00056495477 0.044978596 -0.05075854 -0.019254304 -0.0004333688 -0.024075303 0.033647995 -0.022286985
0.017366834 0.01927654 -0.055501483 0.033719733 0.012142343 -0.009998703 0.003968593 -0.030384157
0.03992799 -0.015667228 -0.015249473 -0.057236817 0.06133809 0.053953573 -0.058126472 0.073421516
-0.0040786676 -0.0039625573 -0.031073233 0.05332139 0.011182669 0.028000506 0.024323683 -0.022256752
-0.014828569 -0.007160472 0.025407411 0.02394727 -0.035712764 -0.06957835 0.057536904 -0.008716066
-0.054063775 0.00097396644 0.005863188 -0.022375932 -0.026410557 0.054414783 -0.014607241 0.0044413344
-0.037874088 -0.0019038672 -0.050275724 -0.0004600724 -0.05430671 0.0009414254 -0.008396383 -0.0016100315
-0.022133384 0.037777856 -0.011669001 0.018106503 -0.049645897 -0.02676874 0.022371713 0.018965414
-0.00014931237 -0.039713033 -0.0129493475 0.007994476 -8.503574e-05 -3.9964543e-05 -0.027720856 0.0378732
-0.014509865 -0.02688253 -0.024533562 -0.021429755 0.0760455 -0.036229867 -0.07537226 0.030427136
-0.0722721 0.06880315 0.02974713 0.06190664 -0.031002967 0.017389202 -0.00024940583 0.06308427
-0.0028175164 -0.022492679 0.07332682 -0.025584564 0.00048138376 0.02666954 0.001161058 -3.9279137e-05
-0.023235751 0.026219621 -0.019557107 -0.04376509 0.0048547904 0.009083146 -0.054014184 -0.00021611633
-0.02751668 -0.00068757444 0.063902706 -0.05057714 -0.034456752 0.075022176 0.0009312442 -0.03364905
6.612653e-05 -0.025702145 0.0001198301 -0.031968277 0.0007460919 -0.00039240997 0.07647902 0.044083208
0.01049149 0.06125156 0.08651057 -0.04333323 -0.054351725 -0.0014707162 -0.00010461779 0.00020175114
0.010417019 0.015081333 -0.00035539895 0.03617846 -0.009195556 0.042889547 -0.027331702 -0.054285243
-0.014201677 0.020246979 -0.03071831 -0.031760145 0.05031686 -0.0049913996 -0.001141645 0.046265457
0.030537533 0.024821231 0.069080554 -0.07243607 -0.026980544 0.046565738 -0.06715123 -0.01824196
0.028105078 0.0011204924 0.016202398 -0.036423057 0.02845165 -0.04606507 0.004917077 -0.0063339174
0.05783696 -0.04506145 -0.05328471 0.06559987 0.079622805 5.8726328e-05 0.06075518 -0.010063843
0.068913825 -0.0006556226 -0.040973738 -0.0015247494 -0.022769414 0.046842415 -0.0231316 0.0043332046
-0.07280746 -0.0070815408 -0.03066728 -0.0011844848 0.08452241 0.028822491 -0.009744714 -0.023446022
0.03458811 0.039168075 0.05621197 -0.055957127 -0.052861586 0.039727587 0.06323547 0.008188925
-0.021540606 0.07810728 0.034079496 -0.028903833 -0.00010253021 -3.461098e-05 0.028917227 0.0074013793
0.045763824 0.031002853 -0.031205058 -0.0753833 0.04642309 -0.03868266 0.03273017 0.03878831
-0.015577289 -0.044812754 0.07010106 -0.039139837 0.06786972 0.011503394 0.01743082 0.077057734
-0.005695462 0.057294823 -0.07056518 0.010460609 -0.0039116577 -0.050304096 0.0009183921 -0.00068416906

newsencoder.feature_fusion.linears.0.bias f4 [96]
00000000: 7ee5 6abd ab39 c9bd 5ea7 f7bc 8822 323c
00000010: e925 6c3c f33b 993b c97a 99bd 78ae 06bd
00000020: 4d5e 65bd a62d d7bb 67fb 40bd c5bf afbb
00000030: ddd1 b1bb 84f0 adbd 9d13 753d 5c04 d33b
00000040: 139f 0b3d e97e 233d c27f ed3b 5418 1a3c
00000050: cdd8 a7bd 77b6 153d 5887 953d 8faa 23bd
00000060: 81f0 8f3d 3824 15bd 58b3 1e3d 3996 33bd
00000070: 1b68 c3bc 0af9 4bbd d114 6f3d d06b a0bc
00000080: 91e1 a0bd 3d75 353b bc0d 60bd 09fa 49bd
00000090: c4d4 4fbd 6d7e 8fbd 5609 80bd c92b 1d3d
000000a0: 1529 f1bc 78c5 2b3c 9c3d b43d 2c21 173d
000000b0: b240 c13d d6ae a43d 9024 303c b6f5 413d
000000c0: b404 8a3d 9bd7 89bd e6f0 83bd 9453 613d
000000d0: 6dce 453d 67cb bc3c 61ad 003c 450a 81bd
000000e0: d347 9f3c a596 57bb 1593 b2bb 9956 9b3d
000000f0: 9119 543d 1354 1a3c 70cd 9abc ee8a 73bd
00000100: 4bae 193d c147 c33d d9c7 dcbc d5a3 6ebd
00000110: 362d 953d 8d7b 89bd fed0 b53d c842 f83b
00000120: c8ca 923d 405a a33c d452 c33c 9f0a 9ebd
00000130: 05dd 4ebc 1467 843d a5c2 13bd 0a18 9a3d
00000140: ec49 6ebc c963 65bd 4b5d 76bd b4f9 8ebd
00000150: d25b 1b3d 1035 4dbd 3072 123d 423a 9ebc
00000160: 7de8 6c3d cff5 823d 2724 93bd 8d21 84bd
00000170: 55eb 683d 6cee f9bc fc4b 7fbd eb20 51bd
-0.057347767 -0.098254524 -0.030231174 0.010872491 0.014413335 0.004676336 -0.074941225 -0.03288123
-0.055998135 -0.006566721 -0.047114756 -0.005363437 -0.005426629 -0.0849314 0.059833158 0.0064397287
0.034087252 0.039915953 0.007247896 0.009405214 -0.08195648 0.036550965 0.073012054 -0.03995758
0.07028294 -0.036411494 0.038745254 -0.043844435 -0.023853352 -0.04979805 0.05836946 -0.019582659
-0.078555234 0.0027688288 -0.054700598 -0.049310718 -0.05074002 -0.07006536 -0.06251781 0.038371835
-0.029438535 0.010484092 0.088008136 0.03689687 0.09436168 0.0804116 0.010750905 0.04735347
0.06739178 -0.067305766 -0.06442432 0.055011347 0.048292566 0.023046209 0.007853837 -0.06300787
0.019443428 -0.0032896188 -0.0054496625 0.075848766 0.051782195 0.009419459 -0.018896788 -0.059458666
0.037519734 0.0953517 -0.026950764 -0.05826171 0.07284014 -0.067130186 0.08877753 0.0075763203
0.07167584 0.019940495 0.023843206 -0.077168696 -0.012625937 0.06464973 -0.0360743 0.07524116
-0.014543992 -0.056003366 -0.060147565 -0.06981221 0.037929364 -0.050099432 0.03575343 -0.019314889
0.057838906 0.063945405 -0.0718463 -0.06451712 0.056865055 -0.030509196 -0.062328324 -0.051056784

newsencoder.feature_fusion.gates.0.weight f4 [96, 128]
00000000: bb95 2dbd cda4 00bd f510 11ba 505d f53c
00000010: 090f db3b a850 ea3b b77c 853a 5c52 bdba
00000020: 45a2 773c f86d 743b d815 e73b de4b 253d
00000030: 7fa0 d03c b274 4d3a 8126 11ba ec4f fa3c
00000040: 4753 4eb7 131d 5ebb 6ada dfb7 e7be 503b
00000050: c92d d6bb c5f1 c93a abfe 04bd f804 29bb
00000060: 9034 7ebd 355b c33c a631 8bbc c11a 7338
00000070: 7786 0a3d f575 403b 7a1e e9b6 55d7 7cb6
00000080: 0d3f 0139 60bb ee3c 055f f23b cbae d43c
00000090: 86a6 483b 3632 09bb fb77 0c3d a66d 2f3c
000000a0: aec3 073d 3237 97bc ed8c 48bd 8b17 6839
000000b0: 1e6d 863c c5a7 44bc 584a aa36 d6e7 a93c
000000c0: 5071 353d 3d83 173c 7559 0e3d 2e4c 3c3d
000000d0: cffb 883c 7f5c 7c39 c19b 31bc adc5 2dbd
000000e0: 7193 683c 6eb6 92b7 3c5b 98bc d323 18bc
000000f0: 840f e4bc 0732 6dbb e7d8 c33c 6839 8c3c
00000100: 6a11 d7bc 31bb a939 ff96 85bc 84f5 3fbd
00000110: f0a3 fa3c 3299 273d f17b 343d 4f6c 243d
00000120: 06fa 52bc a1f5 81b8 4126 4e3c 2e85 8cbb
00000130: 99a6 073d ecb4 28bd 14ce f73a 475e cbb7
00000140: ffec 903c f17d 063c b184 e43b 6d2b bf37
00000150: e635 423d 1a80 4ebd ce71 b1b7 26f9 80bc
00000160: 632b 8d3b e185 f43c 2d61 c83c 1198 91bc
00000170: 8f0f acbc c980 1f3c a821 21bd b2cc 24bd
00000180: d84b 0e3c 8c1d a33c 7a97 15bd be1e 31bd
00000190: d032 3437 fdd9 8c36 993a eaba 61db 493d
000001a0: 770b f33c 9341 203d ad07 e83b 1387 ad3a
000001b0: 36a0 18bd e414 213c 5ba5 31bc f4c8 98bb
000001c0: 3a83 013c 0f6a 0d3d 0420 813c 546e 47bd
000001d0: eb05 083b 1b0a bb3b dc20 c838 a810 1f3d
000001e0: 453a 91bb 7153 12bd e251 323d a830 c5bc
000001f0: b9d5 cf3b 4cbf a43c 98b2 5cbb 57ad 7ebc
00000200: ec2d afbb 3085 22bd 8401 7c3c d93c f33c
00000210: cf6d 3b3d 430a b4bc 9b27 cc3b 887a 05b6
00000220: a555 16bd 8896 c8b8 4ac1 a73c 704e 8e3b
00000230: 7cad d23c 518c 1a39 0f30 2437 3b63 b43c
00000240: 871d 66bb 1694 70bc 719f 0fbb 529a 25bc
00000250: bfb4 453b c830 d1b9 2ae9 55bd cd3a cfbc
00000260: 943b 44bd feb2 d3bb 673b 50bd ae95 dabb
00000270: 0828 21bd 299f 34bd 36c1 ae3b 5edc a83c
00000280: d1d8 95bb c11a 0e3c 63ef 38bd 9cc4 01bd
00000290: 00e3 70bc c2c9 0fbd 3be2 533d 9e32 923c
000002a0: 2564 983c 3b74 8dba d05e a83c 5900 a0b9
000002b0: 5252 5f3c d272 e5b7 54bc 44ba b88a be3c
000002c0: 295a 213d bdcd d8bb 6197 113d 3f45 7b3c
000002d0: 5e41 583c dcd4 143d dcba 253a c5a6 593c
000002e0: 8128 bebb 6551 45bc 0440 573a 5bc8 f03b
000002f0: b467 ccbb c42e d33b 22f5 21bc f853 963c
00000300: 12a2 54bd a04c 183a 421d 1e3b d01c 603c
00000310: 0bca 75bc fb7b af3b 3bdb 38bd 15a3 a33c
00000320: ab83 95bc dfab 8a3b 78e6 333d 7ec4 6f3c
00000330: ed6a 6abc f3d2 b13c e3ad 92bc d0d5 93b7
00000340: 091c e93c 355c 62bc 7675 49bd 6f6f dd37
00000350: 8596 a43a a5ce f9bc d82a fa38 48c6 143b
00000360: 0884 50bc 3ff8 41bd 7fe0 213c b24a 07bd
00000370: 73a9 a6b8 d3dd 16bb bce7 af3c 515b d03b
00000380: ad5f 92bb 3be2 5fbd 35a3 c9bc 8dca 58bd
00000390: 3d80 09b7 c47d e6b7 3649 bfba 8dfb 5abd
000003a0: d98d 323d 8fe0 01bd e415 4bbc 0398 1b3d
000003b0: b05a 86bb 9999 d3bb 6d05 9b3c 9b22 93bc
000003c0: 899f c73c bd71 273b 9a22 033d 259d d33b
000003d0: db4e 05bd cf14 41b9 1e48 a5b7 f13e cebc
000003e0: 7c34 e43b aafc e53c 911b b8bc 9a16 0dbd
000003f0: 542b f1b7 c33e 9e3c 2a3b 03b7 f6e3 1e3c
-0.042379122 -0.031407166 -0.0005533838 0.029951721 0.006685142 0.0071507283 0.0010184263 -0.0014444101
0.015114372 0.0037296992 0.0070521645 0.040355556 0.025467156 0.00078375184 -0.00055370486 0.030555688
-1.2297946e-05 -0.0033891841 -2.6685379e-05 0.0031852068 -0.0065362197 0.0015407136 -0.032469433 -0.0025790315
-0.062061846 0.023847202 -0.016991448 5.796063e-05 0.033819642 0.0029367183 -6.947489e-06 -3.7676266e-06
0.00012325887 0.029142082 0.007396581 0.025962254 0.0030616834 -0.002093447 0.03429411 0.010707295
0.0331456 -0.018458936 -0.048962522 0.00022134015 0.016409453 -0.01200289 5.0750496e-06 0.02074043
0.044297516 0.009247598 0.03475328 0.045971088 0.016721634 0.0002406705 -0.010840357 -0.042424846
0.014195309 -1.7489507e-05 -0.018598191 -0.009285885 -0.02783943 -0.0036193149 0.023907138 0.017117217
-0.02625342 0.0003237366 -0.016307352 -0.046865 0.03059575 0.040917583 0.044063512 0.040142354
-0.012876993 -6.196951e-05 0.012582363 -0.004288337 0.033117864 -0.041188166 0.001890602 -2.4243387e-05
0.017691134 0.008208738 0.006973826 2.2789196e-05 0.047414683 -0.050415136 -2.1153039e-05 -0.015743803
0.0043081506 0.029848995 0.0244604 -0.017772706 -0.021003513 0.009735295 -0.039338738 -0.040234275
0.008685075 0.01991155 -0.036521412 -0.04324221 1.0740667e-05 4.1977023e-06 -0.0017870247 0.04928148
0.029668553 0.039125036 0.007080993 0.0013239108 -0.037262164 0.009831641 -0.0108426465 -0.0046626274
0.007904822 0.034524973 0.015762337 -0.0486892 0.002075548 0.005707992 9.542864e-05 0.038834244
-0.004431995 -0.035724107 0.04353512 -0.024071053 0.0063426164 0.020110749 -0.0033675786 -0.015544257
-0.0053460505 -0.0396778 0.015381221 0.0296921 0.04575902 -0.02197755 0.0062303073 -1.9889867e-06
-0.03670277 -9.564782e-05 0.02047791 0.0043428466 0.02571749 0.00014738856 9.786351e-06 0.022019973
-0.0035112815 -0.014683744 -0.0021915103 -0.010107594 0.0030167548 -0.0003989993 -0.052224316 -0.025296593
-0.04790838 -0.0064605465 -0.0508379 -0.0066706752 -0.039344817 -0.0440971 0.005333091 0.020612892
-0.0045729657 0.008673371 -0.045150172 -0.031681642 -0.0147025585 -0.03510452 0.051729422 0.017846402
0.01860244 -0.0010792086 0.020553023 -0.00030517837 0.013630467 -2.7352395e-05 -0.000750487 0.023259506
0.039392624 -0.006616323 0.035544757 0.015336334 0.0131991785 0.03633581 0.00063220947 0.01328439
-0.0058031683 -0.012043332 0.0008211138 0.007348103 -0.0062379483 0.006444784 -0.009885104 0.018350586
-0.051912375 0.0005809758 0.0024126326 0.013678744 -0.015001784 0.005355356 -0.04513095 0.019975225
-0.01825126 0.0042319144 0.043920964 0.01463425 -0.01430772 0.021707034 -0.017905181 -1.762333e-05
0.028455751 -0.013815929 -0.049184285 2.6397143e-05 0.0012557065 -0.030494044 0.00011928909 0.0022701193
-0.012726791 -0.047355887 0.009880184 -0.03303022 -7.947059e-05 -0.00230204 0.021472804 0.006358542
-0.004466972 -0.05465911 -0.024613956 -0.052927542 -8.195694e-06 -2.74767e-05 -0.0014593962 -0.053462554
0.043592308 -0.031708296 -0.012395356 0.037986767 -0.0041001663 -0.0064575193 0.018923486 -0.017960837
0.024368064 0.002554997 0.03201542 0.006457942 -0.032545906 -0.00018413666 -1.9703115e-05 -0.025176497
0.0069642644 0.028074581 -0.022474082 -0.034445383 -2.8749615e-05 0.019317036 -7.821984e-06 0.009697905

newsencoder.feature_fusion.gates.0.bias f4 [96]
00000000: 8e2c 233c 3091 23bd ec6d 153d a944 29bd
00000010: 1468 863c 9b96 2a3a f248 81bc a764 143d
00000020: e202 6c3c d79f 4e3d 8eee a73c 4fc8 d5bc
00000030: d867 663d 2bc6 c63c b64c 19bc e7fb cfbc
00000040: 84e5 f9bc 50aa 353d fce7 f8bc 3ab8 913b
00000050: 531f ee3b a9c5 5b3c a84d e03c 16e1 32bd
00000060: dce8 2ebd d3f3 36bb b52f dcbb aad7 b63c
00000070: 95e3 31bc c88f 8f3b 3c55 c4bb 14f0 31bc
00000080: 009c 1e3c 5835 28bd 5572 0d3d 1bcc e03c
00000090: a41b 0c3d 4a13 cbbc f897 5bbd 5a88 3d3c
000000a0: c546 b93b 93ba b8bc f1f1 b53c 32b1 1c3d
000000b0: 169c 1bbd 3970 33bc c5d2 9e3b 3650 f93c
000000c0: f1c6 bfbc d699 e6bb 3dd6 df3c 5a23 ce3b
000000d0: 8c4f 953c 3be9 f4bc ff36 c3bb 51b4 c13c
000000e0: 454b 2dbd a55b 013d be2d 22bd 70fa 8e3c
000000f0: c1e4 d5bc 686c 413d 7fd6 59bb 775b 0cbd
00000100: e702 4ebb 0f42 65bc ff38 c83b baaf 5d3c
00000110: 16a2 30bd 00d2 46bd dc82 743a 0bf4 23bd
00000120: 3d1f b0bc 7547 12bc c127 24bc 6531 35bc
00000130: 9591 f23c 8f2c 83bc 9692 46bd ec8e 5b3d
00000140: 1cd6 ac3c 8c3d a5bc 539b 31bd 1f66 3fbc
00000150: a628 8d3c aa07 1cbd 1b5c 583d f4d9 10bd
00000160: f545 3fbc cf18 cdbb f479 cb3c 8848 b8bc
00000170: c661 7ebd c287 5ebd 7d7a 74bc f3cf 513c
0.009959353 -0.039933383 0.036481783 -0.041325245 0.01640705 0.00065074273 -0.015781853 0.036228802
0.014404984 0.050445404 0.020499494 -0.026096491 0.056251377 0.024264416 -0.009356668 -0.025388671
-0.03050495 0.044351876 -0.030384056 0.0044470103 0.0072669177 0.013413825 0.02738078 -0.04367169
-0.04270254 -0.0027916327 -0.0067195543 0.022319634 -0.010857482 0.0043811537 -0.005991606 -0.010860462
0.009680748 -0.041066498 0.034532864 0.027441075 0.034206048 -0.024789471 -0.053611726 0.011568153
0.0056541883 -0.022549903 0.022210093 0.038254924 -0.037990652 -0.010952049 0.004846903 0.030433755
-0.023410292 -0.0070373816 0.027323836 0.0062908353 0.018226407 -0.02989637 -0.005957484 0.023645552
-0.04230811 0.03158154 -0.039594404 0.017453402 -0.026110055 0.047222525 -0.0033239422 -0.034266915
-0.0031434835 -0.0139928 0.00611031 0.013530666 -0.043123327 -0.048540115 0.0009327361 -0.04002766
-0.02149927 -0.0089281695 -0.010019244 -0.01105914 0.029610435 -0.016012458 -0.04847964 0.053603098
0.021098189 -0.02017095 -0.04336102 -0.011682062 0.017231297 -0.038093247 0.052822214 -0.035364106
-0.011674394 -0.006259061 0.024838425 -0.022495523 -0.062104963 -0.054328687 -0.014921782 0.012805927

newsencoder.layer_norm.weight f4 [96]
00000000: 2841 6d3f 1d82 6d3f 114c 6d3f 98b5 703f
00000010: ae75 6e3f 6fef 6c3f 5f20 6e3f 5749 6d3f
00000020: 70a2 6d3f 4a56 6d3f 80a4 6d3f 8f0f 6f3f
00000030: d9e4 6d3f a87c 6d3f 5d7c 6d3f 3154 6d3f
00000040: 0dfc 6c3f 9ed9 6d3f 3b86 6e3f 60e2 6d3f
00000050: 2b93 6e3f 3906 6f3f 510a 6e3f e830 6d3f
00000060: 3e6a 6f3f a577 6d3f 1d81 6d3f 934c 6d3f
00000070: df99 6d3f 9d43 6e3f ea3f 6d3f 4a3c 6e3f
00000080: 9d9d 6d3f 85e7 6d3f ba05 6e3f b24c 6d3f
00000090: c95c 6d3f 6f1c 6d3f 4a01 703f 1e4d 6d3f
000000a0: 5d7a 6f3f 8e8d 6d3f b0ef 6c3f 9b19 703f
000000b0: dd54 6d3f 1b0b 6d3f 8d33 6d3f 47da 6e3f
000000c0: ee22 6e3f 6634 6d3f 76ef 6d3f b07b 6d3f
000000d0: 41a1 6f3f 9fea 6d3f 79f5 6c3f d85c 703f
000000e0: 20af 6d3f 9048 6d3f d4ee 6d3f 5f0f 6d3f
000000f0: 197f 6d3f 0b87 703f 01e8 6d3f 1f05 6d3f
00000100: 3a0d 6d3f bb61 6f3f 91ba 6d3f f2b7 6d3f
00000110: 269d 6d3f 968f 6e3f 8585 6d3f af98 6d3f
00000120: 2435 6d3f a57c 6d3f 54e4 6c3f 56cb 6d3f
00000130: 001d 6e3f 094c 6d3f 326c 6d3f 0c8b 6e3f
00000140: 9ccd 6e3f 351c 6d3f 6a5b 6d3f 250a 6d3f
00000150: a627 6e3f 16e7 6c3f 34ab 703f 5e84 6e3f
00000160: cbab 6d3f b290 6e3f 7f6a 6f3f 3a23 6d3f
00000170: ba20 6f3f 1f09 713f 2041 6d3f be02 6f3f
0.92677546 0.9277666 0.92694193 0.9402709 0.93148315 0.92552847 0.93018144 0.9269003
0.92825985 0.9270979 0.9282913 0.93383116 0.9292732 0.92768335 0.9276789 0.9270659
0.925721 0.9291018 0.9317357 0.92923546 0.9319331 0.9336887 0.9298449 0.9265275
0.9352149 0.9276069 0.92775136 0.9269497 0.92812914 0.9307192 0.9267565 0.93060744
0.92818624 0.92931396 0.9297749 0.9269515 0.92719704 0.9262151 0.93751967 0.92695796
0.93546087 0.9279412 0.92553234 0.9378907 0.92707616 0.9259507 0.92656785 0.93301815
0.9302205 0.9265808 0.92943513 0.9276686 0.9360543 0.9293613 0.9256206 0.9389167
0.92845345 0.92688847 0.9294255 0.9260158 0.9277206 0.9395606 0.92932135 0.9258594
0.9259831 0.935085 0.928628 0.92858803 0.92817914 0.93187845 0.9278186 0.928111
0.9265921 0.9276832 0.925359 0.9288839 0.93013 0.92694145 0.9274322 0.9318092
0.93282485 0.92621166 0.9271761 0.92593604 0.9302925 0.9254011 0.94011235 0.93170726
0.9284026 0.9318954 0.93521875 0.92631876 0.9340931 0.9415454 0.926775 0.9336356

newsencoder.layer_norm.bias f4 [96]
00000000: 0997 4abc efdb 67bc cf17 54bb abd9 363a
00000010: 440e 513c e039 873b 3a88 e13b 01c2 f6bb
00000020: d440 b9bb 06ec 2f3c f5f1 ec3a cafd 0d3a
00000030: e7cd 3f3c cdbd 1fbc 43f4 d43c 66c5 83bc
00000040: ccd4 5b3c af0e 003c b5cc 1e3c 2b6f e5bb
00000050: 7b1d 4b3b 8d65 46bc 3734 ef3b 9e8b a8bb
00000060: 5eb6 d73b b5f7 10bc 5c76 af3b 7f06 14bc
00000070: 4412 b13c fd03 e9bb 300a 823b 2d23 053c
00000080: 33ef 33bc 5100 d4bb 2d31 90bb 26a4 8b3b
00000090: 70e3 45bb d3a4 82bc b21a 3dbc b4c5 0c3c
000000a0: 1d25 20bb 35e8 bcbb 0e5b 8e3c a483 733c
000000b0: 24b8 503c 7302 4a3c 0ba9 913b cb99 d73b
000000c0: fbf7 67bb 0e6c babb 73e9 36bc 3544 aaba
000000d0: 13c1 7c3b 5444 203a 6338 93bb 01ea 83bc
000000e0: 37d4 d8bb 6907 983b 77cb 0fbc 113e bf3b
000000f0: a9d7 253c 9f0a 573c aac2 5938 9bec 12bc
00000100: 11eb a33b a0da b63c d828 653c a640 ca3a
00000110: 25c6 9d3c 7bc8 de3b 6269 6a3c a764 e0ba
00000120: 95e3 463b 832e 7b3c e801 ca3a cc1c 463a
00000130: 007e 44ba b9b9 6d3b c3d7 34bb ace4 423c
00000140: 2210 c03a 17fe 39bc d211 89bc 1f40 96bb
00000150: 3711 503c 90af 60bb 3365 f63b 7265 873b
00000160: 7631 8e3c e5e1 043c 66e9 35bc 91cb 57bc
00000170: 2c35 823b 5252 09bb 97d8 ee3b 6787 c1ba
-0.012365111 -0.014151557 -0.0032362824 0.0006975184 0.012759749 0.0041267723 0.0068826945 -0.0075304513
-0.00565348 0.010737425 0.001807748 0.00054165407 0.011706806 -0.009749842 0.02599538 -0.016085338
0.013417434 0.007816001 0.009692361 -0.0070017776 0.0030992914 -0.0121091725 0.0072999257 -0.005143597
0.006583019 -0.00884812 0.0053546857 -0.009034752 0.021615155 -0.007111071 0.0039684996 0.008126062
-0.0109823225 -0.0064697643 -0.0044003935 0.0042615114 -0.0030195378 -0.015947735 -0.011542009 0.008592058
-0.0024436184 -0.005764986 0.017377403 0.014862929 0.012739215 0.0123296855 0.0044452003 0.006579613
-0.003539561 -0.0056891507 -0.011164057 -0.0012990298 0.003856723 0.00061136973 -0.004492806 -0.016102793
-0.006617095 0.0046395552 -0.008776537 0.0058362563 0.010122218 0.013125091 5.1918127e-05 -0.008967544
0.0050023873 0.022321045 0.013986789 0.0015430644 0.019259522 0.0067988015 0.014307352 -0.001711984
0.0030348052 0.0153309135 0.0015411945 0.00075573917 -0.0007495582 0.003627403 -0.0027594424 0.01189534
0.0014653245 -0.011352084 -0.01673213 -0.0045852805 0.012699417 -0.003428433 0.007519388 0.0041319663
0.01735757 0.008110498 -0.01110301 -0.013171093 0.0039736237 -0.0020953608 0.007289003 -0.0014765084
